…
    sources: "/home/gines/devel/openpose_train/dataset/lmdb_coco2017_foot;/home/gines/devel/openpose_train/dataset/lmdb_coco;/home/gines/devel/openpose_train/dataset/lmdb_mpii;/mnt/data2/lmdb_face_frgc/;/mnt/data2/lmdb_face_multipie/;/mnt/data2/lmdb_face_mask_out/;/mnt/data2/lmdb_hand_dome/;/mnt/data2/lmdb_hand_mpii/;/home/gines/devel/openpose_train/dataset/lmdb_dome135"
    probabilities: "0.05;0.73;0.05;0.005;0.01;0.005;0.005;0.05;0.075"
    source_background: "/home/gines/devel/openpose_train/dataset/lmdb_background"
    prob_only_background: 0.02
    media_directory: "/media/posefs0c/panopticdb/a4/hdImgs/"
    normalization: 0
    add_distance: false
  }
}
layer {
  name: "vec_weight"
  type: "Slice"
  bottom: "label"
  top: "vec_weight"
  top: "heat_weight"
  top: "vec_temp"
  top: "heat_temp"
  slice_param {
    slice_point: 304
    slice_point: 439
    slice_point: 743
    axis: 1
  }
}
layer {
  name: "label_heat"
  type: "Eltwise"
  bottom: "heat_weight"
  bottom: "heat_temp"
  top: "label_heat"
  eltwise_param {
    operation: PROD
  }
}
layer {
  name: "label_vec"
  type: "Eltwise"
  bottom: "vec_weight"
  bottom: "vec_temp"
  top: "label_vec"
  eltwise_param {
    operation: PROD
  }
}
layer {
  name: "conv1_1"
  type: "Convolution"
  bottom: "image"
  top: "conv1_1"
  param {
    lr_mult: 1
    decay_mult: 1
  }
  param {
    lr_mult: 2
    decay_mult: 0
  }
  convolution_param {
    num_output: 64
    pad: 1
    kernel_size: 3
    weight_filler {
      type: "gaussian"
      std: 0.01
    }
    bias_filler {
      type: "constant"
    }
  }
}
layer {
  name: "relu1_1"
  type: "ReLU"
  bottom: "conv1_1"
  top: "conv1_1"
}
layer {
  name: "conv1_2"
  type: "Convolution"
  bottom: "conv1_1"
  top: "conv1_2"
  param {
    lr_mult: 1
    decay_mult: 1
  }
  param {
    lr_mult: 2
    decay_mult: 0
  }
  convolution_param {
    num_output: 64
    pad: 1
    kernel_size: 3
    weight_filler {
      type: "gaussian"
      std: 0.01
    }
    bias_filler {
      type: "constant"
    }
  }
}
layer {
  name: "relu1_2"
  type: "ReLU"
  bottom: "conv1_2"
  top: "conv1_2"
}
layer {
  name: "pool1_stage1"
  type: "Pooling"
  bottom: "conv1_2"
  top: "pool1_stage1"
  pooling_param {
    pool: MAX
    kernel_size: 2
    stride: 2
  }
}
layer {
  name: "conv2_1"
  type: "Convolution"
  bottom: "pool1_stage1"
  top: "conv2_1"
  param {
    lr_mult: 1
    decay_mult: 1
  }
  param {
    lr_mult: 2
    decay_mult: 0
  }
  convolution_param {
    num_output: 128
    pad: 1
    kernel_size: 3
    weight_filler {
      type: "gaussian"
      std: 0.01
    }
    bias_filler {
      type: "constant"
    }
  }
}
layer {
  name: "relu2_1"
  type: "ReLU"
  bottom: "conv2_1"
  top: "conv2_1"
}
layer {
  name: "conv2_2"
  type: "Convolution"
  bottom: "conv2_1"
  top: "conv2_2"
  param {
    lr_mult: 1
    decay_mult: 1
  }
  param {
    lr_mult: 2
    decay_mult: 0
  }
  convolution_param {
    num_output: 128
    pad: 1
    kernel_size: 3
    weight_filler {
      type: "gaussian"
      std: 0.01
    }
    bias_filler {
      type: "constant"
    }
  }
}
layer {
  name: "relu2_2"
  type: "ReLU"
  bottom: "conv2_2"
  top: "conv2_2"
}
layer {
  name: "pool2_stage1"
  type: "Pooling"
  bottom: "conv2_2"
  top: "pool2_stage1"
  pooling_param {
    pool: MAX
    kernel_size: 2
    stride: 2
  }
}
layer {
  name: "conv3_1"
  type: "Convolution"
  bottom: "pool2_stage1"
  top: "conv3_1"
  param {
    lr_mult: 1
    decay_mult: 1
  }
  param {
    lr_mult: 2
    decay_mult: 0
  }
  convolution_param {
    num_output: 256
    pad: 1
    kernel_size: 3
    weight_filler {
      type: "gaussian"
      std: 0.01
    }
    bias_filler {
      type: "constant"
    }
  }
}
layer {
  name: "relu3_1"
  type: "ReLU"
  bottom: "conv3_1"
  top: "conv3_1"
}
layer {
  name: "conv3_2"
  type: "Convolution"
  bottom: "conv3_1"
  top: "conv3_2"
  param {
    lr_mult: 1
    decay_mult: 1
  }
  param {
    lr_mult: 2
    decay_mult: 0
  }
  convolution_param {
    num_output: 256
    pad: 1
    kernel_size: 3
    weight_filler {
      type: "gaussian"
      std: 0.01
    }
    bias_filler {
      type: "constant"
    }
  }
}
layer {
  name: "relu3_2"
  type: "ReLU"
  bottom: "conv3_2"
  top: "conv3_2"
}
layer {
  name: "conv3_3"
  type: "Convolution"
  bottom: "conv3_2"
  top: "conv3_3"
  param {
    lr_mult: 1
    decay_mult: 1
  }
  param {
    lr_mult: 2
    decay_mult: 0
  }
  convolution_param {
    num_output: 256
    pad: 1
    kernel_size: 3
    weight_filler {
      type: "gaussian"
      std: 0.01
    }
    bias_filler {
      type: "constant"
    }
  }
}
layer {
  name: "relu3_3"
  type: "ReLU"
  bottom: "conv3_3"
  top: "conv3_3"
}
layer {
  name: "conv3_4"
  type: "Convolution"
  bottom: "conv3_3"
  top: "conv3_4"
  param {
    lr_mult: 1
    decay_mult: 1
  }
  param {
    lr_mult: 2
    decay_mult: 0
  }
  convolution_param {
    num_output: 256
    pad: 1
    kernel_size: 3
    weight_filler {
      type: "gaussian"
      std: 0.01
    }
    bias_filler {
      type: "constant"
    }
  }
}
layer {
  name: "relu3_4"
  type: "ReLU"
  bottom: "conv3_4"
  top: "conv3_4"
}
layer {
  name: "pool3_stage1"
  type: "Pooling"
  bottom: "conv3_4"
  top: "pool3_stage1"
  pooling_param {
    pool: MAX
    kernel_size: 2
    stride: 2
  }
}
layer {
  name: "conv4_1"
  type: "Convolution"
  bottom: "pool3_stage1"
  top: "conv4_1"
  param {
    lr_mult: 1
    decay_mult: 1
  }
  param {
    lr_mult: 2
    decay_mult: 0
  }
  convolution_param {
    num_output: 512
    pad: 1
    kernel_size: 3
    weight_filler {
      type: "gaussian"
      std: 0.01
    }
    bias_filler {
      type: "constant"
    }
  }
}
layer {
  name: "relu4_1"
  type: "ReLU"
  bottom: "conv4_1"
  top: "conv4_1"
}
layer {
  name: "conv4_2"
  type: "Convolution"
  bottom: "conv4_1"
  top: "conv4_2"
  param {
    lr_mult: 1
    decay_mult: 1
  }
  param {
    lr_mult: 2
    decay_mult: 0
  }
  convolution_param {
    num_output: 512
    pad: 1
    kernel_size: 3
    weight_filler {
      type: "gaussian"
      std: 0.01
    }
    bias_filler {
      type: "constant"
    }
  }
}
layer {
  name: "relu4_2"
  type: "ReLU"
  bottom: "conv4_2"
  top: "conv4_2"
}
layer {
  name: "conv4_3"
  type: "Convolution"
  bottom: "conv4_2"
  top: "conv4_3"
  param {
    lr_mult: 1
    decay_mult: 1
  }
  param {
    lr_mult: 2
    decay_mult: 0
  }
  convolution_param {
    num_output: 512
    pad: 1
    kernel_size: 3
    weight_filler {
      type: "gaussian"
      std: 0.01
    }
    bias_filler {
      type: "constant"
    }
  }
}
layer {
  name: "relu4_3"
  type: "ReLU"
  bottom: "conv4_3"
  top: "conv4_3"
}
layer {
  name: "conv4_4"
  type: "Convolution"
  bottom: "conv4_3"
  top: "conv4_4"
  param {
    lr_mult: 1
    decay_mult: 1
  }
  param {
    lr_mult: 2
    decay_mult: 0
  }
  convolution_param {
    num_output: 512
    pad: 1
    kernel_size: 3
    weight_filler {
      type: "gaussian"
      std: 0.01
    }
    bias_filler {
      type: "constant"
    }
  }
}
layer {
  name: "relu4_4"
  type: "ReLU"
  bottom: "conv4_4"
  top: "conv4_4"
}
layer {
  name: "conv4_5_CPM_0"
  type: "Convolution"
  bottom: "conv4_4"
  top: "conv4_5_CPM_0"
  param {
    lr_mult: 1
    decay_mult: 1
  }
  param {
    lr_mult: 2
    decay_mult: 0
  }
  convolution_param {
    num_output: 256
    pad: 1
    kernel_size: 3
    weight_filler {
      type: "xavier"
    }
    bias_filler {
      type: "constant"
    }
  }
}
layer {
  name: "prelu4_5_CPM_0"
  type: "PReLU"
  bottom: "conv4_5_CPM_0"
  top: "conv4_5_CPM_0"
  param {
    lr_mult: 1
    decay_mult: 1
  }
  prelu_param {
    channel_shared: false
  }
}
layer {
  name: "conv4_5_CPM_1"
  type: "Convolution"
  bottom: "conv4_5_CPM_0"
  top: "conv4_5_CPM_1"
  param {
    lr_mult: 1
    decay_mult: 1
  }
  param {
    lr_mult: 2
    decay_mult: 0
  }
  convolution_param {
    num_output: 256
    pad: 1
    kernel_size: 3
    weight_filler {
      type: "xavier"
    }
    bias_filler {
      type: "constant"
    }
  }
}
layer {
  name: "prelu4_5_CPM_1"
  type: "PReLU"
  bottom: "conv4_5_CPM_1"
  top: "conv4_5_CPM_1"
  param {
    lr_mult: 1
    decay_mult: 1
  }
  prelu_param {
    channel_shared: false
  }
}
layer {
  name: "conv4_5_CPM_2"
  type: "Convolution"
  bottom: "conv4_5_CPM_1"
  top: "conv4_5_CPM_2"
  param {
    lr_mult: 1
    decay_mult: 1
  }
  param {
    lr_mult: 2
    decay_mult: 0
  }
  convolution_param {
    num_output: 256
    pad: 1
    kernel_size: 3
    weight_filler {
      type: "xavier"
    }
    bias_filler {
      type: "constant"
    }
  }
}
layer {
  name: "prelu4_5_CPM_2"
  type: "PReLU"
  bottom: "conv4_5_CPM_2"
  top: "conv4_5_CPM_2"
  param {
    lr_mult: 1
    decay_mult: 1
  }
  prelu_param {
    channel_shared: false
  }
}
layer {
  name: "conv4_5_CPM_concat"
  type: "Concat"
  bottom: "conv4_5_CPM_0"
  bottom: "conv4_5_CPM_1"
  bottom: "conv4_5_CPM_2"
  top: "conv4_5_CPM_concat"
  concat_param {
    axis: 1
  }
}
layer {
  name: "conv4_6_CPM_0"
  type: "Convolution"
  bottom: "conv4_5_CPM_concat"
  top: "conv4_6_CPM_0"
  param {
    lr_mult: 1
    decay_mult: 1
  }
  param {
    lr_mult: 2
    decay_mult: 0
  }
  convolution_param {
    num_output: 256
    pad: 1
    kernel_size: 3
    weight_filler {
      type: "xavier"
    }
    bias_filler {
      type: "constant"
    }
  }
}
layer {
  name: "prelu4_6_CPM_0"
  type: "PReLU"
  bottom: "conv4_6_CPM_0"
  top: "conv4_6_CPM_0"
  param {
    lr_mult: 1
    decay_mult: 1
  }
  prelu_param {
    channel_shared: false
  }
}
layer {
  name: "conv4_6_CPM_1"
  type: "Convolution"
  bottom: "conv4_6_CPM_0"
  top: "conv4_6_CPM_1"
  param {
    lr_mult: 1
    decay_mult: 1
  }
  param {
    lr_mult: 2
    decay_mult: 0
  }
  convolution_param {
    num_output: 256
    pad: 1
    kernel_size: 3
    weight_filler {
      type: "xavier"
    }
    bias_filler {
      type: "constant"
    }
  }
}
layer {
  name: "prelu4_6_CPM_1"
  type: "PReLU"
  bottom: "conv4_6_CPM_1"
  top: "conv4_6_CPM_1"
  param {
    lr_mult: 1
    decay_mult: 1
  }
  prelu_param {
    channel_shared: false
  }
}
layer {
  name: "conv4_6_CPM_2"
  type: "Convolution"
  bottom: "conv4_6_CPM_1"
  top: "conv4_6_CPM_2"
  param {
    lr_mult: 1
    decay_mult: 1
  }
  param {
    lr_mult: 2
    decay_mult: 0
  }
  convolution_param {
    num_output: 256
    pad: 1
    kernel_size: 3
    weight_filler {
      type: "xavier"
    }
    bias_filler {
      type: "constant"
    }
  }
}
layer {
  name: "prelu4_6_CPM_2"
  type: "PReLU"
  bottom: "conv4_6_CPM_2"
  top: "conv4_6_CPM_2"
  param {
    lr_mult: 1
    decay_mult: 1
  }
  prelu_param {
    channel_shared: false
  }
}
layer {
  name: "conv4_6_CPM_concat"
  type: "Concat"
  bottom: "conv4_6_CPM_0"
  bottom: "conv4_6_CPM_1"
  bottom: "conv4_6_CPM_2"
  top: "conv4_6_CPM_concat"
  concat_param {
    axis: 1
  }
}
layer {
  name: "conv4_7_CPM_0"
  type: "Convolution"
  bottom: "conv4_6_CPM_concat"
  top: "conv4_7_CPM_0"
  param {
    lr_mult: 1
    decay_mult: 1
  }
  param {
    lr_mult: 2
    decay_mult: 0
  }
  convolution_param {
    num_output: 224
    pad: 1
    kernel_size: 3
    weight_filler {
      type: "xavier"
    }
    bias_filler {
      type: "constant"
    }
  }
}
layer {
  name: "prelu4_7_CPM_0"
  type: "PReLU"
  bottom: "conv4_7_CPM_0"
  top: "conv4_7_CPM_0"
  param {
    lr_mult: 1
    decay_mult: 1
  }
  prelu_param {
    channel_shared: false
  }
}
layer {
  name: "conv4_7_CPM_1"
  type: "Convolution"
  bottom: "conv4_7_CPM_0"
  top: "conv4_7_CPM_1"
  param {
    lr_mult: 1
    decay_mult: 1
  }
  param {
    lr_mult: 2
    decay_mult: 0
  }
  convolution_param {
    num_output: 224
    pad: 1
    kernel_size: 3
    weight_filler {
      type: "xavier"
    }
    bias_filler {
      type: "constant"
    }
  }
}
layer {
  name: "prelu4_7_CPM_1"
  type: "PReLU"
  bottom: "conv4_7_CPM_1"
  top: "conv4_7_CPM_1"
  param {
    lr_mult: 1
    decay_mult: 1
  }
  prelu_param {
    channel_shared: false
  }
}
layer {
  name: "conv4_7_CPM_2"
  type: "Convolution"
  bottom: "conv4_7_CPM_1"
  top: "conv4_7_CPM_2"
  param {
    lr_mult: 1
    decay_mult: 1
  }
  param {
    lr_mult: 2
    decay_mult: 0
  }
  convolution_param {
    num_output: 224
    pad: 1
    kernel_size: 3
    weight_filler {
      type: "xavier"
    }
    bias_filler {
      type: "constant"
    }
  }
}
layer {
  name: "prelu4_7_CPM_2"
  type: "PReLU"
  bottom: "conv4_7_CPM_2"
  top: "conv4_7_CPM_2"
  param {
    lr_mult: 1
    decay_mult: 1
  }
  prelu_param {
    channel_shared: false
  }
}
layer {
  name: "conv4_7_CPM_concat"
  type: "Concat"
  bottom: "conv4_7_CPM_0"
  bottom: "conv4_7_CPM_1"
  bottom: "conv4_7_CPM_2"
  top: "conv4_7_CPM_concat"
  concat_param {
    axis: 1
  }
}
layer {
  name: "conv4_8_CPM_0"
  type: "Convolution"
  bottom: "conv4_7_CPM_concat"
  top: "conv4_8_CPM_0"
  param {
    lr_mult: 1
    decay_mult: 1
  }
  param {
    lr_mult: 2
    decay_mult: 0
  }
  convolution_param {
    num_output: 256
    pad: 1
    kernel_size: 3
    weight_filler {
      type: "xavier"
    }
    bias_filler {
      type: "constant"
    }
  }
}
layer {
  name: "prelu4_8_CPM_0"
  type: "PReLU"
  bottom: "conv4_8_CPM_0"
  top: "conv4_8_CPM_0"
  param {
    lr_mult: 1
    decay_mult: 1
  }
  prelu_param {
    channel_shared: false
  }
}
layer {
  name: "conv4_8_CPM_1"
  type: "Convolution"
  bottom: "conv4_8_CPM_0"
  top: "conv4_8_CPM_1"
  param {
    lr_mult: 1
    decay_mult: 1
  }
  param {
    lr_mult: 2
    decay_mult: 0
  }
  convolution_param {
    num_output: 256
    pad: 1
    kernel_size: 3
    weight_filler {
      type: "xavier"
    }
    bias_filler {
      type: "constant"
    }
  }
}
layer {
  name: "prelu4_8_CPM_1"
  type: "PReLU"
  bottom: "conv4_8_CPM_1"
  top: "conv4_8_CPM_1"
  param {
    lr_mult: 1
    decay_mult: 1
  }
  prelu_param {
    channel_shared: false
  }
}
layer {
  name: "conv4_8_CPM_2"
  type: "Convolution"
  bottom: "conv4_8_CPM_1"
  top: "conv4_8_CPM_2"
  param {
    lr_mult: 1
    decay_mult: 1
  }
  param {
    lr_mult: 2
    decay_mult: 0
  }
  convolution_param {
    num_output: 256
    pad: 1
    kernel_size: 3
    weight_filler {
      type: "xavier"
    }
    bias_filler {
      type: "constant"
    }
  }
}
layer {
  name: "prelu4_8_CPM_2"
  type: "PReLU"
  bottom: "conv4_8_CPM_2"
  top: "conv4_8_CPM_2"
  param {
    lr_mult: 1
    decay_mult: 1
  }
  prelu_param {
    channel_shared: false
  }
}
layer {
  name: "conv4_8_CPM_concat"
  type: "Concat"
  bottom: "conv4_8_CPM_0"
  bottom: "conv4_8_CPM_1"
  bottom: "conv4_8_CPM_2"
  top: "conv4_8_CPM_concat"
  concat_param {
    axis: 1
  }
}
layer {
  name: "conv4_9_CPM_0"
  type: "Convolution"
  bottom: "conv4_8_CPM_concat"
  top: "conv4_9_CPM_0"
  param {
    lr_mult: 1
    decay_mult: 1
  }
  param {
    lr_mult: 2
    decay_mult: 0
  }
  convolution_param {
    num_output: 256
    pad: 1
    kernel_size: 3
    weight_filler {
      type: "xavier"
    }
    bias_filler {
      type: "constant"
    }
  }
}
layer {
  name: "prelu4_9_CPM_0"
  type: "PReLU"
  bottom: "conv4_9_CPM_0"
  top: "conv4_9_CPM_0"
  param {
    lr_mult: 1
    decay_mult: 1
  }
  prelu_param {
    channel_shared: false
  }
}
layer {
  name: "conv4_9_CPM_1"
  type: "Convolution"
  bottom: "conv4_9_CPM_0"
  top: "conv4_9_CPM_1"
  param {
    lr_mult: 1
    decay_mult: 1
  }
  param {
    lr_mult: 2
    decay_mult: 0
  }
  convolution_param {
    num_output: 256
    pad: 1
    kernel_size: 3
    weight_filler {
      type: "xavier"
    }
    bias_filler {
      type: "constant"
    }
  }
}
layer {
  name: "prelu4_9_CPM_1"
  type: "PReLU"
  bottom: "conv4_9_CPM_1"
  top: "conv4_9_CPM_1"
  param {
    lr_mult: 1
    decay_mult: 1
  }
  prelu_param {
    channel_shared: false
  }
}
layer {
  name: "conv4_9_CPM_2"
  type: "Convolution"
  bottom: "conv4_9_CPM_1"
  top: "conv4_9_CPM_2"
  param {
    lr_mult: 1
    decay_mult: 1
  }
  param {
    lr_mult: 2
    decay_mult: 0
  }
  convolution_param {
    num_output: 256
    pad: 1
    kernel_size: 3
    weight_filler {
      type: "xavier"
    }
    bias_filler {
      type: "constant"
    }
  }
}
layer {
  name: "prelu4_9_CPM_2"
  type: "PReLU"
  bottom: "conv4_9_CPM_2"
  top: "conv4_9_CPM_2"
  param {
    lr_mult: 1
    decay_mult: 1
  }
  prelu_param {
    channel_shared: false
  }
}
layer {
  name: "conv4_9_CPM_concat"
  type: "Concat"
  bottom: "conv4_9_CPM_0"
  bottom: "conv4_9_CPM_1"
  bottom: "conv4_9_CPM_2"
  top: "conv4_9_CPM_concat"
  concat_param {
    axis: 1
  }
}
layer {
  name: "conv4_10_CPM_0"
  type: "Convolution"
  bottom: "conv4_9_CPM_concat"
  top: "conv4_10_CPM_0"
  param {
    lr_mult: 1
    decay_mult: 1
  }
  param {
    lr_mult: 2
    decay_mult: 0
  }
  convolution_param {
    num_output: 224
    pad: 1
    kernel_size: 3
    weight_filler {
      type: "xavier"
    }
    bias_filler {
      type: "constant"
    }
  }
}
layer {
  name: "prelu4_10_CPM_0"
  type: "PReLU"
  bottom: "conv4_10_CPM_0"
  top: "conv4_10_CPM_0"
  param {
    lr_mult: 1
    decay_mult: 1
  }
  prelu_param {
    channel_shared: false
  }
}
layer {
  name: "conv4_10_CPM_1"
  type: "Convolution"
  bottom: "conv4_10_CPM_0"
  top: "conv4_10_CPM_1"
  param {
    lr_mult: 1
    decay_mult: 1
  }
  param {
    lr_mult: 2
    decay_mult: 0
  }
  convolution_param {
    num_output: 224
    pad: 1
    kernel_size: 3
    weight_filler {
      type: "xavier"
    }
    bias_filler {
      type: "constant"
    }
  }
}
layer {
  name: "prelu4_10_CPM_1"
  type: "PReLU"
  bottom: "conv4_10_CPM_1"
  top: "conv4_10_CPM_1"
  param {
    lr_mult: 1
    decay_mult: 1
  }
  prelu_param {
    channel_shared: false
  }
}
layer {
  name: "conv4_10_CPM_2"
  type: "Convolution"
  bottom: "conv4_10_CPM_1"
  top: "conv4_10_CPM_2"
  param {
    lr_mult: 1
    decay_mult: 1
  }
  param {
    lr_mult: 2
    decay_mult: 0
  }
  convolution_param {
    num_output: 224
    pad: 1
    kernel_size: 3
    weight_filler {
      type: "xavier"
    }
    bias_filler {
      type: "constant"
    }
  }
}
layer {
  name: "prelu4_10_CPM_2"
  type: "PReLU"
  bottom: "conv4_10_CPM_2"
  top: "conv4_10_CPM_2"
  param {
    lr_mult: 1
    decay_mult: 1
  }
  prelu_param {
    channel_shared: false
  }
}
layer {
  name: "conv4_10_CPM_concat"
  type: "Concat"
  bottom: "conv4_10_CPM_0"
  bottom: "conv4_10_CPM_1"
  bottom: "conv4_10_CPM_2"
  top: "conv4_10_CPM_concat"
  concat_param {
    axis: 1
  }
}
layer {
  name: "conv4_11_CPM_concat"
  type: "Concat"
  bottom: "conv4_2"
  bottom: "conv4_4"
  bottom: "conv4_7_CPM_concat"
  bottom: "conv4_10_CPM_concat"
  top: "conv4_11_CPM_concat"
  concat_param {
    axis: 1
  }
}
layer {
  name: "conv4_11_CPM"
  type: "Convolution"
  bottom: "conv4_11_CPM_concat"
  top: "conv4_11_CPM"
  param {
    lr_mult: 1
    decay_mult: 1
  }
  param {
    lr_mult: 2
    decay_mult: 0
  }
  convolution_param {
    num_output: 512
    pad: 0
    kernel_size: 1
    weight_filler {
      type: "xavier"
    }
    bias_filler {
      type: "constant"
    }
  }
}
layer {
  name: "prelu4_11_CPM"
  type: "PReLU"
  bottom: "conv4_11_CPM"
  top: "conv4_11_CPM"
  param {
    lr_mult: 1
    decay_mult: 1
  }
  prelu_param {
    channel_shared: false
  }
}
layer {
  name: "Mconv1_stage0_L2_0"
  type: "Convolution"
  bottom: "conv4_11_CPM"
  top: "Mconv1_stage0_L2_0"
  param {
    lr_mult: 4
    decay_mult: 1
  }
  param {
    lr_mult: 8
    decay_mult: 0
  }
  convolution_param {
    num_output: 256
    pad: 1
    kernel_size: 3
    weight_filler {
      type: "xavier"
    }
    bias_filler {
      type: "constant"
    }
  }
}
layer {
  name: "Mprelu1_stage0_L2_0"
  type: "PReLU"
  bottom: "Mconv1_stage0_L2_0"
  top: "Mconv1_stage0_L2_0"
  param {
    lr_mult: 4
    decay_mult: 1
  }
  prelu_param {
    channel_shared: false
  }
}
layer {
  name: "Mconv1_stage0_L2_1"
  type: "Convolution"
  bottom: "Mconv1_stage0_L2_0"
  top: "Mconv1_stage0_L2_1"
  param {
    lr_mult: 4
    decay_mult: 1
  }
  param {
    lr_mult: 8
    decay_mult: 0
  }
  convolution_param {
    num_output: 256
    pad: 1
    kernel_size: 3
    weight_filler {
      type: "xavier"
    }
    bias_filler {
      type: "constant"
    }
  }
}
layer {
  name: "Mprelu1_stage0_L2_1"
  type: "PReLU"
  bottom: "Mconv1_stage0_L2_1"
  top: "Mconv1_stage0_L2_1"
  param {
    lr_mult: 4
    decay_mult: 1
  }
  prelu_param {
    channel_shared: false
  }
}
layer {
  name: "Mconv1_stage0_L2_2"
  type: "Convolution"
  bottom: "Mconv1_stage0_L2_1"
  top: "Mconv1_stage0_L2_2"
  param {
    lr_mult: 4
    decay_mult: 1
  }
  param {
    lr_mult: 8
    decay_mult: 0
  }
  convolution_param {
    num_output: 256
    pad: 1
    kernel_size: 3
    weight_filler {
      type: "xavier"
    }
    bias_filler {
      type: "constant"
    }
  }
}
layer {
  name: "Mprelu1_stage0_L2_2"
  type: "PReLU"
  bottom: "Mconv1_stage0_L2_2"
  top: "Mconv1_stage0_L2_2"
  param {
    lr_mult: 4
    decay_mult: 1
  }
  prelu_param {
    channel_shared: false
  }
}
layer {
  name: "Mconv1_stage0_L2_concat"
  type: "Concat"
  bottom: "Mconv1_stage0_L2_0"
  bottom: "Mconv1_stage0_L2_1"
  bottom: "Mconv1_stage0_L2_2"
  top: "Mconv1_stage0_L2_concat"
  concat_param {
    axis: 1
  }
}
layer {
  name: "Mconv2_stage0_L2_0"
  type: "Convolution"
  bottom: "Mconv1_stage0_L2_concat"
  top: "Mconv2_stage0_L2_0"
  param {
    lr_mult: 4
    decay_mult: 1
  }
  param {
    lr_mult: 8
    decay_mult: 0
  }
  convolution_param {
    num_output: 256
    pad: 1
    kernel_size: 3
    weight_filler {
      type: "xavier"
    }
    bias_filler {
      type: "constant"
    }
  }
}
layer {
  name: "Mprelu2_stage0_L2_0"
  type: "PReLU"
  bottom: "Mconv2_stage0_L2_0"
  top: "Mconv2_stage0_L2_0"
  param {
    lr_mult: 4
    decay_mult: 1
  }
  prelu_param {
    channel_shared: false
  }
}
layer {
  name: "Mconv2_stage0_L2_1"
  type: "Convolution"
  bottom: "Mconv2_stage0_L2_0"
  top: "Mconv2_stage0_L2_1"
  param {
    lr_mult: 4
    decay_mult: 1
  }
  param {
    lr_mult: 8
    decay_mult: 0
  }
  convolution_param {
    num_output: 256
    pad: 1
    kernel_size: 3
    weight_filler {
      type: "xavier"
    }
    bias_filler {
      type: "constant"
    }
  }
}
layer {
  name: "Mprelu2_stage0_L2_1"
  type: "PReLU"
  bottom: "Mconv2_stage0_L2_1"
  top: "Mconv2_stage0_L2_1"
  param {
    lr_mult: 4
    decay_mult: 1
  }
  prelu_param {
    channel_shared: false
  }
}
layer {
  name: "Mconv2_stage0_L2_2"
  type: "Convolution"
  bottom: "Mconv2_stage0_L2_1"
  top: "Mconv2_stage0_L2_2"
  param {
    lr_mult: 4
    decay_mult: 1
  }
  param {
    lr_mult: 8
    decay_mult: 0
  }
  convolution_param {
    num_output: 256
    pad: 1
    kernel_size: 3
    weight_filler {
      type: "xavier"
    }
    bias_filler {
      type: "constant"
    }
  }
}
layer {
  name: "Mprelu2_stage0_L2_2"
  type: "PReLU"
  bottom: "Mconv2_stage0_L2_2"
  top: "Mconv2_stage0_L2_2"
  param {
    lr_mult: 4
    decay_mult: 1
  }
  prelu_param {
    channel_shared: false
  }
}
layer {
  name: "Mconv2_stage0_L2_concat"
  type: "Concat"
  bottom: "Mconv2_stage0_L2_0"
  bottom: "Mconv2_stage0_L2_1"
  bottom: "Mconv2_stage0_L2_2"
  top: "Mconv2_stage0_L2_concat"
  concat_param {
    axis: 1
  }
}
layer {
  name: "Mconv3_stage0_L2_0"
  type: "Convolution"
  bottom: "Mconv2_stage0_L2_concat"
  top: "Mconv3_stage0_L2_0"
  param {
    lr_mult: 4
    decay_mult: 1
  }
  param {
    lr_mult: 8
    decay_mult: 0
  }
  convolution_param {
    num_output: 256
    pad: 1
    kernel_size: 3
    weight_filler {
      type: "xavier"
    }
    bias_filler {
      type: "constant"
    }
  }
}
layer {
  name: "Mprelu3_stage0_L2_0"
  type: "PReLU"
  bottom: "Mconv3_stage0_L2_0"
  top: "Mconv3_stage0_L2_0"
  param {
    lr_mult: 4
    decay_mult: 1
  }
  prelu_param {
    channel_shared: false
  }
}
layer {
  name: "Mconv3_stage0_L2_1"
  type: "Convolution"
  bottom: "Mconv3_stage0_L2_0"
  top: "Mconv3_stage0_L2_1"
  param {
    lr_mult: 4
    decay_mult: 1
  }
  param {
    lr_mult: 8
    decay_mult: 0
  }
  convolution_param {
    num_output: 256
    pad: 1
    kernel_size: 3
    weight_filler {
      type: "xavier"
    }
    bias_filler {
      type: "constant"
    }
  }
}
layer {
  name: "Mprelu3_stage0_L2_1"
  type: "PReLU"
  bottom: "Mconv3_stage0_L2_1"
  top: "Mconv3_stage0_L2_1"
  param {
    lr_mult: 4
    decay_mult: 1
  }
  prelu_param {
    channel_shared: false
  }
}
layer {
  name: "Mconv3_stage0_L2_2"
  type: "Convolution"
  bottom: "Mconv3_stage0_L2_1"
  top: "Mconv3_stage0_L2_2"
  param {
    lr_mult: 4
    decay_mult: 1
  }
  param {
    lr_mult: 8
    decay_mult: 0
  }
  convolution_param {
    num_output: 256
    pad: 1
    kernel_size: 3
    weight_filler {
      type: "xavier"
    }
    bias_filler {
      type: "constant"
    }
  }
}
layer {
  name: "Mprelu3_stage0_L2_2"
  type: "PReLU"
  bottom: "Mconv3_stage0_L2_2"
  top: "Mconv3_stage0_L2_2"
  param {
    lr_mult: 4
    decay_mult: 1
  }
  prelu_param {
    channel_shared: false
  }
}
layer {
  name: "Mconv3_stage0_L2_concat"
  type: "Concat"
  bottom: "Mconv3_stage0_L2_0"
  bottom: "Mconv3_stage0_L2_1"
  bottom: "Mconv3_stage0_L2_2"
  top: "Mconv3_stage0_L2_concat"
  concat_param {
    axis: 1
  }
}
layer {
  name: "Mconv4_stage0_L2_0"
  type: "Convolution"
  bottom: "Mconv3_stage0_L2_concat"
  top: "Mconv4_stage0_L2_0"
  param {
    lr_mult: 4
    decay_mult: 1
  }
  param {
    lr_mult: 8
    decay_mult: 0
  }
  convolution_param {
    num_output: 256
    pad: 1
    kernel_size: 3
    weight_filler {
      type: "xavier"
    }
    bias_filler {
      type: "constant"
    }
  }
}
layer {
  name: "Mprelu4_stage0_L2_0"
  type: "PReLU"
  bottom: "Mconv4_stage0_L2_0"
  top: "Mconv4_stage0_L2_0"
  param {
    lr_mult: 4
    decay_mult: 1
  }
  prelu_param {
    channel_shared: false
  }
}
layer {
  name: "Mconv4_stage0_L2_1"
  type: "Convolution"
  bottom: "Mconv4_stage0_L2_0"
  top: "Mconv4_stage0_L2_1"
  param {
    lr_mult: 4
    decay_mult: 1
  }
  param {
    lr_mult: 8
    decay_mult: 0
  }
  convolution_param {
    num_output: 256
    pad: 1
    kernel_size: 3
    weight_filler {
      type: "xavier"
    }
    bias_filler {
      type: "constant"
    }
  }
}
layer {
  name: "Mprelu4_stage0_L2_1"
  type: "PReLU"
  bottom: "Mconv4_stage0_L2_1"
  top: "Mconv4_stage0_L2_1"
  param {
    lr_mult: 4
    decay_mult: 1
  }
  prelu_param {
    channel_shared: false
  }
}
layer {
  name: "Mconv4_stage0_L2_2"
  type: "Convolution"
  bottom: "Mconv4_stage0_L2_1"
  top: "Mconv4_stage0_L2_2"
  param {
    lr_mult: 4
    decay_mult: 1
  }
  param {
    lr_mult: 8
    decay_mult: 0
  }
  convolution_param {
    num_output: 256
    pad: 1
    kernel_size: 3
    weight_filler {
      type: "xavier"
    }
    bias_filler {
      type: "constant"
    }
  }
}
layer {
  name: "Mprelu4_stage0_L2_2"
  type: "PReLU"
  bottom: "Mconv4_stage0_L2_2"
  top: "Mconv4_stage0_L2_2"
  param {
    lr_mult: 4
    decay_mult: 1
  }
  prelu_param {
    channel_shared: false
  }
}
layer {
  name: "Mconv4_stage0_L2_concat"
  type: "Concat"
  bottom: "Mconv4_stage0_L2_0"
  bottom: "Mconv4_stage0_L2_1"
  bottom: "Mconv4_stage0_L2_2"
  top: "Mconv4_stage0_L2_concat"
  concat_param {
    axis: 1
  }
}
layer {
  name: "Mconv5_stage0_L2_0"
  type: "Convolution"
  bottom: "Mconv4_stage0_L2_concat"
  top: "Mconv5_stage0_L2_0"
  param {
    lr_mult: 4
    decay_mult: 1
  }
  param {
    lr_mult: 8
    decay_mult: 0
  }
  convolution_param {
    num_output: 256
    pad: 1
    kernel_size: 3
    weight_filler {
      type: "xavier"
    }
    bias_filler {
      type: "constant"
    }
  }
}
layer {
  name: "Mprelu5_stage0_L2_0"
  type: "PReLU"
  bottom: "Mconv5_stage0_L2_0"
  top: "Mconv5_stage0_L2_0"
  param {
    lr_mult: 4
    decay_mult: 1
  }
  prelu_param {
    channel_shared: false
  }
}
layer {
  name: "Mconv5_stage0_L2_1"
  type: "Convolution"
  bottom: "Mconv5_stage0_L2_0"
  top: "Mconv5_stage0_L2_1"
  param {
    lr_mult: 4
    decay_mult: 1
  }
  param {
    lr_mult: 8
    decay_mult: 0
  }
  convolution_param {
    num_output: 256
    pad: 1
    kernel_size: 3
    weight_filler {
      type: "xavier"
    }
    bias_filler {
      type: "constant"
    }
  }
}
layer {
  name: "Mprelu5_stage0_L2_1"
  type: "PReLU"
  bottom: "Mconv5_stage0_L2_1"
  top: "Mconv5_stage0_L2_1"
  param {
    lr_mult: 4
    decay_mult: 1
  }
  prelu_param {
    channel_shared: false
  }
}
layer {
  name: "Mconv5_stage0_L2_2"
  type: "Convolution"
  bottom: "Mconv5_stage0_L2_1"
  top: "Mconv5_stage0_L2_2"
  param {
    lr_mult: 4
    decay_mult: 1
  }
  param {
    lr_mult: 8
    decay_mult: 0
  }
  convolution_param {
    num_output: 256
    pad: 1
    kernel_size: 3
    weight_filler {
      type: "xavier"
    }
    bias_filler {
      type: "constant"
    }
  }
}
layer {
  name: "Mprelu5_stage0_L2_2"
  type: "PReLU"
  bottom: "Mconv5_stage0_L2_2"
  top: "Mconv5_stage0_L2_2"
  param {
    lr_mult: 4
    decay_mult: 1
  }
  prelu_param {
    channel_shared: false
  }
}
layer {
  n
I0503 12:00:04.079628 21836 layer_factory.hpp:77] Creating layer image
I0503 12:00:04.079777 21836 db_lmdb.cpp:35] Opened lmdb /home/gines/devel/openpose_train/dataset/lmdb_coco2017_foot
I0503 12:00:04.079828 21836 db_lmdb.cpp:35] Opened lmdb /home/gines/devel/openpose_train/dataset/lmdb_coco
…
I0503 12:00:04.081497 21836 oPDataTransformer.cpp:462] OPDataTransformer constructor done.
I0503 12:00:04.081511 21836 oPDataTransformer.cpp:462] OPDataTransformer constructor done.
I0503 12:00:04.081516 21836 oPDataTransformer.cpp:462] OPDataTransformer constructor done.
I0503 12:00:04.081519 21836 oPDataTransformer.cpp:462] OPDataTransformer constructor done.
I0503 12:00:04.082573 21836 oPDataLayer.cpp:132] Image shape: 3, 3, 480, 480
I0503 12:00:04.082655 21836 oPDataLayer.cpp:148] Label shape: 3, 878, 60, 60
I0503 12:00:04.193850 21836 net.cpp:124] Setting up image
I0503 12:00:04.193881 21836 net.cpp:131] Top shape: 3 3 480 480 (2073600)
I0503 12:00:04.193886 21836 net.cpp:131] Top shape: 3 878 60 60 (9482400)
I0503 12:00:04.193889 21836 net.cpp:139] Memory required for data: 46224000
I0503 12:00:04.193899 21836 layer_factory.hpp:77] Creating layer vec_weight
I0503 12:00:04.193914 21836 net.cpp:86] Creating Layer vec_weight
I0503 12:00:04.193920 21836 net.cpp:408] vec_weight <- label
I0503 12:00:04.193931 21836 net.cpp:382] vec_weight -> vec_weight
I0503 12:00:04.193944 21836 net.cpp:382] vec_weight -> heat_weight
I0503 12:00:04.193950 21836 net.cpp:382] vec_weight -> vec_temp
I0503 12:00:04.193956 21836 net.cpp:382] vec_weight -> heat_temp
I0503 12:00:04.194109 21836 net.cpp:124] Setting up vec_weight
I0503 12:00:04.194119 21836 net.cpp:131] Top shape: 3 304 60 60 (3283200)
I0503 12:00:04.194123 21836 net.cpp:131] Top shape: 3 135 60 60 (1458000)
I0503 12:00:04.194126 21836 net.cpp:131] Top shape: 3 304 60 60 (3283200)
I0503 12:00:04.194130 21836 net.cpp:131] Top shape: 3 135 60 60 (1458000)
I0503 12:00:04.194133 21836 net.cpp:139] Memory required for data: 84153600
I0503 12:00:04.194136 21836 layer_factory.hpp:77] Creating layer vec_weight_vec_weight_0_split
I0503 12:00:04.194150 21836 net.cpp:86] Creating Layer vec_weight_vec_weight_0_split
I0503 12:00:04.194156 21836 net.cpp:408] vec_weight_vec_weight_0_split <- vec_weight
I0503 12:00:04.194161 21836 net.cpp:382] vec_weight_vec_weight_0_split -> vec_weight_vec_weight_0_split_0
I0503 12:00:04.194167 21836 net.cpp:382] vec_weight_vec_weight_0_split -> vec_weight_vec_weight_0_split_1
I0503 12:00:04.194211 21836 net.cpp:124] Setting up vec_weight_vec_weight_0_split
I0503 12:00:04.194217 21836 net.cpp:131] Top shape: 3 304 60 60 (3283200)
I0503 12:00:04.194221 21836 net.cpp:131] Top shape: 3 304 60 60 (3283200)
I0503 12:00:04.194223 21836 net.cpp:139] Memory required for data: 110419200
I0503 12:00:04.194226 21836 layer_factory.hpp:77] Creating layer heat_weight_vec_weight_1_split
I0503 12:00:04.194231 21836 net.cpp:86] Creating Layer heat_weight_vec_weight_1_split
I0503 12:00:04.194234 21836 net.cpp:408] heat_weight_vec_weight_1_split <- heat_weight
I0503 12:00:04.194239 21836 net.cpp:382] heat_weight_vec_weight_1_split -> heat_weight_vec_weight_1_split_0
I0503 12:00:04.194244 21836 net.cpp:382] heat_weight_vec_weight_1_split -> heat_weight_vec_weight_1_split_1
I0503 12:00:04.194273 21836 net.cpp:124] Setting up heat_weight_vec_weight_1_split
I0503 12:00:04.194281 21836 net.cpp:131] Top shape: 3 135 60 60 (1458000)
I0503 12:00:04.194285 21836 net.cpp:131] Top shape: 3 135 60 60 (1458000)
I0503 12:00:04.194288 21836 net.cpp:139] Memory required for data: 122083200
I0503 12:00:04.194291 21836 layer_factory.hpp:77] Creating layer label_heat
I0503 12:00:04.194298 21836 net.cpp:86] Creating Layer label_heat
I0503 12:00:04.194303 21836 net.cpp:408] label_heat <- heat_weight_vec_weight_1_split_0
I0503 12:00:04.194306 21836 net.cpp:408] label_heat <- heat_temp
I0503 12:00:04.194311 21836 net.cpp:382] label_heat -> label_heat
I0503 12:00:04.194332 21836 net.cpp:124] Setting up label_heat
I0503 12:00:04.194339 21836 net.cpp:131] Top shape: 3 135 60 60 (1458000)
I0503 12:00:04.194342 21836 net.cpp:139] Memory required for data: 127915200
I0503 12:00:04.194345 21836 layer_factory.hpp:77] Creating layer label_vec
I0503 12:00:04.194350 21836 net.cpp:86] Creating Layer label_vec
I0503 12:00:04.194353 21836 net.cpp:408] label_vec <- vec_weight_vec_weight_0_split_0
I0503 12:00:04.194357 21836 net.cpp:408] label_vec <- vec_temp
I0503 12:00:04.194361 21836 net.cpp:382] label_vec -> label_vec
I0503 12:00:04.194399 21836 net.cpp:124] Setting up label_vec
I0503 12:00:04.194406 21836 net.cpp:131] Top shape: 3 304 60 60 (3283200)
I0503 12:00:04.194409 21836 net.cpp:139] Memory required for data: 141048000
I0503 12:00:04.194412 21836 layer_factory.hpp:77] Creating layer conv1_1
I0503 12:00:04.194433 21836 net.cpp:86] Creating Layer conv1_1
I0503 12:00:04.194438 21836 net.cpp:408] conv1_1 <- image
I0503 12:00:04.194444 21836 net.cpp:382] conv1_1 -> conv1_1
I0503 12:00:04.212198 21849 metaData.cpp:175] datasetString: face70_multipie; imageSize: [640 x 480]; metaData.annotationListIndex: 4784; metaData.writeNumber: 0; metaData.totalWriteNumber: 5429; metaData.epoch: 0
I0503 12:00:04.531208 21836 net.cpp:124] Setting up conv1_1
I0503 12:00:04.531231 21836 net.cpp:131] Top shape: 3 64 480 480 (44236800)
I0503 12:00:04.531235 21836 net.cpp:139] Memory required for data: 317995200
I0503 12:00:04.531251 21836 layer_factory.hpp:77] Creating layer relu1_1
I0503 12:00:04.531272 21836 net.cpp:86] Creating Layer relu1_1
I0503 12:00:04.531287 21836 net.cpp:408] relu1_1 <- conv1_1
I0503 12:00:04.531292 21836 net.cpp:369] relu1_1 -> conv1_1 (in-place)
I0503 12:00:04.531414 21836 net.cpp:124] Setting up relu1_1
I0503 12:00:04.531424 21836 net.cpp:131] Top shape: 3 64 480 480 (44236800)
I0503 12:00:04.531427 21836 net.cpp:139] Memory required for data: 494942400
I0503 12:00:04.531430 21836 layer_factory.hpp:77] Creating layer conv1_2
I0503 12:00:04.531442 21836 net.cpp:86] Creating Layer conv1_2
I0503 12:00:04.531445 21836 net.cpp:408] conv1_2 <- conv1_1
I0503 12:00:04.531450 21836 net.cpp:382] conv1_2 -> conv1_2
I0503 12:00:04.533983 21836 net.cpp:124] Setting up conv1_2
I0503 12:00:04.534008 21836 net.cpp:131] Top shape: 3 64 480 480 (44236800)
I0503 12:00:04.534013 21836 net.cpp:139] Memory required for data: 671889600
I0503 12:00:04.534031 21836 layer_factory.hpp:77] Creating layer relu1_2
I0503 12:00:04.534037 21836 net.cpp:86] Creating Layer relu1_2
I0503 12:00:04.534040 21836 net.cpp:408] relu1_2 <- conv1_2
I0503 12:00:04.534044 21836 net.cpp:369] relu1_2 -> conv1_2 (in-place)
I0503 12:00:04.534168 21836 net.cpp:124] Setting up relu1_2
I0503 12:00:04.534178 21836 net.cpp:131] Top shape: 3 64 480 480 (44236800)
I0503 12:00:04.534180 21836 net.cpp:139] Memory required for data: 848836800
I0503 12:00:04.534184 21836 layer_factory.hpp:77] Creating layer pool1_stage1
I0503 12:00:04.534190 21836 net.cpp:86] Creating Layer pool1_stage1
I0503 12:00:04.534193 21836 net.cpp:408] pool1_stage1 <- conv1_2
I0503 12:00:04.534204 21836 net.cpp:382] pool1_stage1 -> pool1_stage1
I0503 12:00:04.534253 21836 net.cpp:124] Setting up pool1_stage1
I0503 12:00:04.534261 21836 net.cpp:131] Top shape: 3 64 240 240 (11059200)
I0503 12:00:04.534265 21836 net.cpp:139] Memory required for data: 893073600
I0503 12:00:04.534267 21836 layer_factory.hpp:77] Creating layer conv2_1
I0503 12:00:04.534276 21836 net.cpp:86] Creating Layer conv2_1
I0503 12:00:04.534278 21836 net.cpp:408] conv2_1 <- pool1_stage1
I0503 12:00:04.534283 21836 net.cpp:382] conv2_1 -> conv2_1
I0503 12:00:04.537811 21836 net.cpp:124] Setting up conv2_1
I0503 12:00:04.537835 21836 net.cpp:131] Top shape: 3 128 240 240 (22118400)
I0503 12:00:04.537838 21836 net.cpp:139] Memory required for data: 981547200
I0503 12:00:04.537847 21836 layer_factory.hpp:77] Creating layer relu2_1
I0503 12:00:04.537853 21836 net.cpp:86] Creating Layer relu2_1
I0503 12:00:04.537856 21836 net.cpp:408] relu2_1 <- conv2_1
I0503 12:00:04.537861 21836 net.cpp:369] relu2_1 -> conv2_1 (in-place)
I0503 12:00:04.537963 21836 net.cpp:124] Setting up relu2_1
I0503 12:00:04.537972 21836 net.cpp:131] Top shape: 3 128 240 240 (22118400)
I0503 12:00:04.537976 21836 net.cpp:139] Memory required for data: 1070020800
I0503 12:00:04.537978 21836 layer_factory.hpp:77] Creating layer conv2_2
I0503 12:00:04.537986 21836 net.cpp:86] Creating Layer conv2_2
I0503 12:00:04.537991 21836 net.cpp:408] conv2_2 <- conv2_1
I0503 12:00:04.537995 21836 net.cpp:382] conv2_2 -> conv2_2
I0503 12:00:04.543887 21836 net.cpp:124] Setting up conv2_2
I0503 12:00:04.543926 21836 net.cpp:131] Top shape: 3 128 240 240 (22118400)
I0503 12:00:04.543931 21836 net.cpp:139] Memory required for data: 1158494400
I0503 12:00:04.543948 21836 layer_factory.hpp:77] Creating layer relu2_2
I0503 12:00:04.543954 21836 net.cpp:86] Creating Layer relu2_2
I0503 12:00:04.543958 21836 net.cpp:408] relu2_2 <- conv2_2
I0503 12:00:04.543962 21836 net.cpp:369] relu2_2 -> conv2_2 (in-place)
I0503 12:00:04.544080 21836 net.cpp:124] Setting up relu2_2
I0503 12:00:04.544090 21836 net.cpp:131] Top shape: 3 128 240 240 (22118400)
I0503 12:00:04.544092 21836 net.cpp:139] Memory required for data: 1246968000
I0503 12:00:04.544095 21836 layer_factory.hpp:77] Creating layer pool2_stage1
I0503 12:00:04.544101 21836 net.cpp:86] Creating Layer pool2_stage1
I0503 12:00:04.544104 21836 net.cpp:408] pool2_stage1 <- conv2_2
I0503 12:00:04.544109 21836 net.cpp:382] pool2_stage1 -> pool2_stage1
I0503 12:00:04.544148 21836 net.cpp:124] Setting up pool2_stage1
I0503 12:00:04.544154 21836 net.cpp:131] Top shape: 3 128 120 120 (5529600)
I0503 12:00:04.544157 21836 net.cpp:139] Memory required for data: 1269086400
I0503 12:00:04.544160 21836 layer_factory.hpp:77] Creating layer conv3_1
I0503 12:00:04.544169 21836 net.cpp:86] Creating Layer conv3_1
I0503 12:00:04.544173 21836 net.cpp:408] conv3_1 <- pool2_stage1
I0503 12:00:04.544176 21836 net.cpp:382] conv3_1 -> conv3_1
I0503 12:00:04.553351 21836 net.cpp:124] Setting up conv3_1
I0503 12:00:04.553370 21836 net.cpp:131] Top shape: 3 256 120 120 (11059200)
I0503 12:00:04.553373 21836 net.cpp:139] Memory required for data: 1313323200
I0503 12:00:04.553383 21836 layer_factory.hpp:77] Creating layer relu3_1
I0503 12:00:04.553390 21836 net.cpp:86] Creating Layer relu3_1
I0503 12:00:04.553393 21836 net.cpp:408] relu3_1 <- conv3_1
I0503 12:00:04.553400 21836 net.cpp:369] relu3_1 -> conv3_1 (in-place)
I0503 12:00:04.553527 21836 net.cpp:124] Setting up relu3_1
I0503 12:00:04.553537 21836 net.cpp:131] Top shape: 3 256 120 120 (11059200)
I0503 12:00:04.553540 21836 net.cpp:139] Memory required for data: 1357560000
I0503 12:00:04.553544 21836 layer_factory.hpp:77] Creating layer conv3_2
I0503 12:00:04.553552 21836 net.cpp:86] Creating Layer conv3_2
I0503 12:00:04.553555 21836 net.cpp:408] conv3_2 <- conv3_1
I0503 12:00:04.553560 21836 net.cpp:382] conv3_2 -> conv3_2
I0503 12:00:04.570127 21836 net.cpp:124] Setting up conv3_2
I0503 12:00:04.570152 21836 net.cpp:131] Top shape: 3 256 120 120 (11059200)
I0503 12:00:04.570155 21836 net.cpp:139] Memory required for data: 1401796800
I0503 12:00:04.570163 21836 layer_factory.hpp:77] Creating layer relu3_2
I0503 12:00:04.570168 21836 net.cpp:86] Creating Layer relu3_2
I0503 12:00:04.570171 21836 net.cpp:408] relu3_2 <- conv3_2
I0503 12:00:04.570176 21836 net.cpp:369] relu3_2 -> conv3_2 (in-place)
I0503 12:00:04.570302 21836 net.cpp:124] Setting up relu3_2
I0503 12:00:04.570312 21836 net.cpp:131] Top shape: 3 256 120 120 (11059200)
I0503 12:00:04.570315 21836 net.cpp:139] Memory required for data: 1446033600
I0503 12:00:04.570318 21836 layer_factory.hpp:77] Creating layer conv3_3
I0503 12:00:04.570327 21836 net.cpp:86] Creating Layer conv3_3
I0503 12:00:04.570330 21836 net.cpp:408] conv3_3 <- conv3_2
I0503 12:00:04.570335 21836 net.cpp:382] conv3_3 -> conv3_3
I0503 12:00:04.588752 21836 net.cpp:124] Setting up conv3_3
I0503 12:00:04.588769 21836 net.cpp:131] Top shape: 3 256 120 120 (11059200)
I0503 12:00:04.588773 21836 net.cpp:139] Memory required for data: 1490270400
I0503 12:00:04.588780 21836 layer_factory.hpp:77] Creating layer relu3_3
I0503 12:00:04.588788 21836 net.cpp:86] Creating Layer relu3_3
I0503 12:00:04.588790 21836 net.cpp:408] relu3_3 <- conv3_3
I0503 12:00:04.588795 21836 net.cpp:369] relu3_3 -> conv3_3 (in-place)
I0503 12:00:04.590929 21836 net.cpp:124] Setting up relu3_3
I0503 12:00:04.590940 21836 net.cpp:131] Top shape: 3 256 120 120 (11059200)
I0503 12:00:04.590943 21836 net.cpp:139] Memory required for data: 1534507200
I0503 12:00:04.590947 21836 layer_factory.hpp:77] Creating layer conv3_4
I0503 12:00:04.590971 21836 net.cpp:86] Creating Layer conv3_4
I0503 12:00:04.590975 21836 net.cpp:408] conv3_4 <- conv3_3
I0503 12:00:04.590981 21836 net.cpp:382] conv3_4 -> conv3_4
I0503 12:00:04.610834 21836 net.cpp:124] Setting up conv3_4
I0503 12:00:04.610863 21836 net.cpp:131] Top shape: 3 256 120 120 (11059200)
I0503 12:00:04.610867 21836 net.cpp:139] Memory required for data: 1578744000
I0503 12:00:04.610874 21836 layer_factory.hpp:77] Creating layer relu3_4
I0503 12:00:04.610880 21836 net.cpp:86] Creating Layer relu3_4
I0503 12:00:04.610884 21836 net.cpp:408] relu3_4 <- conv3_4
I0503 12:00:04.610889 21836 net.cpp:369] relu3_4 -> conv3_4 (in-place)
I0503 12:00:04.611187 21836 net.cpp:124] Setting up relu3_4
I0503 12:00:04.611201 21836 net.cpp:131] Top shape: 3 256 120 120 (11059200)
I0503 12:00:04.611203 21836 net.cpp:139] Memory required for data: 1622980800
I0503 12:00:04.611207 21836 layer_factory.hpp:77] Creating layer pool3_stage1
I0503 12:00:04.611213 21836 net.cpp:86] Creating Layer pool3_stage1
I0503 12:00:04.611217 21836 net.cpp:408] pool3_stage1 <- conv3_4
I0503 12:00:04.611222 21836 net.cpp:382] pool3_stage1 -> pool3_stage1
I0503 12:00:04.611266 21836 net.cpp:124] Setting up pool3_stage1
I0503 12:00:04.611274 21836 net.cpp:131] Top shape: 3 256 60 60 (2764800)
I0503 12:00:04.611276 21836 net.cpp:139] Memory required for data: 1634040000
I0503 12:00:04.611279 21836 layer_factory.hpp:77] Creating layer conv4_1
I0503 12:00:04.611289 21836 net.cpp:86] Creating Layer conv4_1
I0503 12:00:04.611291 21836 net.cpp:408] conv4_1 <- pool3_stage1
I0503 12:00:04.611296 21836 net.cpp:382] conv4_1 -> conv4_1
I0503 12:00:04.644395 21836 net.cpp:124] Setting up conv4_1
I0503 12:00:04.644428 21836 net.cpp:131] Top shape: 3 512 60 60 (5529600)
I0503 12:00:04.644431 21836 net.cpp:139] Memory required for data: 1656158400
I0503 12:00:04.644444 21836 layer_factory.hpp:77] Creating layer relu4_1
I0503 12:00:04.644454 21836 net.cpp:86] Creating Layer relu4_1
I0503 12:00:04.644459 21836 net.cpp:408] relu4_1 <- conv4_1
I0503 12:00:04.644464 21836 net.cpp:369] relu4_1 -> conv4_1 (in-place)
I0503 12:00:04.644759 21836 net.cpp:124] Setting up relu4_1
I0503 12:00:04.644773 21836 net.cpp:131] Top shape: 3 512 60 60 (5529600)
I0503 12:00:04.644775 21836 net.cpp:139] Memory required for data: 1678276800
I0503 12:00:04.644778 21836 layer_factory.hpp:77] Creating layer conv4_2
I0503 12:00:04.644789 21836 net.cpp:86] Creating Layer conv4_2
I0503 12:00:04.644793 21836 net.cpp:408] conv4_2 <- conv4_1
I0503 12:00:04.644798 21836 net.cpp:382] conv4_2 -> conv4_2
I0503 12:00:04.706651 21836 net.cpp:124] Setting up conv4_2
I0503 12:00:04.706686 21836 net.cpp:131] Top shape: 3 512 60 60 (5529600)
I0503 12:00:04.706691 21836 net.cpp:139] Memory required for data: 1700395200
I0503 12:00:04.706698 21836 layer_factory.hpp:77] Creating layer relu4_2
I0503 12:00:04.706709 21836 net.cpp:86] Creating Layer relu4_2
I0503 12:00:04.706714 21836 net.cpp:408] relu4_2 <- conv4_2
I0503 12:00:04.706719 21836 net.cpp:369] relu4_2 -> conv4_2 (in-place)
I0503 12:00:04.706856 21836 net.cpp:124] Setting up relu4_2
I0503 12:00:04.706866 21836 net.cpp:131] Top shape: 3 512 60 60 (5529600)
I0503 12:00:04.706869 21836 net.cpp:139] Memory required for data: 1722513600
I0503 12:00:04.706872 21836 layer_factory.hpp:77] Creating layer conv4_2_relu4_2_0_split
I0503 12:00:04.706878 21836 net.cpp:86] Creating Layer conv4_2_relu4_2_0_split
I0503 12:00:04.706881 21836 net.cpp:408] conv4_2_relu4_2_0_split <- conv4_2
I0503 12:00:04.706887 21836 net.cpp:382] conv4_2_relu4_2_0_split -> conv4_2_relu4_2_0_split_0
I0503 12:00:04.706892 21836 net.cpp:382] conv4_2_relu4_2_0_split -> conv4_2_relu4_2_0_split_1
I0503 12:00:04.706931 21836 net.cpp:124] Setting up conv4_2_relu4_2_0_split
I0503 12:00:04.706938 21836 net.cpp:131] Top shape: 3 512 60 60 (5529600)
I0503 12:00:04.706941 21836 net.cpp:131] Top shape: 3 512 60 60 (5529600)
I0503 12:00:04.706943 21836 net.cpp:139] Memory required for data: 1766750400
I0503 12:00:04.706946 21836 layer_factory.hpp:77] Creating layer conv4_3
I0503 12:00:04.706974 21836 net.cpp:86] Creating Layer conv4_3
I0503 12:00:04.706977 21836 net.cpp:408] conv4_3 <- conv4_2_relu4_2_0_split_0
I0503 12:00:04.706982 21836 net.cpp:382] conv4_3 -> conv4_3
I0503 12:00:04.766966 21836 net.cpp:124] Setting up conv4_3
I0503 12:00:04.766993 21836 net.cpp:131] Top shape: 3 512 60 60 (5529600)
I0503 12:00:04.766995 21836 net.cpp:139] Memory required for data: 1788868800
I0503 12:00:04.767001 21836 layer_factory.hpp:77] Creating layer relu4_3
I0503 12:00:04.767009 21836 net.cpp:86] Creating Layer relu4_3
I0503 12:00:04.767011 21836 net.cpp:408] relu4_3 <- conv4_3
I0503 12:00:04.767016 21836 net.cpp:369] relu4_3 -> conv4_3 (in-place)
I0503 12:00:04.767143 21836 net.cpp:124] Setting up relu4_3
I0503 12:00:04.767153 21836 net.cpp:131] Top shape: 3 512 60 60 (5529600)
I0503 12:00:04.767155 21836 net.cpp:139] Memory required for data: 1810987200
I0503 12:00:04.767158 21836 layer_factory.hpp:77] Creating layer conv4_4
I0503 12:00:04.767169 21836 net.cpp:86] Creating Layer conv4_4
I0503 12:00:04.767172 21836 net.cpp:408] conv4_4 <- conv4_3
I0503 12:00:04.767177 21836 net.cpp:382] conv4_4 -> conv4_4
I0503 12:00:04.825479 21836 net.cpp:124] Setting up conv4_4
I0503 12:00:04.825505 21836 net.cpp:131] Top shape: 3 512 60 60 (5529600)
I0503 12:00:04.825508 21836 net.cpp:139] Memory required for data: 1833105600
I0503 12:00:04.825515 21836 layer_factory.hpp:77] Creating layer relu4_4
I0503 12:00:04.825520 21836 net.cpp:86] Creating Layer relu4_4
I0503 12:00:04.825525 21836 net.cpp:408] relu4_4 <- conv4_4
I0503 12:00:04.825529 21836 net.cpp:369] relu4_4 -> conv4_4 (in-place)
I0503 12:00:04.825660 21836 net.cpp:124] Setting up relu4_4
I0503 12:00:04.825670 21836 net.cpp:131] Top shape: 3 512 60 60 (5529600)
I0503 12:00:04.825672 21836 net.cpp:139] Memory required for data: 1855224000
I0503 12:00:04.825675 21836 layer_factory.hpp:77] Creating layer conv4_4_relu4_4_0_split
I0503 12:00:04.825681 21836 net.cpp:86] Creating Layer conv4_4_relu4_4_0_split
I0503 12:00:04.825685 21836 net.cpp:408] conv4_4_relu4_4_0_split <- conv4_4
I0503 12:00:04.825688 21836 net.cpp:382] conv4_4_relu4_4_0_split -> conv4_4_relu4_4_0_split_0
I0503 12:00:04.825695 21836 net.cpp:382] conv4_4_relu4_4_0_split -> conv4_4_relu4_4_0_split_1
I0503 12:00:04.825733 21836 net.cpp:124] Setting up conv4_4_relu4_4_0_split
I0503 12:00:04.825740 21836 net.cpp:131] Top shape: 3 512 60 60 (5529600)
I0503 12:00:04.825744 21836 net.cpp:131] Top shape: 3 512 60 60 (5529600)
I0503 12:00:04.825747 21836 net.cpp:139] Memory required for data: 1899460800
I0503 12:00:04.825749 21836 layer_factory.hpp:77] Creating layer conv4_5_CPM_0
I0503 12:00:04.825758 21836 net.cpp:86] Creating Layer conv4_5_CPM_0
I0503 12:00:04.825762 21836 net.cpp:408] conv4_5_CPM_0 <- conv4_4_relu4_4_0_split_0
I0503 12:00:04.825767 21836 net.cpp:382] conv4_5_CPM_0 -> conv4_5_CPM_0
I0503 12:00:04.834383 21836 net.cpp:124] Setting up conv4_5_CPM_0
I0503 12:00:04.834408 21836 net.cpp:131] Top shape: 3 256 60 60 (2764800)
I0503 12:00:04.834411 21836 net.cpp:139] Memory required for data: 1910520000
I0503 12:00:04.834419 21836 layer_factory.hpp:77] Creating layer prelu4_5_CPM_0
I0503 12:00:04.834424 21836 net.cpp:86] Creating Layer prelu4_5_CPM_0
I0503 12:00:04.834429 21836 net.cpp:408] prelu4_5_CPM_0 <- conv4_5_CPM_0
I0503 12:00:04.834434 21836 net.cpp:369] prelu4_5_CPM_0 -> conv4_5_CPM_0 (in-place)
I0503 12:00:04.836098 21836 net.cpp:124] Setting up prelu4_5_CPM_0
I0503 12:00:04.836110 21836 net.cpp:131] Top shape: 3 256 60 60 (2764800)
I0503 12:00:04.836114 21836 net.cpp:139] Memory required for data: 1921579200
I0503 12:00:04.836119 21836 layer_factory.hpp:77] Creating layer conv4_5_CPM_0_prelu4_5_CPM_0_0_split
I0503 12:00:04.836124 21836 net.cpp:86] Creating Layer conv4_5_CPM_0_prelu4_5_CPM_0_0_split
I0503 12:00:04.836127 21836 net.cpp:408] conv4_5_CPM_0_prelu4_5_CPM_0_0_split <- conv4_5_CPM_0
I0503 12:00:04.836143 21836 net.cpp:382] conv4_5_CPM_0_prelu4_5_CPM_0_0_split -> conv4_5_CPM_0_prelu4_5_CPM_0_0_split_0
I0503 12:00:04.836163 21836 net.cpp:382] conv4_5_CPM_0_prelu4_5_CPM_0_0_split -> conv4_5_CPM_0_prelu4_5_CPM_0_0_split_1
I0503 12:00:04.836217 21836 net.cpp:124] Setting up conv4_5_CPM_0_prelu4_5_CPM_0_0_split
I0503 12:00:04.836231 21836 net.cpp:131] Top shape: 3 256 60 60 (2764800)
I0503 12:00:04.836235 21836 net.cpp:131] Top shape: 3 256 60 60 (2764800)
I0503 12:00:04.836237 21836 net.cpp:139] Memory required for data: 1943697600
I0503 12:00:04.836241 21836 layer_factory.hpp:77] Creating layer conv4_5_CPM_1
I0503 12:00:04.836248 21836 net.cpp:86] Creating Layer conv4_5_CPM_1
I0503 12:00:04.836251 21836 net.cpp:408] conv4_5_CPM_1 <- conv4_5_CPM_0_prelu4_5_CPM_0_0_split_0
I0503 12:00:04.836257 21836 net.cpp:382] conv4_5_CPM_1 -> conv4_5_CPM_1
I0503 12:00:04.841161 21836 net.cpp:124] Setting up conv4_5_CPM_1
I0503 12:00:04.841186 21836 net.cpp:131] Top shape: 3 256 60 60 (2764800)
I0503 12:00:04.841188 21836 net.cpp:139] Memory required for data: 1954756800
I0503 12:00:04.841195 21836 layer_factory.hpp:77] Creating layer prelu4_5_CPM_1
I0503 12:00:04.841200 21836 net.cpp:86] Creating Layer prelu4_5_CPM_1
I0503 12:00:04.841204 21836 net.cpp:408] prelu4_5_CPM_1 <- conv4_5_CPM_1
I0503 12:00:04.841208 21836 net.cpp:369] prelu4_5_CPM_1 -> conv4_5_CPM_1 (in-place)
I0503 12:00:04.842850 21836 net.cpp:124] Setting up prelu4_5_CPM_1
I0503 12:00:04.842864 21836 net.cpp:131] Top shape: 3 256 60 60 (2764800)
I0503 12:00:04.842877 21836 net.cpp:139] Memory required for data: 1965816000
I0503 12:00:04.842882 21836 layer_factory.hpp:77] Creating layer conv4_5_CPM_1_prelu4_5_CPM_1_0_split
I0503 12:00:04.842887 21836 net.cpp:86] Creating Layer conv4_5_CPM_1_prelu4_5_CPM_1_0_split
I0503 12:00:04.842890 21836 net.cpp:408] conv4_5_CPM_1_prelu4_5_CPM_1_0_split <- conv4_5_CPM_1
I0503 12:00:04.842895 21836 net.cpp:382] conv4_5_CPM_1_prelu4_5_CPM_1_0_split -> conv4_5_CPM_1_prelu4_5_CPM_1_0_split_0
I0503 12:00:04.842901 21836 net.cpp:382] conv4_5_CPM_1_prelu4_5_CPM_1_0_split -> conv4_5_CPM_1_prelu4_5_CPM_1_0_split_1
I0503 12:00:04.842949 21836 net.cpp:124] Setting up conv4_5_CPM_1_prelu4_5_CPM_1_0_split
I0503 12:00:04.842954 21836 net.cpp:131] Top shape: 3 256 60 60 (2764800)
I0503 12:00:04.842957 21836 net.cpp:131] Top shape: 3 256 60 60 (2764800)
I0503 12:00:04.842972 21836 net.cpp:139] Memory required for data: 1987934400
I0503 12:00:04.842974 21836 layer_factory.hpp:77] Creating layer conv4_5_CPM_2
I0503 12:00:04.842983 21836 net.cpp:86] Creating Layer conv4_5_CPM_2
I0503 12:00:04.842985 21836 net.cpp:408] conv4_5_CPM_2 <- conv4_5_CPM_1_prelu4_5_CPM_1_0_split_0
I0503 12:00:04.842991 21836 net.cpp:382] conv4_5_CPM_2 -> conv4_5_CPM_2
I0503 12:00:04.847935 21836 net.cpp:124] Setting up conv4_5_CPM_2
I0503 12:00:04.847959 21836 net.cpp:131] Top shape: 3 256 60 60 (2764800)
I0503 12:00:04.847964 21836 net.cpp:139] Memory required for data: 1998993600
I0503 12:00:04.847970 21836 layer_factory.hpp:77] Creating layer prelu4_5_CPM_2
I0503 12:00:04.847975 21836 net.cpp:86] Creating Layer prelu4_5_CPM_2
I0503 12:00:04.847980 21836 net.cpp:408] prelu4_5_CPM_2 <- conv4_5_CPM_2
I0503 12:00:04.847985 21836 net.cpp:369] prelu4_5_CPM_2 -> conv4_5_CPM_2 (in-place)
I0503 12:00:04.849611 21836 net.cpp:124] Setting up prelu4_5_CPM_2
I0503 12:00:04.849634 21836 net.cpp:131] Top shape: 3 256 60 60 (2764800)
I0503 12:00:04.849638 21836 net.cpp:139] Memory required for data: 2010052800
I0503 12:00:04.849647 21836 layer_factory.hpp:77] Creating layer conv4_5_CPM_concat
I0503 12:00:04.849658 21836 net.cpp:86] Creating Layer conv4_5_CPM_concat
I0503 12:00:04.849661 21836 net.cpp:408] conv4_5_CPM_concat <- conv4_5_CPM_0_prelu4_5_CPM_0_0_split_1
I0503 12:00:04.849665 21836 net.cpp:408] conv4_5_CPM_concat <- conv4_5_CPM_1_prelu4_5_CPM_1_0_split_1
I0503 12:00:04.849669 21836 net.cpp:408] conv4_5_CPM_concat <- conv4_5_CPM_2
I0503 12:00:04.849684 21836 net.cpp:382] conv4_5_CPM_concat -> conv4_5_CPM_concat
I0503 12:00:04.849727 21836 net.cpp:124] Setting up conv4_5_CPM_concat
I0503 12:00:04.849733 21836 net.cpp:131] Top shape: 3 768 60 60 (8294400)
I0503 12:00:04.849736 21836 net.cpp:139] Memory required for data: 2043230400
I0503 12:00:04.849738 21836 layer_factory.hpp:77] Creating layer conv4_6_CPM_0
I0503 12:00:04.849757 21836 net.cpp:86] Creating Layer conv4_6_CPM_0
I0503 12:00:04.849761 21836 net.cpp:408] conv4_6_CPM_0 <- conv4_5_CPM_concat
I0503 12:00:04.849766 21836 net.cpp:382] conv4_6_CPM_0 -> conv4_6_CPM_0
I0503 12:00:04.862529 21836 net.cpp:124] Setting up conv4_6_CPM_0
I0503 12:00:04.862543 21836 net.cpp:131] Top shape: 3 256 60 60 (2764800)
I0503 12:00:04.862547 21836 net.cpp:139] Memory required for data: 2054289600
I0503 12:00:04.862566 21836 layer_factory.hpp:77] Creating layer prelu4_6_CPM_0
I0503 12:00:04.862584 21836 net.cpp:86] Creating Layer prelu4_6_CPM_0
I0503 12:00:04.862587 21836 net.cpp:408] prelu4_6_CPM_0 <- conv4_6_CPM_0
I0503 12:00:04.862603 21836 net.cpp:369] prelu4_6_CPM_0 -> conv4_6_CPM_0 (in-place)
I0503 12:00:04.864217 21836 net.cpp:124] Setting up prelu4_6_CPM_0
I0503 12:00:04.864228 21836 net.cpp:131] Top shape: 3 256 60 60 (2764800)
I0503 12:00:04.864231 21836 net.cpp:139] Memory required for data: 2065348800
I0503 12:00:04.864236 21836 layer_factory.hpp:77] Creating layer conv4_6_CPM_0_prelu4_6_CPM_0_0_split
I0503 12:00:04.864241 21836 net.cpp:86] Creating Layer conv4_6_CPM_0_prelu4_6_CPM_0_0_split
I0503 12:00:04.864244 21836 net.cpp:408] conv4_6_CPM_0_prelu4_6_CPM_0_0_split <- conv4_6_CPM_0
I0503 12:00:04.864249 21836 net.cpp:382] conv4_6_CPM_0_prelu4_6_CPM_0_0_split -> conv4_6_CPM_0_prelu4_6_CPM_0_0_split_0
I0503 12:00:04.864254 21836 net.cpp:382] conv4_6_CPM_0_prelu4_6_CPM_0_0_split -> conv4_6_CPM_0_prelu4_6_CPM_0_0_split_1
I0503 12:00:04.864305 21836 net.cpp:124] Setting up conv4_6_CPM_0_prelu4_6_CPM_0_0_split
I0503 12:00:04.864308 21836 net.cpp:131] Top shape: 3 256 60 60 (2764800)
I0503 12:00:04.864312 21836 net.cpp:131] Top shape: 3 256 60 60 (2764800)
I0503 12:00:04.864315 21836 net.cpp:139] Memory required for data: 2087467200
I0503 12:00:04.864317 21836 layer_factory.hpp:77] Creating layer conv4_6_CPM_1
I0503 12:00:04.864326 21836 net.cpp:86] Creating Layer conv4_6_CPM_1
I0503 12:00:04.864328 21836 net.cpp:408] conv4_6_CPM_1 <- conv4_6_CPM_0_prelu4_6_CPM_0_0_split_0
I0503 12:00:04.864346 21836 net.cpp:382] conv4_6_CPM_1 -> conv4_6_CPM_1
I0503 12:00:04.869285 21836 net.cpp:124] Setting up conv4_6_CPM_1
I0503 12:00:04.869299 21836 net.cpp:131] Top shape: 3 256 60 60 (2764800)
I0503 12:00:04.869302 21836 net.cpp:139] Memory required for data: 2098526400
I0503 12:00:04.869308 21836 layer_factory.hpp:77] Creating layer prelu4_6_CPM_1
I0503 12:00:04.869314 21836 net.cpp:86] Creating Layer prelu4_6_CPM_1
I0503 12:00:04.869318 21836 net.cpp:408] prelu4_6_CPM_1 <- conv4_6_CPM_1
I0503 12:00:04.869323 21836 net.cpp:369] prelu4_6_CPM_1 -> conv4_6_CPM_1 (in-place)
I0503 12:00:04.870959 21836 net.cpp:124] Setting up prelu4_6_CPM_1
I0503 12:00:04.870970 21836 net.cpp:131] Top shape: 3 256 60 60 (2764800)
I0503 12:00:04.870985 21836 net.cpp:139] Memory required for data: 2109585600
I0503 12:00:04.870988 21836 layer_factory.hpp:77] Creating layer conv4_6_CPM_1_prelu4_6_CPM_1_0_split
I0503 12:00:04.870995 21836 net.cpp:86] Creating Layer conv4_6_CPM_1_prelu4_6_CPM_1_0_split
I0503 12:00:04.870998 21836 net.cpp:408] conv4_6_CPM_1_prelu4_6_CPM_1_0_split <- conv4_6_CPM_1
I0503 12:00:04.871013 21836 net.cpp:382] conv4_6_CPM_1_prelu4_6_CPM_1_0_split -> conv4_6_CPM_1_prelu4_6_CPM_1_0_split_0
I0503 12:00:04.871019 21836 net.cpp:382] conv4_6_CPM_1_prelu4_6_CPM_1_0_split -> conv4_6_CPM_1_prelu4_6_CPM_1_0_split_1
I0503 12:00:04.871071 21836 net.cpp:124] Setting up conv4_6_CPM_1_prelu4_6_CPM_1_0_split
I0503 12:00:04.871076 21836 net.cpp:131] Top shape: 3 256 60 60 (2764800)
I0503 12:00:04.871079 21836 net.cpp:131] Top shape: 3 256 60 60 (2764800)
I0503 12:00:04.871093 21836 net.cpp:139] Memory required for data: 2131704000
I0503 12:00:04.871096 21836 layer_factory.hpp:77] Creating layer conv4_6_CPM_2
I0503 12:00:04.871107 21836 net.cpp:86] Creating Layer conv4_6_CPM_2
I0503 12:00:04.871111 21836 net.cpp:408] conv4_6_CPM_2 <- conv4_6_CPM_1_prelu4_6_CPM_1_0_split_0
I0503 12:00:04.871117 21836 net.cpp:382] conv4_6_CPM_2 -> conv4_6_CPM_2
I0503 12:00:04.875950 21836 net.cpp:124] Setting up conv4_6_CPM_2
I0503 12:00:04.875963 21836 net.cpp:131] Top shape: 3 256 60 60 (2764800)
I0503 12:00:04.875967 21836 net.cpp:139] Memory required for data: 2142763200
I0503 12:00:04.875972 21836 layer_factory.hpp:77] Creating layer prelu4_6_CPM_2
I0503 12:00:04.875979 21836 net.cpp:86] Creating Layer prelu4_6_CPM_2
I0503 12:00:04.875982 21836 net.cpp:408] prelu4_6_CPM_2 <- conv4_6_CPM_2
I0503 12:00:04.875986 21836 net.cpp:369] prelu4_6_CPM_2 -> conv4_6_CPM_2 (in-place)
I0503 12:00:04.877604 21836 net.cpp:124] Setting up prelu4_6_CPM_2
I0503 12:00:04.877616 21836 net.cpp:131] Top shape: 3 256 60 60 (2764800)
I0503 12:00:04.877619 21836 net.cpp:139] Memory required for data: 2153822400
I0503 12:00:04.877624 21836 layer_factory.hpp:77] Creating layer conv4_6_CPM_concat
I0503 12:00:04.877629 21836 net.cpp:86] Creating Layer conv4_6_CPM_concat
I0503 12:00:04.877632 21836 net.cpp:408] conv4_6_CPM_concat <- conv4_6_CPM_0_prelu4_6_CPM_0_0_split_1
I0503 12:00:04.877636 21836 net.cpp:408] conv4_6_CPM_concat <- conv4_6_CPM_1_prelu4_6_CPM_1_0_split_1
I0503 12:00:04.877640 21836 net.cpp:408] conv4_6_CPM_concat <- conv4_6_CPM_2
I0503 12:00:04.877643 21836 net.cpp:382] conv4_6_CPM_concat -> conv4_6_CPM_concat
I0503 12:00:04.877683 21836 net.cpp:124] Setting up conv4_6_CPM_concat
I0503 12:00:04.877689 21836 net.cpp:131] Top shape: 3 768 60 60 (8294400)
I0503 12:00:04.877691 21836 net.cpp:139] Memory required for data: 2187000000
I0503 12:00:04.877693 21836 layer_factory.hpp:77] Creating layer conv4_7_CPM_0
I0503 12:00:04.877702 21836 net.cpp:86] Creating Layer conv4_7_CPM_0
I0503 12:00:04.877705 21836 net.cpp:408] conv4_7_CPM_0 <- conv4_6_CPM_concat
I0503 12:00:04.877710 21836 net.cpp:382] conv4_7_CPM_0 -> conv4_7_CPM_0
I0503 12:00:04.888192 21836 net.cpp:124] Setting up conv4_7_CPM_0
I0503 12:00:04.888206 21836 net.cpp:131] Top shape: 3 224 60 60 (2419200)
I0503 12:00:04.888208 21836 net.cpp:139] Memory required for data: 2196676800
I0503 12:00:04.888214 21836 layer_factory.hpp:77] Creating layer prelu4_7_CPM_0
I0503 12:00:04.888221 21836 net.cpp:86] Creating Layer prelu4_7_CPM_0
I0503 12:00:04.888224 21836 net.cpp:408] prelu4_7_CPM_0 <- conv4_7_CPM_0
I0503 12:00:04.888228 21836 net.cpp:369] prelu4_7_CPM_0 -> conv4_7_CPM_0 (in-place)
I0503 12:00:04.889720 21836 net.cpp:124] Setting up prelu4_7_CPM_0
I0503 12:00:04.889732 21836 net.cpp:131] Top shape: 3 224 60 60 (2419200)
I0503 12:00:04.889735 21836 net.cpp:139] Memory required for data: 2206353600
I0503 12:00:04.889740 21836 layer_factory.hpp:77] Creating layer conv4_7_CPM_0_prelu4_7_CPM_0_0_split
I0503 12:00:04.889745 21836 net.cpp:86] Creating Layer conv4_7_CPM_0_prelu4_7_CPM_0_0_split
I0503 12:00:04.889748 21836 net.cpp:408] conv4_7_CPM_0_prelu4_7_CPM_0_0_split <- conv4_7_CPM_0
I0503 12:00:04.889753 21836 net.cpp:382] conv4_7_CPM_0_prelu4_7_CPM_0_0_split -> conv4_7_CPM_0_prelu4_7_CPM_0_0_split_0
I0503 12:00:04.889760 21836 net.cpp:382] conv4_7_CPM_0_prelu4_7_CPM_0_0_split -> conv4_7_CPM_0_prelu4_7_CPM_0_0_split_1
I0503 12:00:04.889812 21836 net.cpp:124] Setting up conv4_7_CPM_0_prelu4_7_CPM_0_0_split
I0503 12:00:04.889816 21836 net.cpp:131] Top shape: 3 224 60 60 (2419200)
I0503 12:00:04.889819 21836 net.cpp:131] Top shape: 3 224 60 60 (2419200)
I0503 12:00:04.889822 21836 net.cpp:139] Memory required for data: 2225707200
I0503 12:00:04.889824 21836 layer_factory.hpp:77] Creating layer conv4_7_CPM_1
I0503 12:00:04.889833 21836 net.cpp:86] Creating Layer conv4_7_CPM_1
I0503 12:00:04.889847 21836 net.cpp:408] conv4_7_CPM_1 <- conv4_7_CPM_0_prelu4_7_CPM_0_0_split_0
I0503 12:00:04.889853 21836 net.cpp:382] conv4_7_CPM_1 -> conv4_7_CPM_1
I0503 12:00:04.895128 21836 net.cpp:124] Setting up conv4_7_CPM_1
I0503 12:00:04.895140 21836 net.cpp:131] Top shape: 3 224 60 60 (2419200)
I0503 12:00:04.895154 21836 net.cpp:139] Memory required for data: 2235384000
I0503 12:00:04.895160 21836 layer_factory.hpp:77] Creating layer prelu4_7_CPM_1
I0503 12:00:04.895167 21836 net.cpp:86] Creating Layer prelu4_7_CPM_1
I0503 12:00:04.895171 21836 net.cpp:408] prelu4_7_CPM_1 <- conv4_7_CPM_1
I0503 12:00:04.895187 21836 net.cpp:369] prelu4_7_CPM_1 -> conv4_7_CPM_1 (in-place)
I0503 12:00:04.896651 21836 net.cpp:124] Setting up prelu4_7_CPM_1
I0503 12:00:04.896663 21836 net.cpp:131] Top shape: 3 224 60 60 (2419200)
I0503 12:00:04.896667 21836 net.cpp:139] Memory required for data: 2245060800
I0503 12:00:04.896670 21836 layer_factory.hpp:77] Creating layer conv4_7_CPM_1_prelu4_7_CPM_1_0_split
I0503 12:00:04.896675 21836 net.cpp:86] Creating Layer conv4_7_CPM_1_prelu4_7_CPM_1_0_split
I0503 12:00:04.896678 21836 net.cpp:408] conv4_7_CPM_1_prelu4_7_CPM_1_0_split <- conv4_7_CPM_1
I0503 12:00:04.896683 21836 net.cpp:382] conv4_7_CPM_1_prelu4_7_CPM_1_0_split -> conv4_7_CPM_1_prelu4_7_CPM_1_0_split_0
I0503 12:00:04.896690 21836 net.cpp:382] conv4_7_CPM_1_prelu4_7_CPM_1_0_split -> conv4_7_CPM_1_prelu4_7_CPM_1_0_split_1
I0503 12:00:04.896742 21836 net.cpp:124] Setting up conv4_7_CPM_1_prelu4_7_CPM_1_0_split
I0503 12:00:04.896746 21836 net.cpp:131] Top shape: 3 224 60 60 (2419200)
I0503 12:00:04.896750 21836 net.cpp:131] Top shape: 3 224 60 60 (2419200)
I0503 12:00:04.896752 21836 net.cpp:139] Memory required for data: 2264414400
I0503 12:00:04.896755 21836 layer_factory.hpp:77] Creating layer conv4_7_CPM_2
I0503 12:00:04.896765 21836 net.cpp:86] Creating Layer conv4_7_CPM_2
I0503 12:00:04.896769 21836 net.cpp:408] conv4_7_CPM_2 <- conv4_7_CPM_1_prelu4_7_CPM_1_0_split_0
I0503 12:00:04.896785 21836 net.cpp:382] conv4_7_CPM_2 -> conv4_7_CPM_2
I0503 12:00:04.900892 21836 net.cpp:124] Setting up conv4_7_CPM_2
I0503 12:00:04.900905 21836 net.cpp:131] Top shape: 3 224 60 60 (2419200)
I0503 12:00:04.900908 21836 net.cpp:139] Memory required for data: 2274091200
I0503 12:00:04.900914 21836 layer_factory.hpp:77] Creating layer prelu4_7_CPM_2
I0503 12:00:04.900919 21836 net.cpp:86] Creating Layer prelu4_7_CPM_2
I0503 12:00:04.900923 21836 net.cpp:408] prelu4_7_CPM_2 <- conv4_7_CPM_2
I0503 12:00:04.900926 21836 net.cpp:369] prelu4_7_CPM_2 -> conv4_7_CPM_2 (in-place)
I0503 12:00:04.902420 21836 net.cpp:124] Setting up prelu4_7_CPM_2
I0503 12:00:04.902443 21836 net.cpp:131] Top shape: 3 224 60 60 (2419200)
I0503 12:00:04.902446 21836 net.cpp:139] Memory required for data: 2283768000
I0503 12:00:04.902451 21836 layer_factory.hpp:77] Creating layer conv4_7_CPM_concat
I0503 12:00:04.902458 21836 net.cpp:86] Creating Layer conv4_7_CPM_concat
I0503 12:00:04.902463 21836 net.cpp:408] conv4_7_CPM_concat <- conv4_7_CPM_0_prelu4_7_CPM_0_0_split_1
I0503 12:00:04.902467 21836 net.cpp:408] conv4_7_CPM_concat <- conv4_7_CPM_1_prelu4_7_CPM_1_0_split_1
I0503 12:00:04.902472 21836 net.cpp:408] conv4_7_CPM_concat <- conv4_7_CPM_2
I0503 12:00:04.902475 21836 net.cpp:382] conv4_7_CPM_concat -> conv4_7_CPM_concat
I0503 12:00:04.902529 21836 net.cpp:124] Setting up conv4_7_CPM_concat
I0503 12:00:04.902534 21836 net.cpp:131] Top shape: 3 672 60 60 (7257600)
I0503 12:00:04.902549 21836 net.cpp:139] Memory required for data: 2312798400
I0503 12:00:04.902550 21836 layer_factory.hpp:77] Creating layer conv4_7_CPM_concat_conv4_7_CPM_concat_0_split
I0503 12:00:04.902555 21836 net.cpp:86] Creating Layer conv4_7_CPM_concat_conv4_7_CPM_concat_0_split
I0503 12:00:04.902557 21836 net.cpp:408] conv4_7_CPM_concat_conv4_7_CPM_concat_0_split <- conv4_7_CPM_concat
I0503 12:00:04.902562 21836 net.cpp:382] conv4_7_CPM_concat_conv4_7_CPM_concat_0_split -> conv4_7_CPM_concat_conv4_7_CPM_concat_0_split_0
I0503 12:00:04.902568 21836 net.cpp:382] conv4_7_CPM_concat_conv4_7_CPM_concat_0_split -> conv4_7_CPM_concat_conv4_7_CPM_concat_0_split_1
I0503 12:00:04.902606 21836 net.cpp:124] Setting up conv4_7_CPM_concat_conv4_7_CPM_concat_0_split
I0503 12:00:04.902612 21836 net.cpp:131] Top shape: 3 672 60 60 (7257600)
I0503 12:00:04.902616 21836 net.cpp:131] Top shape: 3 672 60 60 (7257600)
I0503 12:00:04.902618 21836 net.cpp:139] Memory required for data: 2370859200
I0503 12:00:04.902621 21836 layer_factory.hpp:77] Creating layer conv4_8_CPM_0
I0503 12:00:04.902628 21836 net.cpp:86] Creating Layer conv4_8_CPM_0
I0503 12:00:04.902632 21836 net.cpp:408] conv4_8_CPM_0 <- conv4_7_CPM_concat_conv4_7_CPM_concat_0_split_0
I0503 12:00:04.902647 21836 net.cpp:382] conv4_8_CPM_0 -> conv4_8_CPM_0
I0503 12:00:04.912830 21836 net.cpp:124] Setting up conv4_8_CPM_0
I0503 12:00:04.912842 21836 net.cpp:131] Top shape: 3 256 60 60 (2764800)
I0503 12:00:04.912845 21836 net.cpp:139] Memory required for data: 2381918400
I0503 12:00:04.912851 21836 layer_factory.hpp:77] Creating layer prelu4_8_CPM_0
I0503 12:00:04.912860 21836 net.cpp:86] Creating Layer prelu4_8_CPM_0
I0503 12:00:04.912864 21836 net.cpp:408] prelu4_8_CPM_0 <- conv4_8_CPM_0
I0503 12:00:04.912868 21836 net.cpp:369] prelu4_8_CPM_0 -> conv4_8_CPM_0 (in-place)
I0503 12:00:04.914546 21836 net.cpp:124] Setting up prelu4_8_CPM_0
I0503 12:00:04.914569 21836 net.cpp:131] Top shape: 3 256 60 60 (2764800)
I0503 12:00:04.914572 21836 net.cpp:139] Memory required for data: 2392977600
I0503 12:00:04.914577 21836 layer_factory.hpp:77] Creating layer conv4_8_CPM_0_prelu4_8_CPM_0_0_split
I0503 12:00:04.914583 21836 net.cpp:86] Creating Layer conv4_8_CPM_0_prelu4_8_CPM_0_0_split
I0503 12:00:04.914587 21836 net.cpp:408] conv4_8_CPM_0_prelu4_8_CPM_0_0_split <- conv4_8_CPM_0
I0503 12:00:04.914590 21836 net.cpp:382] conv4_8_CPM_0_prelu4_8_CPM_0_0_split -> conv4_8_CPM_0_prelu4_8_CPM_0_0_split_0
I0503 12:00:04.914597 21836 net.cpp:382] conv4_8_CPM_0_prelu4_8_CPM_0_0_split -> conv4_8_CPM_0_prelu4_8_CPM_0_0_split_1
I0503 12:00:04.914649 21836 net.cpp:124] Setting up conv4_8_CPM_0_prelu4_8_CPM_0_0_split
I0503 12:00:04.914654 21836 net.cpp:131] Top shape: 3 256 60 60 (2764800)
I0503 12:00:04.914657 21836 net.cpp:131] Top shape: 3 256 60 60 (2764800)
I0503 12:00:04.914659 21836 net.cpp:139] Memory required for data: 2415096000
I0503 12:00:04.914662 21836 layer_factory.hpp:77] Creating layer conv4_8_CPM_1
I0503 12:00:04.914670 21836 net.cpp:86] Creating Layer conv4_8_CPM_1
I0503 12:00:04.914674 21836 net.cpp:408] conv4_8_CPM_1 <- conv4_8_CPM_0_prelu4_8_CPM_0_0_split_0
I0503 12:00:04.914690 21836 net.cpp:382] conv4_8_CPM_1 -> conv4_8_CPM_1
I0503 12:00:04.919536 21836 net.cpp:124] Setting up conv4_8_CPM_1
I0503 12:00:04.919550 21836 net.cpp:131] Top shape: 3 256 60 60 (2764800)
I0503 12:00:04.919553 21836 net.cpp:139] Memory required for data: 2426155200
I0503 12:00:04.919559 21836 layer_factory.hpp:77] Creating layer prelu4_8_CPM_1
I0503 12:00:04.919565 21836 net.cpp:86] Creating Layer prelu4_8_CPM_1
I0503 12:00:04.919569 21836 net.cpp:408] prelu4_8_CPM_1 <- conv4_8_CPM_1
I0503 12:00:04.919574 21836 net.cpp:369] prelu4_8_CPM_1 -> conv4_8_CPM_1 (in-place)
I0503 12:00:04.921196 21836 net.cpp:124] Setting up prelu4_8_CPM_1
I0503 12:00:04.921208 21836 net.cpp:131] Top shape: 3 256 60 60 (2764800)
I0503 12:00:04.921211 21836 net.cpp:139] Memory required for data: 2437214400
I0503 12:00:04.921216 21836 layer_factory.hpp:77] Creating layer conv4_8_CPM_1_prelu4_8_CPM_1_0_split
I0503 12:00:04.921219 21836 net.cpp:86] Creating Layer conv4_8_CPM_1_prelu4_8_CPM_1_0_split
I0503 12:00:04.921222 21836 net.cpp:408] conv4_8_CPM_1_prelu4_8_CPM_1_0_split <- conv4_8_CPM_1
I0503 12:00:04.921228 21836 net.cpp:382] conv4_8_CPM_1_prelu4_8_CPM_1_0_split -> conv4_8_CPM_1_prelu4_8_CPM_1_0_split_0
I0503 12:00:04.921234 21836 net.cpp:382] conv4_8_CPM_1_prelu4_8_CPM_1_0_split -> conv4_8_CPM_1_prelu4_8_CPM_1_0_split_1
I0503 12:00:04.921288 21836 net.cpp:124] Setting up conv4_8_CPM_1_prelu4_8_CPM_1_0_split
I0503 12:00:04.921293 21836 net.cpp:131] Top shape: 3 256 60 60 (2764800)
I0503 12:00:04.921295 21836 net.cpp:131] Top shape: 3 256 60 60 (2764800)
I0503 12:00:04.921298 21836 net.cpp:139] Memory required for data: 2459332800
I0503 12:00:04.921300 21836 layer_factory.hpp:77] Creating layer conv4_8_CPM_2
I0503 12:00:04.921313 21836 net.cpp:86] Creating Layer conv4_8_CPM_2
I0503 12:00:04.921327 21836 net.cpp:408] conv4_8_CPM_2 <- conv4_8_CPM_1_prelu4_8_CPM_1_0_split_0
I0503 12:00:04.921332 21836 net.cpp:382] conv4_8_CPM_2 -> conv4_8_CPM_2
I0503 12:00:04.926165 21836 net.cpp:124] Setting up conv4_8_CPM_2
I0503 12:00:04.926178 21836 net.cpp:131] Top shape: 3 256 60 60 (2764800)
I0503 12:00:04.926182 21836 net.cpp:139] Memory required for data: 2470392000
I0503 12:00:04.926213 21836 layer_factory.hpp:77] Creating layer prelu4_8_CPM_2
I0503 12:00:04.926219 21836 net.cpp:86] Creating Layer prelu4_8_CPM_2
I0503 12:00:04.926223 21836 net.cpp:408] prelu4_8_CPM_2 <- conv4_8_CPM_2
I0503 12:00:04.926229 21836 net.cpp:369] prelu4_8_CPM_2 -> conv4_8_CPM_2 (in-place)
I0503 12:00:04.927856 21836 net.cpp:124] Setting up prelu4_8_CPM_2
I0503 12:00:04.927868 21836 net.cpp:131] Top shape: 3 256 60 60 (2764800)
I0503 12:00:04.927882 21836 net.cpp:139] Memory required for data: 2481451200
I0503 12:00:04.927887 21836 layer_factory.hpp:77] Creating layer conv4_8_CPM_concat
I0503 12:00:04.927904 21836 net.cpp:86] Creating Layer conv4_8_CPM_concat
I0503 12:00:04.927908 21836 net.cpp:408] conv4_8_CPM_concat <- conv4_8_CPM_0_prelu4_8_CPM_0_0_split_1
I0503 12:00:04.927912 21836 net.cpp:408] conv4_8_CPM_concat <- conv4_8_CPM_1_prelu4_8_CPM_1_0_split_1
I0503 12:00:04.927915 21836 net.cpp:408] conv4_8_CPM_concat <- conv4_8_CPM_2
I0503 12:00:04.927919 21836 net.cpp:382] conv4_8_CPM_concat -> conv4_8_CPM_concat
I0503 12:00:04.927963 21836 net.cpp:124] Setting up conv4_8_CPM_concat
I0503 12:00:04.927981 21836 net.cpp:131] Top shape: 3 768 60 60 (8294400)
I0503 12:00:04.927984 21836 net.cpp:139] Memory required for data: 2514628800
I0503 12:00:04.927986 21836 layer_factory.hpp:77] Creating layer conv4_9_CPM_0
I0503 12:00:04.927995 21836 net.cpp:86] Creating Layer conv4_9_CPM_0
I0503 12:00:04.927999 21836 net.cpp:408] conv4_9_CPM_0 <- conv4_8_CPM_concat
I0503 12:00:04.928004 21836 net.cpp:382] conv4_9_CPM_0 -> conv4_9_CPM_0
I0503 12:00:04.940919 21836 net.cpp:124] Setting up conv4_9_CPM_0
I0503 12:00:04.940933 21836 net.cpp:131] Top shape: 3 256 60 60 (2764800)
I0503 12:00:04.940937 21836 net.cpp:139] Memory required for data: 2525688000
I0503 12:00:04.940943 21836 layer_factory.hpp:77] Creating layer prelu4_9_CPM_0
I0503 12:00:04.940948 21836 net.cpp:86] Creating Layer prelu4_9_CPM_0
I0503 12:00:04.940951 21836 net.cpp:408] prelu4_9_CPM_0 <- conv4_9_CPM_0
I0503 12:00:04.940958 21836 net.cpp:369] prelu4_9_CPM_0 -> conv4_9_CPM_0 (in-place)
I0503 12:00:04.942597 21836 net.cpp:124] Setting up prelu4_9_CPM_0
I0503 12:00:04.942610 21836 net.cpp:131] Top shape: 3 256 60 60 (2764800)
I0503 12:00:04.942612 21836 net.cpp:139] Memory required for data: 2536747200
I0503 12:00:04.942617 21836 layer_factory.hpp:77] Creating layer conv4_9_CPM_0_prelu4_9_CPM_0_0_split
I0503 12:00:04.942623 21836 net.cpp:86] Creating Layer conv4_9_CPM_0_prelu4_9_CPM_0_0_split
I0503 12:00:04.942626 21836 net.cpp:408] conv4_9_CPM_0_prelu4_9_CPM_0_0_split <- conv4_9_CPM_0
I0503 12:00:04.942631 21836 net.cpp:382] conv4_9_CPM_0_prelu4_9_CPM_0_0_split -> conv4_9_CPM_0_prelu4_9_CPM_0_0_split_0
I0503 12:00:04.942636 21836 net.cpp:382] conv4_9_CPM_0_prelu4_9_CPM_0_0_split -> conv4_9_CPM_0_prelu4_9_CPM_0_0_split_1
I0503 12:00:04.942692 21836 net.cpp:124] Setting up conv4_9_CPM_0_prelu4_9_CPM_0_0_split
I0503 12:00:04.942697 21836 net.cpp:131] Top shape: 3 256 60 60 (2764800)
I0503 12:00:04.942700 21836 net.cpp:131] Top shape: 3 256 60 60 (2764800)
I0503 12:00:04.942703 21836 net.cpp:139] Memory required for data: 2558865600
I0503 12:00:04.942704 21836 layer_factory.hpp:77] Creating layer conv4_9_CPM_1
I0503 12:00:04.942713 21836 net.cpp:86] Creating Layer conv4_9_CPM_1
I0503 12:00:04.942716 21836 net.cpp:408] conv4_9_CPM_1 <- conv4_9_CPM_0_prelu4_9_CPM_0_0_split_0
I0503 12:00:04.942734 21836 net.cpp:382] conv4_9_CPM_1 -> conv4_9_CPM_1
I0503 12:00:04.947640 21836 net.cpp:124] Setting up conv4_9_CPM_1
I0503 12:00:04.947654 21836 net.cpp:131] Top shape: 3 256 60 60 (2764800)
I0503 12:00:04.947657 21836 net.cpp:139] Memory required for data: 2569924800
I0503 12:00:04.947672 21836 layer_factory.hpp:77] Creating layer prelu4_9_CPM_1
I0503 12:00:04.947679 21836 net.cpp:86] Creating Layer prelu4_9_CPM_1
I0503 12:00:04.947682 21836 net.cpp:408] prelu4_9_CPM_1 <- conv4_9_CPM_1
I0503 12:00:04.947686 21836 net.cpp:369] prelu4_9_CPM_1 -> conv4_9_CPM_1 (in-place)
I0503 12:00:04.949331 21836 net.cpp:124] Setting up prelu4_9_CPM_1
I0503 12:00:04.949353 21836 net.cpp:131] Top shape: 3 256 60 60 (2764800)
I0503 12:00:04.949357 21836 net.cpp:139] Memory required for data: 2580984000
I0503 12:00:04.949360 21836 layer_factory.hpp:77] Creating layer conv4_9_CPM_1_prelu4_9_CPM_1_0_split
I0503 12:00:04.949365 21836 net.cpp:86] Creating Layer conv4_9_CPM_1_prelu4_9_CPM_1_0_split
I0503 12:00:04.949368 21836 net.cpp:408] conv4_9_CPM_1_prelu4_9_CPM_1_0_split <- conv4_9_CPM_1
I0503 12:00:04.949374 21836 net.cpp:382] conv4_9_CPM_1_prelu4_9_CPM_1_0_split -> conv4_9_CPM_1_prelu4_9_CPM_1_0_split_0
I0503 12:00:04.949379 21836 net.cpp:382] conv4_9_CPM_1_prelu4_9_CPM_1_0_split -> conv4_9_CPM_1_prelu4_9_CPM_1_0_split_1
I0503 12:00:04.949448 21836 net.cpp:124] Setting up conv4_9_CPM_1_prelu4_9_CPM_1_0_split
I0503 12:00:04.949453 21836 net.cpp:131] Top shape: 3 256 60 60 (2764800)
I0503 12:00:04.949456 21836 net.cpp:131] Top shape: 3 256 60 60 (2764800)
I0503 12:00:04.949460 21836 net.cpp:139] Memory required for data: 2603102400
I0503 12:00:04.949462 21836 layer_factory.hpp:77] Creating layer conv4_9_CPM_2
I0503 12:00:04.949483 21836 net.cpp:86] Creating Layer conv4_9_CPM_2
I0503 12:00:04.949486 21836 net.cpp:408] conv4_9_CPM_2 <- conv4_9_CPM_1_prelu4_9_CPM_1_0_split_0
I0503 12:00:04.949492 21836 net.cpp:382] conv4_9_CPM_2 -> conv4_9_CPM_2
I0503 12:00:04.954468 21836 net.cpp:124] Setting up conv4_9_CPM_2
I0503 12:00:04.954493 21836 net.cpp:131] Top shape: 3 256 60 60 (2764800)
I0503 12:00:04.954496 21836 net.cpp:139] Memory required for data: 2614161600
I0503 12:00:04.954504 21836 layer_factory.hpp:77] Creating layer prelu4_9_CPM_2
I0503 12:00:04.954511 21836 net.cpp:86] Creating Layer prelu4_9_CPM_2
I0503 12:00:04.954515 21836 net.cpp:408] prelu4_9_CPM_2 <- conv4_9_CPM_2
I0503 12:00:04.954520 21836 net.cpp:369] prelu4_9_CPM_2 -> conv4_9_CPM_2 (in-place)
I0503 12:00:04.956179 21836 net.cpp:124] Setting up prelu4_9_CPM_2
I0503 12:00:04.956192 21836 net.cpp:131] Top shape: 3 256 60 60 (2764800)
I0503 12:00:04.956195 21836 net.cpp:139] Memory required for data: 2625220800
I0503 12:00:04.956199 21836 layer_factory.hpp:77] Creating layer conv4_9_CPM_concat
I0503 12:00:04.956205 21836 net.cpp:86] Creating Layer conv4_9_CPM_concat
I0503 12:00:04.956208 21836 net.cpp:408] conv4_9_CPM_concat <- conv4_9_CPM_0_prelu4_9_CPM_0_0_split_1
I0503 12:00:04.956212 21836 net.cpp:408] conv4_9_CPM_concat <- conv4_9_CPM_1_prelu4_9_CPM_1_0_split_1
I0503 12:00:04.956215 21836 net.cpp:408] conv4_9_CPM_concat <- conv4_9_CPM_2
I0503 12:00:04.956219 21836 net.cpp:382] conv4_9_CPM_concat -> conv4_9_CPM_concat
I0503 12:00:04.956264 21836 net.cpp:124] Setting up conv4_9_CPM_concat
I0503 12:00:04.956269 21836 net.cpp:131] Top shape: 3 768 60 60 (8294400)
I0503 12:00:04.956271 21836 net.cpp:139] Memory required for data: 2658398400
I0503 12:00:04.956274 21836 layer_factory.hpp:77] Creating layer conv4_10_CPM_0
I0503 12:00:04.956282 21836 net.cpp:86] Creating Layer conv4_10_CPM_0
I0503 12:00:04.956286 21836 net.cpp:408] conv4_10_CPM_0 <- conv4_9_CPM_concat
I0503 12:00:04.956292 21836 net.cpp:382] conv4_10_CPM_0 -> conv4_10_CPM_0
I0503 12:00:04.966732 21836 net.cpp:124] Setting up conv4_10_CPM_0
I0503 12:00:04.966744 21836 net.cpp:131] Top shape: 3 224 60 60 (2419200)
I0503 12:00:04.966747 21836 net.cpp:139] Memory required for data: 2668075200
I0503 12:00:04.966753 21836 layer_factory.hpp:77] Creating layer prelu4_10_CPM_0
I0503 12:00:04.966760 21836 net.cpp:86] Creating Layer prelu4_10_CPM_0
I0503 12:00:04.966763 21836 net.cpp:408] prelu4_10_CPM_0 <- conv4_10_CPM_0
I0503 12:00:04.966768 21836 net.cpp:369] prelu4_10_CPM_0 -> conv4_10_CPM_0 (in-place)
I0503 12:00:04.968264 21836 net.cpp:124] Setting up prelu4_10_CPM_0
I0503 12:00:04.968277 21836 net.cpp:131] Top shape: 3 224 60 60 (2419200)
I0503 12:00:04.968281 21836 net.cpp:139] Memory required for data: 2677752000
I0503 12:00:04.968284 21836 layer_factory.hpp:77] Creating layer conv4_10_CPM_0_prelu4_10_CPM_0_0_split
I0503 12:00:04.968289 21836 net.cpp:86] Creating Layer conv4_10_CPM_0_prelu4_10_CPM_0_0_split
I0503 12:00:04.968302 21836 net.cpp:408] conv4_10_CPM_0_prelu4_10_CPM_0_0_split <- conv4_10_CPM_0
I0503 12:00:04.968308 21836 net.cpp:382] conv4_10_CPM_0_prelu4_10_CPM_0_0_split -> conv4_10_CPM_0_prelu4_10_CPM_0_0_split_0
I0503 12:00:04.968314 21836 net.cpp:382] conv4_10_CPM_0_prelu4_10_CPM_0_0_split -> conv4_10_CPM_0_prelu4_10_CPM_0_0_split_1
I0503 12:00:04.968371 21836 net.cpp:124] Setting up conv4_10_CPM_0_prelu4_10_CPM_0_0_split
I0503 12:00:04.968376 21836 net.cpp:131] Top shape: 3 224 60 60 (2419200)
I0503 12:00:04.968391 21836 net.cpp:131] Top shape: 3 224 60 60 (2419200)
I0503 12:00:04.968394 21836 net.cpp:139] Memory required for data: 2697105600
I0503 12:00:04.968396 21836 layer_factory.hpp:77] Creating layer conv4_10_CPM_1
I0503 12:00:04.968406 21836 net.cpp:86] Creating Layer conv4_10_CPM_1
I0503 12:00:04.968410 21836 net.cpp:408] conv4_10_CPM_1 <- conv4_10_CPM_0_prelu4_10_CPM_0_0_split_0
I0503 12:00:04.968415 21836 net.cpp:382] conv4_10_CPM_1 -> conv4_10_CPM_1
I0503 12:00:04.972396 21836 net.cpp:124] Setting up conv4_10_CPM_1
I0503 12:00:04.972409 21836 net.cpp:131] Top shape: 3 224 60 60 (2419200)
I0503 12:00:04.972411 21836 net.cpp:139] Memory required for data: 2706782400
I0503 12:00:04.972417 21836 layer_factory.hpp:77] Creating layer prelu4_10_CPM_1
I0503 12:00:04.972425 21836 net.cpp:86] Creating Layer prelu4_10_CPM_1
I0503 12:00:04.972429 21836 net.cpp:408] prelu4_10_CPM_1 <- conv4_10_CPM_1
I0503 12:00:04.972434 21836 net.cpp:369] prelu4_10_CPM_1 -> conv4_10_CPM_1 (in-place)
I0503 12:00:04.973929 21836 net.cpp:124] Setting up prelu4_10_CPM_1
I0503 12:00:04.973942 21836 net.cpp:131] Top shape: 3 224 60 60 (2419200)
I0503 12:00:04.973944 21836 net.cpp:139] Memory required for data: 2716459200
I0503 12:00:04.973948 21836 layer_factory.hpp:77] Creating layer conv4_10_CPM_1_prelu4_10_CPM_1_0_split
I0503 12:00:04.973953 21836 net.cpp:86] Creating Layer conv4_10_CPM_1_prelu4_10_CPM_1_0_split
I0503 12:00:04.973956 21836 net.cpp:408] conv4_10_CPM_1_prelu4_10_CPM_1_0_split <- conv4_10_CPM_1
I0503 12:00:04.973963 21836 net.cpp:382] conv4_10_CPM_1_prelu4_10_CPM_1_0_split -> conv4_10_CPM_1_prelu4_10_CPM_1_0_split_0
I0503 12:00:04.973968 21836 net.cpp:382] conv4_10_CPM_1_prelu4_10_CPM_1_0_split -> conv4_10_CPM_1_prelu4_10_CPM_1_0_split_1
I0503 12:00:04.974025 21836 net.cpp:124] Setting up conv4_10_CPM_1_prelu4_10_CPM_1_0_split
I0503 12:00:04.974030 21836 net.cpp:131] Top shape: 3 224 60 60 (2419200)
I0503 12:00:04.974032 21836 net.cpp:131] Top shape: 3 224 60 60 (2419200)
I0503 12:00:04.974035 21836 net.cpp:139] Memory required for data: 2735812800
I0503 12:00:04.974037 21836 layer_factory.hpp:77] Creating layer conv4_10_CPM_2
I0503 12:00:04.974057 21836 net.cpp:86] Creating Layer conv4_10_CPM_2
I0503 12:00:04.974061 21836 net.cpp:408] conv4_10_CPM_2 <- conv4_10_CPM_1_prelu4_10_CPM_1_0_split_0
I0503 12:00:04.974066 21836 net.cpp:382] conv4_10_CPM_2 -> conv4_10_CPM_2
I0503 12:00:04.979379 21836 net.cpp:124] Setting up conv4_10_CPM_2
I0503 12:00:04.979393 21836 net.cpp:131] Top shape: 3 224 60 60 (2419200)
I0503 12:00:04.979395 21836 net.cpp:139] Memory required for data: 2745489600
I0503 12:00:04.979401 21836 layer_factory.hpp:77] Creating layer prelu4_10_CPM_2
I0503 12:00:04.979408 21836 net.cpp:86] Creating Layer prelu4_10_CPM_2
I0503 12:00:04.979413 21836 net.cpp:408] prelu4_10_CPM_2 <- conv4_10_CPM_2
I0503 12:00:04.979418 21836 net.cpp:369] prelu4_10_CPM_2 -> conv4_10_CPM_2 (in-place)
I0503 12:00:04.980938 21836 net.cpp:124] Setting up prelu4_10_CPM_2
I0503 12:00:04.980962 21836 net.cpp:131] Top shape: 3 224 60 60 (2419200)
I0503 12:00:04.980965 21836 net.cpp:139] Memory required for data: 2755166400
I0503 12:00:04.980970 21836 layer_factory.hpp:77] Creating layer conv4_10_CPM_concat
I0503 12:00:04.980976 21836 net.cpp:86] Creating Layer conv4_10_CPM_concat
I0503 12:00:04.980979 21836 net.cpp:408] conv4_10_CPM_concat <- conv4_10_CPM_0_prelu4_10_CPM_0_0_split_1
I0503 12:00:04.980983 21836 net.cpp:408] conv4_10_CPM_concat <- conv4_10_CPM_1_prelu4_10_CPM_1_0_split_1
I0503 12:00:04.980988 21836 net.cpp:408] conv4_10_CPM_concat <- conv4_10_CPM_2
I0503 12:00:04.981012 21836 net.cpp:382] conv4_10_CPM_concat -> conv4_10_CPM_concat
I0503 12:00:04.981050 21836 net.cpp:124] Setting up conv4_10_CPM_concat
I0503 12:00:04.981055 21836 net.cpp:131] Top shape: 3 672 60 60 (7257600)
I0503 12:00:04.981057 21836 net.cpp:139] Memory required for data: 2784196800
I0503 12:00:04.981060 21836 layer_factory.hpp:77] Creating layer conv4_11_CPM_concat
I0503 12:00:04.981065 21836 net.cpp:86] Creating Layer conv4_11_CPM_concat
I0503 12:00:04.981068 21836 net.cpp:408] conv4_11_CPM_concat <- conv4_2_relu4_2_0_split_1
I0503 12:00:04.981072 21836 net.cpp:408] conv4_11_CPM_concat <- conv4_4_relu4_4_0_split_1
I0503 12:00:04.981076 21836 net.cpp:408] conv4_11_CPM_concat <- conv4_7_CPM_concat_conv4_7_CPM_concat_0_split_1
I0503 12:00:04.981079 21836 net.cpp:408] conv4_11_CPM_concat <- conv4_10_CPM_concat
I0503 12:00:04.981083 21836 net.cpp:382] conv4_11_CPM_concat -> conv4_11_CPM_concat
I0503 12:00:04.981109 21836 net.cpp:124] Setting up conv4_11_CPM_concat
I0503 12:00:04.981114 21836 net.cpp:131] Top shape: 3 2368 60 60 (25574400)
I0503 12:00:04.981117 21836 net.cpp:139] Memory required for data: 2886494400
I0503 12:00:04.981119 21836 layer_factory.hpp:77] Creating layer conv4_11_CPM
I0503 12:00:04.981132 21836 net.cpp:86] Creating Layer conv4_11_CPM
I0503 12:00:04.981135 21836 net.cpp:408] conv4_11_CPM <- conv4_11_CPM_concat
I0503 12:00:04.981140 21836 net.cpp:382] conv4_11_CPM -> conv4_11_CPM
I0503 12:00:04.989706 21836 net.cpp:124] Setting up conv4_11_CPM
I0503 12:00:04.989719 21836 net.cpp:131] Top shape: 3 512 60 60 (5529600)
I0503 12:00:04.989722 21836 net.cpp:139] Memory required for data: 2908612800
I0503 12:00:04.989728 21836 layer_factory.hpp:77] Creating layer prelu4_11_CPM
I0503 12:00:04.989733 21836 net.cpp:86] Creating Layer prelu4_11_CPM
I0503 12:00:04.989737 21836 net.cpp:408] prelu4_11_CPM <- conv4_11_CPM
I0503 12:00:04.989742 21836 net.cpp:369] prelu4_11_CPM -> conv4_11_CPM (in-place)
I0503 12:00:04.992648 21836 net.cpp:124] Setting up prelu4_11_CPM
I0503 12:00:04.992660 21836 net.cpp:131] Top shape: 3 512 60 60 (5529600)
I0503 12:00:04.992663 21836 net.cpp:139] Memory required for data: 2930731200
I0503 12:00:04.992667 21836 layer_factory.hpp:77] Creating layer conv4_11_CPM_prelu4_11_CPM_0_split
I0503 12:00:04.992673 21836 net.cpp:86] Creating Layer conv4_11_CPM_prelu4_11_CPM_0_split
I0503 12:00:04.992676 21836 net.cpp:408] conv4_11_CPM_prelu4_11_CPM_0_split <- conv4_11_CPM
I0503 12:00:04.992682 21836 net.cpp:382] conv4_11_CPM_prelu4_11_CPM_0_split -> conv4_11_CPM_prelu4_11_CPM_0_split_0
I0503 12:00:04.992687 21836 net.cpp:382] conv4_11_CPM_prelu4_11_CPM_0_split -> conv4_11_CPM_prelu4_11_CPM_0_split_1
I0503 12:00:04.992745 21836 net.cpp:124] Setting up conv4_11_CPM_prelu4_11_CPM_0_split
I0503 12:00:04.992750 21836 net.cpp:131] Top shape: 3 512 60 60 (5529600)
I0503 12:00:04.992754 21836 net.cpp:131] Top shape: 3 512 60 60 (5529600)
I0503 12:00:04.992756 21836 net.cpp:139] Memory required for data: 2974968000
I0503 12:00:04.992759 21836 layer_factory.hpp:77] Creating layer Mconv1_stage0_L2_0
I0503 12:00:04.992780 21836 net.cpp:86] Creating Layer Mconv1_stage0_L2_0
I0503 12:00:04.992784 21836 net.cpp:408] Mconv1_stage0_L2_0 <- conv4_11_CPM_prelu4_11_CPM_0_split_0
I0503 12:00:04.992789 21836 net.cpp:382] Mconv1_stage0_L2_0 -> Mconv1_stage0_L2_0
I0503 12:00:05.001283 21836 net.cpp:124] Setting up Mconv1_stage0_L2_0
I0503 12:00:05.001296 21836 net.cpp:131] Top shape: 3 256 60 60 (2764800)
I0503 12:00:05.001299 21836 net.cpp:139] Memory required for data: 2986027200
I0503 12:00:05.001305 21836 layer_factory.hpp:77] Creating layer Mprelu1_stage0_L2_0
I0503 12:00:05.001312 21836 net.cpp:86] Creating Layer Mprelu1_stage0_L2_0
I0503 12:00:05.001317 21836 net.cpp:408] Mprelu1_stage0_L2_0 <- Mconv1_stage0_L2_0
I0503 12:00:05.001320 21836 net.cpp:369] Mprelu1_stage0_L2_0 -> Mconv1_stage0_L2_0 (in-place)
I0503 12:00:05.002985 21836 net.cpp:124] Setting up Mprelu1_stage0_L2_0
I0503 12:00:05.002996 21836 net.cpp:131] Top shape: 3 256 60 60 (2764800)
I0503 12:00:05.003000 21836 net.cpp:139] Memory required for data: 2997086400
I0503 12:00:05.003015 21836 layer_factory.hpp:77] Creating layer Mconv1_stage0_L2_0_Mprelu1_stage0_L2_0_0_split
I0503 12:00:05.003021 21836 net.cpp:86] Creating Layer Mconv1_stage0_L2_0_Mprelu1_stage0_L2_0_0_split
I0503 12:00:05.003026 21836 net.cpp:408] Mconv1_stage0_L2_0_Mprelu1_stage0_L2_0_0_split <- Mconv1_stage0_L2_0
I0503 12:00:05.003029 21836 net.cpp:382] Mconv1_stage0_L2_0_Mprelu1_stage0_L2_0_0_split -> Mconv1_stage0_L2_0_Mprelu1_stage0_L2_0_0_split_0
I0503 12:00:05.003036 21836 net.cpp:382] Mconv1_stage0_L2_0_Mprelu1_stage0_L2_0_0_split -> Mconv1_stage0_L2_0_Mprelu1_stage0_L2_0_0_split_1
I0503 12:00:05.003095 21836 net.cpp:124] Setting up Mconv1_stage0_L2_0_Mprelu1_stage0_L2_0_0_split
I0503 12:00:05.003111 21836 net.cpp:131] Top shape: 3 256 60 60 (2764800)
I0503 12:00:05.003114 21836 net.cpp:131] Top shape: 3 256 60 60 (2764800)
I0503 12:00:05.003118 21836 net.cpp:139] Memory required for data: 3019204800
I0503 12:00:05.003119 21836 layer_factory.hpp:77] Creating layer Mconv1_stage0_L2_1
I0503 12:00:05.003129 21836 net.cpp:86] Creating Layer Mconv1_stage0_L2_1
I0503 12:00:05.003131 21836 net.cpp:408] Mconv1_stage0_L2_1 <- Mconv1_stage0_L2_0_Mprelu1_stage0_L2_0_0_split_0
I0503 12:00:05.003137 21836 net.cpp:382] Mconv1_stage0_L2_1 -> Mconv1_stage0_L2_1
I0503 12:00:05.008119 21836 net.cpp:124] Setting up Mconv1_stage0_L2_1
I0503 12:00:05.008132 21836 net.cpp:131] Top shape: 3 256 60 60 (2764800)
I0503 12:00:05.008136 21836 net.cpp:139] Memory required for data: 3030264000
I0503 12:00:05.008141 21836 layer_factory.hpp:77] Creating layer Mprelu1_stage0_L2_1
I0503 12:00:05.008147 21836 net.cpp:86] Creating Layer Mprelu1_stage0_L2_1
I0503 12:00:05.008149 21836 net.cpp:408] Mprelu1_stage0_L2_1 <- Mconv1_stage0_L2_1
I0503 12:00:05.008155 21836 net.cpp:369] Mprelu1_stage0_L2_1 -> Mconv1_stage0_L2_1 (in-place)
I0503 12:00:05.009810 21836 net.cpp:124] Setting up Mprelu1_stage0_L2_1
I0503 12:00:05.009822 21836 net.cpp:131] Top shape: 3 256 60 60 (2764800)
I0503 12:00:05.009825 21836 net.cpp:139] Memory required for data: 3041323200
I0503 12:00:05.009830 21836 layer_factory.hpp:77] Creating layer Mconv1_stage0_L2_1_Mprelu1_stage0_L2_1_0_split
I0503 12:00:05.009835 21836 net.cpp:86] Creating Layer Mconv1_stage0_L2_1_Mprelu1_stage0_L2_1_0_split
I0503 12:00:05.009840 21836 net.cpp:408] Mconv1_stage0_L2_1_Mprelu1_stage0_L2_1_0_split <- Mconv1_stage0_L2_1
I0503 12:00:05.009843 21836 net.cpp:382] Mconv1_stage0_L2_1_Mprelu1_stage0_L2_1_0_split -> Mconv1_stage0_L2_1_Mprelu1_stage0_L2_1_0_split_0
I0503 12:00:05.009850 21836 net.cpp:382] Mconv1_stage0_L2_1_Mprelu1_stage0_L2_1_0_split -> Mconv1_stage0_L2_1_Mprelu1_stage0_L2_1_0_split_1
I0503 12:00:05.009908 21836 net.cpp:124] Setting up Mconv1_stage0_L2_1_Mprelu1_stage0_L2_1_0_split
I0503 12:00:05.009913 21836 net.cpp:131] Top shape: 3 256 60 60 (2764800)
I0503 12:00:05.009917 21836 net.cpp:131] Top shape: 3 256 60 60 (2764800)
I0503 12:00:05.009919 21836 net.cpp:139] Memory required for data: 3063441600
I0503 12:00:05.009922 21836 layer_factory.hpp:77] Creating layer Mconv1_stage0_L2_2
I0503 12:00:05.009941 21836 net.cpp:86] Creating Layer Mconv1_stage0_L2_2
I0503 12:00:05.009945 21836 net.cpp:408] Mconv1_stage0_L2_2 <- Mconv1_stage0_L2_1_Mprelu1_stage0_L2_1_0_split_0
I0503 12:00:05.009951 21836 net.cpp:382] Mconv1_stage0_L2_2 -> Mconv1_stage0_L2_2
I0503 12:00:05.016155 21836 net.cpp:124] Setting up Mconv1_stage0_L2_2
I0503 12:00:05.016168 21836 net.cpp:131] Top shape: 3 256 60 60 (2764800)
I0503 12:00:05.016171 21836 net.cpp:139] Memory required for data: 3074500800
I0503 12:00:05.016178 21836 layer_factory.hpp:77] Creating layer Mprelu1_stage0_L2_2
I0503 12:00:05.016183 21836 net.cpp:86] Creating Layer Mprelu1_stage0_L2_2
I0503 12:00:05.016187 21836 net.cpp:408] Mprelu1_stage0_L2_2 <- Mconv1_stage0_L2_2
I0503 12:00:05.016191 21836 net.cpp:369] Mprelu1_stage0_L2_2 -> Mconv1_stage0_L2_2 (in-place)
I0503 12:00:05.017840 21836 net.cpp:124] Setting up Mprelu1_stage0_L2_2
I0503 12:00:05.017853 21836 net.cpp:131] Top shape: 3 256 60 60 (2764800)
I0503 12:00:05.017865 21836 net.cpp:139] Memory required for data: 3085560000
I0503 12:00:05.017870 21836 layer_factory.hpp:77] Creating layer Mconv1_stage0_L2_concat
I0503 12:00:05.017877 21836 net.cpp:86] Creating Layer Mconv1_stage0_L2_concat
I0503 12:00:05.017880 21836 net.cpp:408] Mconv1_stage0_L2_concat <- Mconv1_stage0_L2_0_Mprelu1_stage0_L2_0_0_split_1
I0503 12:00:05.017884 21836 net.cpp:408] Mconv1_stage0_L2_concat <- Mconv1_stage0_L2_1_Mprelu1_stage0_L2_1_0_split_1
I0503 12:00:05.017889 21836 net.cpp:408] Mconv1_stage0_L2_concat <- Mconv1_stage0_L2_2
I0503 12:00:05.017891 21836 net.cpp:382] Mconv1_stage0_L2_concat -> Mconv1_stage0_L2_concat
I0503 12:00:05.017938 21836 net.cpp:124] Setting up Mconv1_stage0_L2_concat
I0503 12:00:05.017943 21836 net.cpp:131] Top shape: 3 768 60 60 (8294400)
I0503 12:00:05.017946 21836 net.cpp:139] Memory required for data: 3118737600
I0503 12:00:05.017961 21836 layer_factory.hpp:77] Creating layer Mconv2_stage0_L2_0
I0503 12:00:05.017969 21836 net.cpp:86] Creating Layer Mconv2_stage0_L2_0
I0503 12:00:05.017972 21836 net.cpp:408] Mconv2_stage0_L2_0 <- Mconv1_stage0_L2_concat
I0503 12:00:05.017978 21836 net.cpp:382] Mconv2_stage0_L2_0 -> Mconv2_stage0_L2_0
I0503 12:00:05.029695 21836 net.cpp:124] Setting up Mconv2_stage0_L2_0
I0503 12:00:05.029707 21836 net.cpp:131] Top shape: 3 256 60 60 (2764800)
I0503 12:00:05.029709 21836 net.cpp:139] Memory required for data: 3129796800
I0503 12:00:05.029716 21836 layer_factory.hpp:77] Creating layer Mprelu2_stage0_L2_0
I0503 12:00:05.029722 21836 net.cpp:86] Creating Layer Mprelu2_stage0_L2_0
I0503 12:00:05.029726 21836 net.cpp:408] Mprelu2_stage0_L2_0 <- Mconv2_stage0_L2_0
I0503 12:00:05.029731 21836 net.cpp:369] Mprelu2_stage0_L2_0 -> Mconv2_stage0_L2_0 (in-place)
I0503 12:00:05.031414 21836 net.cpp:124] Setting up Mprelu2_stage0_L2_0
I0503 12:00:05.031426 21836 net.cpp:131] Top shape: 3 256 60 60 (2764800)
I0503 12:00:05.031430 21836 net.cpp:139] Memory required for data: 3140856000
I0503 12:00:05.031435 21836 layer_factory.hpp:77] Creating layer Mconv2_stage0_L2_0_Mprelu2_stage0_L2_0_0_split
I0503 12:00:05.031440 21836 net.cpp:86] Creating Layer Mconv2_stage0_L2_0_Mprelu2_stage0_L2_0_0_split
I0503 12:00:05.031443 21836 net.cpp:408] Mconv2_stage0_L2_0_Mprelu2_stage0_L2_0_0_split <- Mconv2_stage0_L2_0
I0503 12:00:05.031447 21836 net.cpp:382] Mconv2_stage0_L2_0_Mprelu2_stage0_L2_0_0_split -> Mconv2_stage0_L2_0_Mprelu2_stage0_L2_0_0_split_0
I0503 12:00:05.031453 21836 net.cpp:382] Mconv2_stage0_L2_0_Mprelu2_stage0_L2_0_0_split -> Mconv2_stage0_L2_0_Mprelu2_stage0_L2_0_0_split_1
I0503 12:00:05.031513 21836 net.cpp:124] Setting up Mconv2_stage0_L2_0_Mprelu2_stage0_L2_0_0_split
I0503 12:00:05.031518 21836 net.cpp:131] Top shape: 3 256 60 60 (2764800)
I0503 12:00:05.031522 21836 net.cpp:131] Top shape: 3 256 60 60 (2764800)
I0503 12:00:05.031524 21836 net.cpp:139] Memory required for data: 3162974400
I0503 12:00:05.031527 21836 layer_factory.hpp:77] Creating layer Mconv2_stage0_L2_1
I0503 12:00:05.031546 21836 net.cpp:86] Creating Layer Mconv2_stage0_L2_1
I0503 12:00:05.031549 21836 net.cpp:408] Mconv2_stage0_L2_1 <- Mconv2_stage0_L2_0_Mprelu2_stage0_L2_0_0_split_0
I0503 12:00:05.031555 21836 net.cpp:382] Mconv2_stage0_L2_1 -> Mconv2_stage0_L2_1
I0503 12:00:05.036518 21836 net.cpp:124] Setting up Mconv2_stage0_L2_1
I0503 12:00:05.036531 21836 net.cpp:131] Top shape: 3 256 60 60 (2764800)
I0503 12:00:05.036535 21836 net.cpp:139] Memory required for data: 3174033600
I0503 12:00:05.036540 21836 layer_factory.hpp:77] Creating layer Mprelu2_stage0_L2_1
I0503 12:00:05.036547 21836 net.cpp:86] Creating Layer Mprelu2_stage0_L2_1
I0503 12:00:05.036550 21836 net.cpp:408] Mprelu2_stage0_L2_1 <- Mconv2_stage0_L2_1
I0503 12:00:05.036554 21836 net.cpp:369] Mprelu2_stage0_L2_1 -> Mconv2_stage0_L2_1 (in-place)
I0503 12:00:05.038228 21836 net.cpp:124] Setting up Mprelu2_stage0_L2_1
I0503 12:00:05.038240 21836 net.cpp:131] Top shape: 3 256 60 60 (2764800)
I0503 12:00:05.038255 21836 net.cpp:139] Memory required for data: 3185092800
I0503 12:00:05.038260 21836 layer_factory.hpp:77] Creating layer Mconv2_stage0_L2_1_Mprelu2_stage0_L2_1_0_split
I0503 12:00:05.038276 21836 net.cpp:86] Creating Layer Mconv2_stage0_L2_1_Mprelu2_stage0_L2_1_0_split
I0503 12:00:05.038280 21836 net.cpp:408] Mconv2_stage0_L2_1_Mprelu2_stage0_L2_1_0_split <- Mconv2_stage0_L2_1
I0503 12:00:05.038286 21836 net.cpp:382] Mconv2_stage0_L2_1_Mprelu2_stage0_L2_1_0_split -> Mconv2_stage0_L2_1_Mprelu2_stage0_L2_1_0_split_0
I0503 12:00:05.038303 21836 net.cpp:382] Mconv2_stage0_L2_1_Mprelu2_stage0_L2_1_0_split -> Mconv2_stage0_L2_1_Mprelu2_stage0_L2_1_0_split_1
I0503 12:00:05.038367 21836 net.cpp:124] Setting up Mconv2_stage0_L2_1_Mprelu2_stage0_L2_1_0_split
I0503 12:00:05.038384 21836 net.cpp:131] Top shape: 3 256 60 60 (2764800)
I0503 12:00:05.038388 21836 net.cpp:131] Top shape: 3 256 60 60 (2764800)
I0503 12:00:05.038390 21836 net.cpp:139] Memory required for data: 3207211200
I0503 12:00:05.038393 21836 layer_factory.hpp:77] Creating layer Mconv2_stage0_L2_2
I0503 12:00:05.038403 21836 net.cpp:86] Creating Layer Mconv2_stage0_L2_2
I0503 12:00:05.038406 21836 net.cpp:408] Mconv2_stage0_L2_2 <- Mconv2_stage0_L2_1_Mprelu2_stage0_L2_1_0_split_0
I0503 12:00:05.038413 21836 net.cpp:382] Mconv2_stage0_L2_2 -> Mconv2_stage0_L2_2
I0503 12:00:05.043503 21836 net.cpp:124] Setting up Mconv2_stage0_L2_2
I0503 12:00:05.043514 21836 net.cpp:131] Top shape: 3 256 60 60 (2764800)
I0503 12:00:05.043517 21836 net.cpp:139] Memory required for data: 3218270400
I0503 12:00:05.043524 21836 layer_factory.hpp:77] Creating layer Mprelu2_stage0_L2_2
I0503 12:00:05.043535 21836 net.cpp:86] Creating Layer Mprelu2_stage0_L2_2
I0503 12:00:05.043539 21836 net.cpp:408] Mprelu2_stage0_L2_2 <- Mconv2_stage0_L2_2
I0503 12:00:05.043545 21836 net.cpp:369] Mprelu2_stage0_L2_2 -> Mconv2_stage0_L2_2 (in-place)
I0503 12:00:05.045186 21836 net.cpp:124] Setting up Mprelu2_stage0_L2_2
I0503 12:00:05.045197 21836 net.cpp:131] Top shape: 3 256 60 60 (2764800)
I0503 12:00:05.045200 21836 net.cpp:139] Memory required for data: 3229329600
I0503 12:00:05.045204 21836 layer_factory.hpp:77] Creating layer Mconv2_stage0_L2_concat
I0503 12:00:05.045212 21836 net.cpp:86] Creating Layer Mconv2_stage0_L2_concat
I0503 12:00:05.045215 21836 net.cpp:408] Mconv2_stage0_L2_concat <- Mconv2_stage0_L2_0_Mprelu2_stage0_L2_0_0_split_1
I0503 12:00:05.045218 21836 net.cpp:408] Mconv2_stage0_L2_concat <- Mconv2_stage0_L2_1_Mprelu2_stage0_L2_1_0_split_1
I0503 12:00:05.045222 21836 net.cpp:408] Mconv2_stage0_L2_concat <- Mconv2_stage0_L2_2
I0503 12:00:05.045226 21836 net.cpp:382] Mconv2_stage0_L2_concat -> Mconv2_stage0_L2_concat
I0503 12:00:05.045271 21836 net.cpp:124] Setting up Mconv2_stage0_L2_concat
I0503 12:00:05.045276 21836 net.cpp:131] Top shape: 3 768 60 60 (8294400)
I0503 12:00:05.045279 21836 net.cpp:139] Memory required for data: 3262507200
I0503 12:00:05.045280 21836 layer_factory.hpp:77] Creating layer Mconv3_stage0_L2_0
I0503 12:00:05.045290 21836 net.cpp:86] Creating Layer Mconv3_stage0_L2_0
I0503 12:00:05.045294 21836 net.cpp:408] Mconv3_stage0_L2_0 <- Mconv2_stage0_L2_concat
I0503 12:00:05.045298 21836 net.cpp:382] Mconv3_stage0_L2_0 -> Mconv3_stage0_L2_0
I0503 12:00:05.057293 21836 net.cpp:124] Setting up Mconv3_stage0_L2_0
I0503 12:00:05.057307 21836 net.cpp:131] Top shape: 3 256 60 60 (2764800)
I0503 12:00:05.057309 21836 net.cpp:139] Memory required for data: 3273566400
I0503 12:00:05.057314 21836 layer_factory.hpp:77] Creating layer Mprelu3_stage0_L2_0
I0503 12:00:05.057322 21836 net.cpp:86] Creating Layer Mprelu3_stage0_L2_0
I0503 12:00:05.057325 21836 net.cpp:408] Mprelu3_stage0_L2_0 <- Mconv3_stage0_L2_0
I0503 12:00:05.057330 21836 net.cpp:369] Mprelu3_stage0_L2_0 -> Mconv3_stage0_L2_0 (in-place)
I0503 12:00:05.059008 21836 net.cpp:124] Setting up Mprelu3_stage0_L2_0
I0503 12:00:05.059021 21836 net.cpp:131] Top shape: 3 256 60 60 (2764800)
I0503 12:00:05.059023 21836 net.cpp:139] Memory required for data: 3284625600
I0503 12:00:05.059028 21836 layer_factory.hpp:77] Creating layer Mconv3_stage0_L2_0_Mprelu3_stage0_L2_0_0_split
I0503 12:00:05.059033 21836 net.cpp:86] Creating Layer Mconv3_stage0_L2_0_Mprelu3_stage0_L2_0_0_split
I0503 12:00:05.059046 21836 net.cpp:408] Mconv3_stage0_L2_0_Mprelu3_stage0_L2_0_0_split <- Mconv3_stage0_L2_0
I0503 12:00:05.059051 21836 net.cpp:382] Mconv3_stage0_L2_0_Mprelu3_stage0_L2_0_0_split -> Mconv3_stage0_L2_0_Mprelu3_stage0_L2_0_0_split_0
I0503 12:00:05.059070 21836 net.cpp:382] Mconv3_stage0_L2_0_Mprelu3_stage0_L2_0_0_split -> Mconv3_stage0_L2_0_Mprelu3_stage0_L2_0_0_split_1
I0503 12:00:05.059134 21836 net.cpp:124] Setting up Mconv3_stage0_L2_0_Mprelu3_stage0_L2_0_0_split
I0503 12:00:05.059141 21836 net.cpp:131] Top shape: 3 256 60 60 (2764800)
I0503 12:00:05.059145 21836 net.cpp:131] Top shape: 3 256 60 60 (2764800)
I0503 12:00:05.059147 21836 net.cpp:139] Memory required for data: 3306744000
I0503 12:00:05.059150 21836 layer_factory.hpp:77] Creating layer Mconv3_stage0_L2_1
I0503 12:00:05.059160 21836 net.cpp:86] Creating Layer Mconv3_stage0_L2_1
I0503 12:00:05.059164 21836 net.cpp:408] Mconv3_stage0_L2_1 <- Mconv3_stage0_L2_0_Mprelu3_stage0_L2_0_0_split_0
I0503 12:00:05.059168 21836 net.cpp:382] Mconv3_stage0_L2_1 -> Mconv3_stage0_L2_1
I0503 12:00:05.065430 21836 net.cpp:124] Setting up Mconv3_stage0_L2_1
I0503 12:00:05.065444 21836 net.cpp:131] Top shape: 3 256 60 60 (2764800)
I0503 12:00:05.065448 21836 net.cpp:139] Memory required for data: 3317803200
I0503 12:00:05.065452 21836 layer_factory.hpp:77] Creating layer Mprelu3_stage0_L2_1
I0503 12:00:05.065459 21836 net.cpp:86] Creating Layer Mprelu3_stage0_L2_1
I0503 12:00:05.065462 21836 net.cpp:408] Mprelu3_stage0_L2_1 <- Mconv3_stage0_L2_1
I0503 12:00:05.065467 21836 net.cpp:369] Mprelu3_stage0_L2_1 -> Mconv3_stage0_L2_1 (in-place)
I0503 12:00:05.067162 21836 net.cpp:124] Setting up Mprelu3_stage0_L2_1
I0503 12:00:05.067174 21836 net.cpp:131] Top shape: 3 256 60 60 (2764800)
I0503 12:00:05.067178 21836 net.cpp:139] Memory required for data: 3328862400
I0503 12:00:05.067181 21836 layer_factory.hpp:77] Creating layer Mconv3_stage0_L2_1_Mprelu3_stage0_L2_1_0_split
I0503 12:00:05.067188 21836 net.cpp:86] Creating Layer Mconv3_stage0_L2_1_Mprelu3_stage0_L2_1_0_split
I0503 12:00:05.067191 21836 net.cpp:408] Mconv3_stage0_L2_1_Mprelu3_stage0_L2_1_0_split <- Mconv3_stage0_L2_1
I0503 12:00:05.067195 21836 net.cpp:382] Mconv3_stage0_L2_1_Mprelu3_stage0_L2_1_0_split -> Mconv3_stage0_L2_1_Mprelu3_stage0_L2_1_0_split_0
I0503 12:00:05.067201 21836 net.cpp:382] Mconv3_stage0_L2_1_Mprelu3_stage0_L2_1_0_split -> Mconv3_stage0_L2_1_Mprelu3_stage0_L2_1_0_split_1
I0503 12:00:05.067262 21836 net.cpp:124] Setting up Mconv3_stage0_L2_1_Mprelu3_stage0_L2_1_0_split
I0503 12:00:05.067267 21836 net.cpp:131] Top shape: 3 256 60 60 (2764800)
I0503 12:00:05.067270 21836 net.cpp:131] Top shape: 3 256 60 60 (2764800)
I0503 12:00:05.067273 21836 net.cpp:139] Memory required for data: 3350980800
I0503 12:00:05.067276 21836 layer_factory.hpp:77] Creating layer Mconv3_stage0_L2_2
I0503 12:00:05.067296 21836 net.cpp:86] Creating Layer Mconv3_stage0_L2_2
I0503 12:00:05.067299 21836 net.cpp:408] Mconv3_stage0_L2_2 <- Mconv3_stage0_L2_1_Mprelu3_stage0_L2_1_0_split_0
I0503 12:00:05.067306 21836 net.cpp:382] Mconv3_stage0_L2_2 -> Mconv3_stage0_L2_2
I0503 12:00:05.072289 21836 net.cpp:124] Setting up Mconv3_stage0_L2_2
I0503 12:00:05.072302 21836 net.cpp:131] Top shape: 3 256 60 60 (2764800)
I0503 12:00:05.072305 21836 net.cpp:139] Memory required for data: 3362040000
I0503 12:00:05.072311 21836 layer_factory.hpp:77] Creating layer Mprelu3_stage0_L2_2
I0503 12:00:05.072317 21836 net.cpp:86] Creating Layer Mprelu3_stage0_L2_2
I0503 12:00:05.072320 21836 net.cpp:408] Mprelu3_stage0_L2_2 <- Mconv3_stage0_L2_2
I0503 12:00:05.072325 21836 net.cpp:369] Mprelu3_stage0_L2_2 -> Mconv3_stage0_L2_2 (in-place)
I0503 12:00:05.073951 21836 net.cpp:124] Setting up Mprelu3_stage0_L2_2
I0503 12:00:05.073962 21836 net.cpp:131] Top shape: 3 256 60 60 (2764800)
I0503 12:00:05.073966 21836 net.cpp:139] Memory required for data: 3373099200
I0503 12:00:05.073969 21836 layer_factory.hpp:77] Creating layer Mconv3_stage0_L2_concat
I0503 12:00:05.073987 21836 net.cpp:86] Creating Layer Mconv3_stage0_L2_concat
I0503 12:00:05.073990 21836 net.cpp:408] Mconv3_stage0_L2_concat <- Mconv3_stage0_L2_0_Mprelu3_stage0_L2_0_0_split_1
I0503 12:00:05.073994 21836 net.cpp:408] Mconv3_stage0_L2_concat <- Mconv3_stage0_L2_1_Mprelu3_stage0_L2_1_0_split_1
I0503 12:00:05.073997 21836 net.cpp:408] Mconv3_stage0_L2_concat <- Mconv3_stage0_L2_2
I0503 12:00:05.074002 21836 net.cpp:382] Mconv3_stage0_L2_concat -> Mconv3_stage0_L2_concat
I0503 12:00:05.074049 21836 net.cpp:124] Setting up Mconv3_stage0_L2_concat
I0503 12:00:05.074055 21836 net.cpp:131] Top shape: 3 768 60 60 (8294400)
I0503 12:00:05.074057 21836 net.cpp:139] Memory required for data: 3406276800
I0503 12:00:05.074071 21836 layer_factory.hpp:77] Creating layer Mconv4_stage0_L2_0
I0503 12:00:05.074080 21836 net.cpp:86] Creating Layer Mconv4_stage0_L2_0
I0503 12:00:05.074084 21836 net.cpp:408] Mconv4_stage0_L2_0 <- Mconv3_stage0_L2_concat
I0503 12:00:05.074088 21836 net.cpp:382] Mconv4_stage0_L2_0 -> Mconv4_stage0_L2_0
I0503 12:00:05.085721 21836 net.cpp:124] Setting up Mconv4_stage0_L2_0
I0503 12:00:05.085733 21836 net.cpp:131] Top shape: 3 256 60 60 (2764800)
I0503 12:00:05.085736 21836 net.cpp:139] Memory required for data: 3417336000
I0503 12:00:05.085741 21836 layer_factory.hpp:77] Creating layer Mprelu4_stage0_L2_0
I0503 12:00:05.085748 21836 net.cpp:86] Creating Layer Mprelu4_stage0_L2_0
I0503 12:00:05.085752 21836 net.cpp:408] Mprelu4_stage0_L2_0 <- Mconv4_stage0_L2_0
I0503 12:00:05.085757 21836 net.cpp:369] Mprelu4_stage0_L2_0 -> Mconv4_stage0_L2_0 (in-place)
I0503 12:00:05.087442 21836 net.cpp:124] Setting up Mprelu4_stage0_L2_0
I0503 12:00:05.087455 21836 net.cpp:131] Top shape: 3 256 60 60 (2764800)
I0503 12:00:05.087457 21836 net.cpp:139] Memory required for data: 3428395200
I0503 12:00:05.087462 21836 layer_factory.hpp:77] Creating layer Mconv4_stage0_L2_0_Mprelu4_stage0_L2_0_0_split
I0503 12:00:05.087467 21836 net.cpp:86] Creating Layer Mconv4_stage0_L2_0_Mprelu4_stage0_L2_0_0_split
I0503 12:00:05.087471 21836 net.cpp:408] Mconv4_stage0_L2_0_Mprelu4_stage0_L2_0_0_split <- Mconv4_stage0_L2_0
I0503 12:00:05.087476 21836 net.cpp:382] Mconv4_stage0_L2_0_Mprelu4_stage0_L2_0_0_split -> Mconv4_stage0_L2_0_Mprelu4_stage0_L2_0_0_split_0
I0503 12:00:05.087481 21836 net.cpp:382] Mconv4_stage0_L2_0_Mprelu4_stage0_L2_0_0_split -> Mconv4_stage0_L2_0_Mprelu4_stage0_L2_0_0_split_1
I0503 12:00:05.087544 21836 net.cpp:124] Setting up Mconv4_stage0_L2_0_Mprelu4_stage0_L2_0_0_split
I0503 12:00:05.087550 21836 net.cpp:131] Top shape: 3 256 60 60 (2764800)
I0503 12:00:05.087553 21836 net.cpp:131] Top shape: 3 256 60 60 (2764800)
I0503 12:00:05.087555 21836 net.cpp:139] Memory required for data: 3450513600
I0503 12:00:05.087558 21836 layer_factory.hpp:77] Creating layer Mconv4_stage0_L2_1
I0503 12:00:05.087579 21836 net.cpp:86] Creating Layer Mconv4_stage0_L2_1
I0503 12:00:05.087581 21836 net.cpp:408] Mconv4_stage0_L2_1 <- Mconv4_stage0_L2_0_Mprelu4_stage0_L2_0_0_split_0
I0503 12:00:05.087586 21836 net.cpp:382] Mconv4_stage0_L2_1 -> Mconv4_stage0_L2_1
I0503 12:00:05.092583 21836 net.cpp:124] Setting up Mconv4_stage0_L2_1
I0503 12:00:05.092597 21836 net.cpp:131] Top shape: 3 256 60 60 (2764800)
I0503 12:00:05.092598 21836 net.cpp:139] Memory required for data: 3461572800
I0503 12:00:05.092607 21836 layer_factory.hpp:77] Creating layer Mprelu4_stage0_L2_1
I0503 12:00:05.092612 21836 net.cpp:86] Creating Layer Mprelu4_stage0_L2_1
I0503 12:00:05.092614 21836 net.cpp:408] Mprelu4_stage0_L2_1 <- Mconv4_stage0_L2_1
I0503 12:00:05.092619 21836 net.cpp:369] Mprelu4_stage0_L2_1 -> Mconv4_stage0_L2_1 (in-place)
I0503 12:00:05.094238 21836 net.cpp:124] Setting up Mprelu4_stage0_L2_1
I0503 12:00:05.094250 21836 net.cpp:131] Top shape: 3 256 60 60 (2764800)
I0503 12:00:05.094265 21836 net.cpp:139] Memory required for data: 3472632000
I0503 12:00:05.094270 21836 layer_factory.hpp:77] Creating layer Mconv4_stage0_L2_1_Mprelu4_stage0_L2_1_0_split
I0503 12:00:05.094288 21836 net.cpp:86] Creating Layer Mconv4_stage0_L2_1_Mprelu4_stage0_L2_1_0_split
I0503 12:00:05.094302 21836 net.cpp:408] Mconv4_stage0_L2_1_Mprelu4_stage0_L2_1_0_split <- Mconv4_stage0_L2_1
I0503 12:00:05.094307 21836 net.cpp:382] Mconv4_stage0_L2_1_Mprelu4_stage0_L2_1_0_split -> Mconv4_stage0_L2_1_Mprelu4_stage0_L2_1_0_split_0
I0503 12:00:05.094326 21836 net.cpp:382] Mconv4_stage0_L2_1_Mprelu4_stage0_L2_1_0_split -> Mconv4_stage0_L2_1_Mprelu4_stage0_L2_1_0_split_1
I0503 12:00:05.094391 21836 net.cpp:124] Setting up Mconv4_stage0_L2_1_Mprelu4_stage0_L2_1_0_split
I0503 12:00:05.094403 21836 net.cpp:131] Top shape: 3 256 60 60 (2764800)
I0503 12:00:05.094405 21836 net.cpp:131] Top shape: 3 256 60 60 (2764800)
I0503 12:00:05.094408 21836 net.cpp:139] Memory required for data: 3494750400
I0503 12:00:05.094411 21836 layer_factory.hpp:77] Creating layer Mconv4_stage0_L2_2
I0503 12:00:05.094419 21836 net.cpp:86] Creating Layer Mconv4_stage0_L2_2
I0503 12:00:05.094424 21836 net.cpp:408] Mconv4_stage0_L2_2 <- Mconv4_stage0_L2_1_Mprelu4_stage0_L2_1_0_split_0
I0503 12:00:05.094429 21836 net.cpp:382] Mconv4_stage0_L2_2 -> Mconv4_stage0_L2_2
I0503 12:00:05.099520 21836 net.cpp:124] Setting up Mconv4_stage0_L2_2
I0503 12:00:05.099534 21836 net.cpp:131] Top shape: 3 256 60 60 (2764800)
I0503 12:00:05.099536 21836 net.cpp:139] Memory required for data: 3505809600
I0503 12:00:05.099542 21836 layer_factory.hpp:77] Creating layer Mprelu4_stage0_L2_2
I0503 12:00:05.099552 21836 net.cpp:86] Creating Layer Mprelu4_stage0_L2_2
I0503 12:00:05.099556 21836 net.cpp:408] Mprelu4_stage0_L2_2 <- Mconv4_stage0_L2_2
I0503 12:00:05.099561 21836 net.cpp:369] Mprelu4_stage0_L2_2 -> Mconv4_stage0_L2_2 (in-place)
I0503 12:00:05.101186 21836 net.cpp:124] Setting up Mprelu4_stage0_L2_2
I0503 12:00:05.101198 21836 net.cpp:131] Top shape: 3 256 60 60 (2764800)
I0503 12:00:05.101212 21836 net.cpp:139] Memory required for data: 3516868800
I0503 12:00:05.101218 21836 layer_factory.hpp:77] Creating layer Mconv4_stage0_L2_concat
I0503 12:00:05.101235 21836 net.cpp:86] Creating Layer Mconv4_stage0_L2_concat
I0503 12:00:05.101239 21836 net.cpp:408] Mconv4_stage0_L2_concat <- Mconv4_stage0_L2_0_Mprelu4_stage0_L2_0_0_split_1
I0503 12:00:05.101243 21836 net.cpp:408] Mconv4_stage0_L2_concat <- Mconv4_stage0_L2_1_Mprelu4_stage0_L2_1_0_split_1
I0503 12:00:05.101245 21836 net.cpp:408] Mconv4_stage0_L2_concat <- Mconv4_stage0_L2_2
I0503 12:00:05.101249 21836 net.cpp:382] Mconv4_stage0_L2_concat -> Mconv4_stage0_L2_concat
I0503 12:00:05.101308 21836 net.cpp:124] Setting up Mconv4_stage0_L2_concat
I0503 12:00:05.101315 21836 net.cpp:131] Top shape: 3 768 60 60 (8294400)
I0503 12:00:05.101316 21836 net.cpp:139] Memory required for data: 3550046400
I0503 12:00:05.101320 21836 layer_factory.hpp:77] Creating layer Mconv5_stage0_L2_0
I0503 12:00:05.101328 21836 net.cpp:86] Creating Layer Mconv5_stage0_L2_0
I0503 12:00:05.101331 21836 net.cpp:408] Mconv5_stage0_L2_0 <- Mconv4_stage0_L2_concat
I0503 12:00:05.101336 21836 net.cpp:382] Mconv5_stage0_L2_0 -> Mconv5_stage0_L2_0
I0503 12:00:05.114420 21836 net.cpp:124] Setting up Mconv5_stage0_L2_0
I0503 12:00:05.114436 21836 net.cpp:131] Top shape: 3 256 60 60 (2764800)
I0503 12:00:05.114439 21836 net.cpp:139] Memory required for data: 3561105600
I0503 12:00:05.114446 21836 layer_factory.hpp:77] Creating layer Mprelu5_stage0_L2_0
I0503 12:00:05.114452 21836 net.cpp:86] Creating Layer Mprelu5_stage0_L2_0
I0503 12:00:05.114460 21836 net.cpp:408] Mprelu5_stage0_L2_0 <- Mconv5_stage0_L2_0
I0503 12:00:05.114466 21836 net.cpp:369] Mprelu5_stage0_L2_0 -> Mconv5_stage0_L2_0 (in-place)
I0503 12:00:05.116086 21836 net.cpp:124] Setting up Mprelu5_stage0_L2_0
I0503 12:00:05.116099 21836 net.cpp:131] Top shape: 3 256 60 60 (2764800)
I0503 12:00:05.116102 21836 net.cpp:139] Memory required for data: 3572164800
I0503 12:00:05.116107 21836 layer_factory.hpp:77] Creating layer Mconv5_stage0_L2_0_Mprelu5_stage0_L2_0_0_split
I0503 12:00:05.116112 21836 net.cpp:86] Creating Layer Mconv5_stage0_L2_0_Mprelu5_stage0_L2_0_0_split
I0503 12:00:05.116116 21836 net.cpp:408] Mconv5_stage0_L2_0_Mprelu5_stage0_L2_0_0_split <- Mconv5_stage0_L2_0
I0503 12:00:05.116132 21836 net.cpp:382] Mconv5_stage0_L2_0_Mprelu5_stage0_L2_0_0_split -> Mconv5_stage0_L2_0_Mprelu5_stage0_L2_0_0_split_0
I0503 12:00:05.116137 21836 net.cpp:382] Mconv5_stage0_L2_0_Mprelu5_stage0_L2_0_0_split -> Mconv5_stage0_L2_0_Mprelu5_stage0_L2_0_0_split_1
I0503 12:00:05.116214 21836 net.cpp:124] Setting up Mconv5_stage0_L2_0_Mprelu5_stage0_L2_0_0_split
I0503 12:00:05.116219 21836 net.cpp:131] Top shape: 3 256 60 60 (2764800)
I0503 12:00:05.116223 21836 net.cpp:131] Top shape: 3 256 60 60 (2764800)
I0503 12:00:05.116225 21836 net.cpp:139] Memory required for data: 3594283200
I0503 12:00:05.116228 21836 layer_factory.hpp:77] Creating layer Mconv5_stage0_L2_1
I0503 12:00:05.116237 21836 net.cpp:86] Creating Layer Mconv5_stage0_L2_1
I0503 12:00:05.116240 21836 net.cpp:408] Mconv5_stage0_L2_1 <- Mconv5_stage0_L2_0_Mprelu5_stage0_L2_0_0_split_0
I0503 12:00:05.116246 21836 net.cpp:382] Mconv5_stage0_L2_1 -> Mconv5_stage0_L2_1
I0503 12:00:05.121176 21836 net.cpp:124] Setting up Mconv5_stage0_L2_1
I0503 12:00:05.121201 21836 net.cpp:131] Top shape: 3 256 60 60 (2764800)
I0503 12:00:05.121203 21836 net.cpp:139] Memory required for data: 3605342400
I0503 12:00:05.121209 21836 layer_factory.hpp:77] Creating layer Mprelu5_stage0_L2_1
I0503 12:00:05.121215 21836 net.cpp:86] Creating Layer Mprelu5_stage0_L2_1
I0503 12:00:05.121219 21836 net.cpp:408] Mprelu5_stage0_L2_1 <- Mconv5_stage0_L2_1
I0503 12:00:05.121224 21836 net.cpp:369] Mprelu5_stage0_L2_1 -> Mconv5_stage0_L2_1 (in-place)
I0503 12:00:05.122911 21836 net.cpp:124] Setting up Mprelu5_stage0_L2_1
I0503 12:00:05.122923 21836 net.cpp:131] Top shape: 3 256 60 60 (2764800)
I0503 12:00:05.122925 21836 net.cpp:139] Memory required for data: 3616401600
I0503 12:00:05.122931 21836 layer_factory.hpp:77] Creating layer Mconv5_stage0_L2_1_Mprelu5_stage0_L2_1_0_split
I0503 12:00:05.122936 21836 net.cpp:86] Creating Layer Mconv5_stage0_L2_1_Mprelu5_stage0_L2_1_0_split
I0503 12:00:05.122939 21836 net.cpp:408] Mconv5_stage0_L2_1_Mprelu5_stage0_L2_1_0_split <- Mconv5_stage0_L2_1
I0503 12:00:05.122943 21836 net.cpp:382] Mconv5_stage0_L2_1_Mprelu5_stage0_L2_1_0_split -> Mconv5_stage0_L2_1_Mprelu5_stage0_L2_1_0_split_0
I0503 12:00:05.122949 21836 net.cpp:382] Mconv5_stage0_L2_1_Mprelu5_stage0_L2_1_0_split -> Mconv5_stage0_L2_1_Mprelu5_stage0_L2_1_0_split_1
I0503 12:00:05.123013 21836 net.cpp:124] Setting up Mconv5_stage0_L2_1_Mprelu5_stage0_L2_1_0_split
I0503 12:00:05.123018 21836 net.cpp:131] Top shape: 3 256 60 60 (2764800)
I0503 12:00:05.123023 21836 net.cpp:131] Top shape: 3 256 60 60 (2764800)
I0503 12:00:05.123024 21836 net.cpp:139] Memory required for data: 3638520000
I0503 12:00:05.123028 21836 layer_factory.hpp:77] Creating layer Mconv5_stage0_L2_2
I0503 12:00:05.123047 21836 net.cpp:86] Creating Layer Mconv5_stage0_L2_2
I0503 12:00:05.123050 21836 net.cpp:408] Mconv5_stage0_L2_2 <- Mconv5_stage0_L2_1_Mprelu5_stage0_L2_1_0_split_0
I0503 12:00:05.123056 21836 net.cpp:382] Mconv5_stage0_L2_2 -> Mconv5_stage0_L2_2
I0503 12:00:05.128051 21836 net.cpp:124] Setting up Mconv5_stage0_L2_2
I0503 12:00:05.128063 21836 net.cpp:131] Top shape: 3 256 60 60 (2764800)
I0503 12:00:05.128067 21836 net.cpp:139] Memory required for data: 3649579200
I0503 12:00:05.128072 21836 layer_factory.hpp:77] Creating layer Mprelu5_stage0_L2_2
I0503 12:00:05.128079 21836 net.cpp:86] Creating Layer Mprelu5_stage0_L2_2
I0503 12:00:05.128082 21836 net.cpp:408] Mprelu5_stage0_L2_2 <- Mconv5_stage0_L2_2
I0503 12:00:05.128087 21836 net.cpp:369] Mprelu5_stage0_L2_2 -> Mconv5_stage0_L2_2 (in-place)
I0503 12:00:05.129755 21836 net.cpp:124] Setting up Mprelu5_stage0_L2_2
I0503 12:00:05.129766 21836 net.cpp:131] Top shape: 3 256 60 60 (2764800)
I0503 12:00:05.129768 21836 net.cpp:139] Memory required for data: 3660638400
I0503 12:00:05.129772 21836 layer_factory.hpp:77] Creating layer Mconv5_stage0_L2_concat
I0503 12:00:05.129778 21836 net.cpp:86] Creating Layer Mconv5_stage0_L2_concat
I0503 12:00:05.129781 21836 net.cpp:408] Mconv5_stage0_L2_concat <- Mconv5_stage0_L2_0_Mprelu5_stage0_L2_0_0_split_1
I0503 12:00:05.129796 21836 net.cpp:408] Mconv5_stage0_L2_concat <- Mconv5_stage0_L2_1_Mprelu5_stage0_L2_1_0_split_1
I0503 12:00:05.129799 21836 net.cpp:408] Mconv5_stage0_L2_concat <- Mconv5_stage0_L2_2
I0503 12:00:05.129804 21836 net.cpp:382] Mconv5_stage0_L2_concat -> Mconv5_stage0_L2_concat
I0503 12:00:05.129853 21836 net.cpp:124] Setting up Mconv5_stage0_L2_concat
I0503 12:00:05.129870 21836 net.cpp:131] Top shape: 3 768 60 60 (8294400)
I0503 12:00:05.129873 21836 net.cpp:139] Memory required for data: 3693816000
I0503 12:00:05.129875 21836 layer_factory.hpp:77] Creating layer Mconv6_stage0_L2_0
I0503 12:00:05.129889 21836 net.cpp:86] Creating Layer Mconv6_stage0_L2_0
I0503 12:00:05.129892 21836 net.cpp:408] Mconv6_stage0_L2_0 <- Mconv5_stage0_L2_concat
I0503 12:00:05.129897 21836 net.cpp:382] Mconv6_stage0_L2_0 -> Mconv6_stage0_L2_0
I0503 12:00:05.141747 21836 net.cpp:124] Setting up Mconv6_stage0_L2_0
I0503 12:00:05.141760 21836 net.cpp:131] Top shape: 3 256 60 60 (2764800)
I0503 12:00:05.141763 21836 net.cpp:139] Memory required for data: 3704875200
I0503 12:00:05.141769 21836 layer_factory.hpp:77] Creating layer Mprelu6_stage0_L2_0
I0503 12:00:05.141774 21836 net.cpp:86] Creating Layer Mprelu6_stage0_L2_0
I0503 12:00:05.141777 21836 net.cpp:408] Mprelu6_stage0_L2_0 <- Mconv6_stage0_L2_0
I0503 12:00:05.141783 21836 net.cpp:369] Mprelu6_stage0_L2_0 -> Mconv6_stage0_L2_0 (in-place)
I0503 12:00:05.143442 21836 net.cpp:124] Setting up Mprelu6_stage0_L2_0
I0503 12:00:05.143455 21836 net.cpp:131] Top shape: 3 256 60 60 (2764800)
I0503 12:00:05.143457 21836 net.cpp:139] Memory required for data: 3715934400
I0503 12:00:05.143474 21836 layer_factory.hpp:77] Creating layer Mconv6_stage0_L2_0_Mprelu6_stage0_L2_0_0_split
I0503 12:00:05.143481 21836 net.cpp:86] Creating Layer Mconv6_stage0_L2_0_Mprelu6_stage0_L2_0_0_split
I0503 12:00:05.143484 21836 net.cpp:408] Mconv6_stage0_L2_0_Mprelu6_stage0_L2_0_0_split <- Mconv6_stage0_L2_0
I0503 12:00:05.143488 21836 net.cpp:382] Mconv6_stage0_L2_0_Mprelu6_stage0_L2_0_0_split -> Mconv6_stage0_L2_0_Mprelu6_stage0_L2_0_0_split_0
I0503 12:00:05.143494 21836 net.cpp:382] Mconv6_stage0_L2_0_Mprelu6_stage0_L2_0_0_split -> Mconv6_stage0_L2_0_Mprelu6_stage0_L2_0_0_split_1
I0503 12:00:05.143571 21836 net.cpp:124] Setting up Mconv6_stage0_L2_0_Mprelu6_stage0_L2_0_0_split
I0503 12:00:05.143587 21836 net.cpp:131] Top shape: 3 256 60 60 (2764800)
I0503 12:00:05.143590 21836 net.cpp:131] Top shape: 3 256 60 60 (2764800)
I0503 12:00:05.143592 21836 net.cpp:139] Memory required for data: 3738052800
I0503 12:00:05.143595 21836 layer_factory.hpp:77] Creating layer Mconv6_stage0_L2_1
I0503 12:00:05.143604 21836 net.cpp:86] Creating Layer Mconv6_stage0_L2_1
I0503 12:00:05.143606 21836 net.cpp:408] Mconv6_stage0_L2_1 <- Mconv6_stage0_L2_0_Mprelu6_stage0_L2_0_0_split_0
I0503 12:00:05.143612 21836 net.cpp:382] Mconv6_stage0_L2_1 -> Mconv6_stage0_L2_1
I0503 12:00:05.148456 21836 net.cpp:124] Setting up Mconv6_stage0_L2_1
I0503 12:00:05.148470 21836 net.cpp:131] Top shape: 3 256 60 60 (2764800)
I0503 12:00:05.148473 21836 net.cpp:139] Memory required for data: 3749112000
I0503 12:00:05.148479 21836 layer_factory.hpp:77] Creating layer Mprelu6_stage0_L2_1
I0503 12:00:05.148486 21836 net.cpp:86] Creating Layer Mprelu6_stage0_L2_1
I0503 12:00:05.148489 21836 net.cpp:408] Mprelu6_stage0_L2_1 <- Mconv6_stage0_L2_1
I0503 12:00:05.148494 21836 net.cpp:369] Mprelu6_stage0_L2_1 -> Mconv6_stage0_L2_1 (in-place)
I0503 12:00:05.150149 21836 net.cpp:124] Setting up Mprelu6_stage0_L2_1
I0503 12:00:05.150161 21836 net.cpp:131] Top shape: 3 256 60 60 (2764800)
I0503 12:00:05.150164 21836 net.cpp:139] Memory required for data: 3760171200
I0503 12:00:05.150169 21836 layer_factory.hpp:77] Creating layer Mconv6_stage0_L2_1_Mprelu6_stage0_L2_1_0_split
I0503 12:00:05.150174 21836 net.cpp:86] Creating Layer Mconv6_stage0_L2_1_Mprelu6_stage0_L2_1_0_split
I0503 12:00:05.150177 21836 net.cpp:408] Mconv6_stage0_L2_1_Mprelu6_stage0_L2_1_0_split <- Mconv6_stage0_L2_1
I0503 12:00:05.150182 21836 net.cpp:382] Mconv6_stage0_L2_1_Mprelu6_stage0_L2_1_0_split -> Mconv6_stage0_L2_1_Mprelu6_stage0_L2_1_0_split_0
I0503 12:00:05.150215 21836 net.cpp:382] Mconv6_stage0_L2_1_Mprelu6_stage0_L2_1_0_split -> Mconv6_stage0_L2_1_Mprelu6_stage0_L2_1_0_split_1
I0503 12:00:05.150297 21836 net.cpp:124] Setting up Mconv6_stage0_L2_1_Mprelu6_stage0_L2_1_0_split
I0503 12:00:05.150307 21836 net.cpp:131] Top shape: 3 256 60 60 (2764800)
I0503 12:00:05.150311 21836 net.cpp:131] Top shape: 3 256 60 60 (2764800)
I0503 12:00:05.150313 21836 net.cpp:139] Memory required for data: 3782289600
I0503 12:00:05.150316 21836 layer_factory.hpp:77] Creating layer Mconv6_stage0_L2_2
I0503 12:00:05.150326 21836 net.cpp:86] Creating Layer Mconv6_stage0_L2_2
I0503 12:00:05.150329 21836 net.cpp:408] Mconv6_stage0_L2_2 <- Mconv6_stage0_L2_1_Mprelu6_stage0_L2_1_0_split_0
I0503 12:00:05.150336 21836 net.cpp:382] Mconv6_stage0_L2_2 -> Mconv6_stage0_L2_2
I0503 12:00:05.156700 21836 net.cpp:124] Setting up Mconv6_stage0_L2_2
I0503 12:00:05.156715 21836 net.cpp:131] Top shape: 3 256 60 60 (2764800)
I0503 12:00:05.156718 21836 net.cpp:139] Memory required for data: 3793348800
I0503 12:00:05.156724 21836 layer_factory.hpp:77] Creating layer Mprelu6_stage0_L2_2
I0503 12:00:05.156730 21836 net.cpp:86] Creating Layer Mprelu6_stage0_L2_2
I0503 12:00:05.156733 21836 net.cpp:408] Mprelu6_stage0_L2_2 <- Mconv6_stage0_L2_2
I0503 12:00:05.156738 21836 net.cpp:369] Mprelu6_stage0_L2_2 -> Mconv6_stage0_L2_2 (in-place)
I0503 12:00:05.158454 21836 net.cpp:124] Setting up Mprelu6_stage0_L2_2
I0503 12:00:05.158478 21836 net.cpp:131] Top shape: 3 256 60 60 (2764800)
I0503 12:00:05.158480 21836 net.cpp:139] Memory required for data: 3804408000
I0503 12:00:05.158485 21836 layer_factory.hpp:77] Creating layer Mconv6_stage0_L2_concat
I0503 12:00:05.158491 21836 net.cpp:86] Creating Layer Mconv6_stage0_L2_concat
I0503 12:00:05.158494 21836 net.cpp:408] Mconv6_stage0_L2_concat <- Mconv6_stage0_L2_0_Mprelu6_stage0_L2_0_0_split_1
I0503 12:00:05.158499 21836 net.cpp:408] Mconv6_stage0_L2_concat <- Mconv6_stage0_L2_1_Mprelu6_stage0_L2_1_0_split_1
I0503 12:00:05.158502 21836 net.cpp:408] Mconv6_stage0_L2_concat <- Mconv6_stage0_L2_2
I0503 12:00:05.158507 21836 net.cpp:382] Mconv6_stage0_L2_concat -> Mconv6_stage0_L2_concat
I0503 12:00:05.158577 21836 net.cpp:124] Setting up Mconv6_stage0_L2_concat
I0503 12:00:05.158583 21836 net.cpp:131] Top shape: 3 768 60 60 (8294400)
I0503 12:00:05.158586 21836 net.cpp:139] Memory required for data: 3837585600
I0503 12:00:05.158588 21836 layer_factory.hpp:77] Creating layer Mconv7_stage0_L2_0
I0503 12:00:05.158599 21836 net.cpp:86] Creating Layer Mconv7_stage0_L2_0
I0503 12:00:05.158602 21836 net.cpp:408] Mconv7_stage0_L2_0 <- Mconv6_stage0_L2_concat
I0503 12:00:05.158608 21836 net.cpp:382] Mconv7_stage0_L2_0 -> Mconv7_stage0_L2_0
I0503 12:00:05.170578 21836 net.cpp:124] Setting up Mconv7_stage0_L2_0
I0503 12:00:05.170590 21836 net.cpp:131] Top shape: 3 256 60 60 (2764800)
I0503 12:00:05.170593 21836 net.cpp:139] Memory required for data: 3848644800
I0503 12:00:05.170598 21836 layer_factory.hpp:77] Creating layer Mprelu7_stage0_L2_0
I0503 12:00:05.170604 21836 net.cpp:86] Creating Layer Mprelu7_stage0_L2_0
I0503 12:00:05.170608 21836 net.cpp:408] Mprelu7_stage0_L2_0 <- Mconv7_stage0_L2_0
I0503 12:00:05.170615 21836 net.cpp:369] Mprelu7_stage0_L2_0 -> Mconv7_stage0_L2_0 (in-place)
I0503 12:00:05.172297 21836 net.cpp:124] Setting up Mprelu7_stage0_L2_0
I0503 12:00:05.172308 21836 net.cpp:131] Top shape: 3 256 60 60 (2764800)
I0503 12:00:05.172312 21836 net.cpp:139] Memory required for data: 3859704000
I0503 12:00:05.172317 21836 layer_factory.hpp:77] Creating layer Mconv7_stage0_L2_0_Mprelu7_stage0_L2_0_0_split
I0503 12:00:05.172322 21836 net.cpp:86] Creating Layer Mconv7_stage0_L2_0_Mprelu7_stage0_L2_0_0_split
I0503 12:00:05.172325 21836 net.cpp:408] Mconv7_stage0_L2_0_Mprelu7_stage0_L2_0_0_split <- Mconv7_stage0_L2_0
I0503 12:00:05.172330 21836 net.cpp:382] Mconv7_stage0_L2_0_Mprelu7_stage0_L2_0_0_split -> Mconv7_stage0_L2_0_Mprelu7_stage0_L2_0_0_split_0
I0503 12:00:05.172335 21836 net.cpp:382] Mconv7_stage0_L2_0_Mprelu7_stage0_L2_0_0_split -> Mconv7_stage0_L2_0_Mprelu7_stage0_L2_0_0_split_1
I0503 12:00:05.172415 21836 net.cpp:124] Setting up Mconv7_stage0_L2_0_Mprelu7_stage0_L2_0_0_split
I0503 12:00:05.172420 21836 net.cpp:131] Top shape: 3 256 60 60 (2764800)
I0503 12:00:05.172435 21836 net.cpp:131] Top shape: 3 256 60 60 (2764800)
I0503 12:00:05.172437 21836 net.cpp:139] Memory required for data: 3881822400
I0503 12:00:05.172439 21836 layer_factory.hpp:77] Creating layer Mconv7_stage0_L2_1
I0503 12:00:05.172449 21836 net.cpp:86] Creating Layer Mconv7_stage0_L2_1
I0503 12:00:05.172452 21836 net.cpp:408] Mconv7_stage0_L2_1 <- Mconv7_stage0_L2_0_Mprelu7_stage0_L2_0_0_split_0
I0503 12:00:05.172458 21836 net.cpp:382] Mconv7_stage0_L2_1 -> Mconv7_stage0_L2_1
I0503 12:00:05.177440 21836 net.cpp:124] Setting up Mconv7_stage0_L2_1
I0503 12:00:05.177453 21836 net.cpp:131] Top shape: 3 256 60 60 (2764800)
I0503 12:00:05.177456 21836 net.cpp:139] Memory required for data: 3892881600
I0503 12:00:05.177462 21836 layer_factory.hpp:77] Creating layer Mprelu7_stage0_L2_1
I0503 12:00:05.177469 21836 net.cpp:86] Creating Layer Mprelu7_stage0_L2_1
I0503 12:00:05.177472 21836 net.cpp:408] Mprelu7_stage0_L2_1 <- Mconv7_stage0_L2_1
I0503 12:00:05.177476 21836 net.cpp:369] Mprelu7_stage0_L2_1 -> Mconv7_stage0_L2_1 (in-place)
I0503 12:00:05.179190 21836 net.cpp:124] Setting up Mprelu7_stage0_L2_1
I0503 12:00:05.179204 21836 net.cpp:131] Top shape: 3 256 60 60 (2764800)
I0503 12:00:05.179208 21836 net.cpp:139] Memory required for data: 3903940800
I0503 12:00:05.179211 21836 layer_factory.hpp:77] Creating layer Mconv7_stage0_L2_1_Mprelu7_stage0_L2_1_0_split
I0503 12:00:05.179216 21836 net.cpp:86] Creating Layer Mconv7_stage0_L2_1_Mprelu7_stage0_L2_1_0_split
I0503 12:00:05.179219 21836 net.cpp:408] Mconv7_stage0_L2_1_Mprelu7_stage0_L2_1_0_split <- Mconv7_stage0_L2_1
I0503 12:00:05.179224 21836 net.cpp:382] Mconv7_stage0_L2_1_Mprelu7_stage0_L2_1_0_split -> Mconv7_stage0_L2_1_Mprelu7_stage0_L2_1_0_split_0
I0503 12:00:05.179230 21836 net.cpp:382] Mconv7_stage0_L2_1_Mprelu7_stage0_L2_1_0_split -> Mconv7_stage0_L2_1_Mprelu7_stage0_L2_1_0_split_1
I0503 12:00:05.179298 21836 net.cpp:124] Setting up Mconv7_stage0_L2_1_Mprelu7_stage0_L2_1_0_split
I0503 12:00:05.179303 21836 net.cpp:131] Top shape: 3 256 60 60 (2764800)
I0503 12:00:05.179306 21836 net.cpp:131] Top shape: 3 256 60 60 (2764800)
I0503 12:00:05.179309 21836 net.cpp:139] Memory required for data: 3926059200
I0503 12:00:05.179322 21836 layer_factory.hpp:77] Creating layer Mconv7_stage0_L2_2
I0503 12:00:05.179332 21836 net.cpp:86] Creating Layer Mconv7_stage0_L2_2
I0503 12:00:05.179335 21836 net.cpp:408] Mconv7_stage0_L2_2 <- Mconv7_stage0_L2_1_Mprelu7_stage0_L2_1_0_split_0
I0503 12:00:05.179340 21836 net.cpp:382] Mconv7_stage0_L2_2 -> Mconv7_stage0_L2_2
I0503 12:00:05.184422 21836 net.cpp:124] Setting up Mconv7_stage0_L2_2
I0503 12:00:05.184435 21836 net.cpp:131] Top shape: 3 256 60 60 (2764800)
I0503 12:00:05.184438 21836 net.cpp:139] Memory required for data: 3937118400
I0503 12:00:05.184445 21836 layer_factory.hpp:77] Creating layer Mprelu7_stage0_L2_2
I0503 12:00:05.184451 21836 net.cpp:86] Creating Layer Mprelu7_stage0_L2_2
I0503 12:00:05.184454 21836 net.cpp:408] Mprelu7_stage0_L2_2 <- Mconv7_stage0_L2_2
I0503 12:00:05.184460 21836 net.cpp:369] Mprelu7_stage0_L2_2 -> Mconv7_stage0_L2_2 (in-place)
I0503 12:00:05.186123 21836 net.cpp:124] Setting up Mprelu7_stage0_L2_2
I0503 12:00:05.186136 21836 net.cpp:131] Top shape: 3 256 60 60 (2764800)
I0503 12:00:05.186138 21836 net.cpp:139] Memory required for data: 3948177600
I0503 12:00:05.186142 21836 layer_factory.hpp:77] Creating layer Mconv7_stage0_L2_concat
I0503 12:00:05.186149 21836 net.cpp:86] Creating Layer Mconv7_stage0_L2_concat
I0503 12:00:05.186153 21836 net.cpp:408] Mconv7_stage0_L2_concat <- Mconv7_stage0_L2_0_Mprelu7_stage0_L2_0_0_split_1
I0503 12:00:05.186157 21836 net.cpp:408] Mconv7_stage0_L2_concat <- Mconv7_stage0_L2_1_Mprelu7_stage0_L2_1_0_split_1
I0503 12:00:05.186161 21836 net.cpp:408] Mconv7_stage0_L2_concat <- Mconv7_stage0_L2_2
I0503 12:00:05.186173 21836 net.cpp:382] Mconv7_stage0_L2_concat -> Mconv7_stage0_L2_concat
I0503 12:00:05.186242 21836 net.cpp:124] Setting up Mconv7_stage0_L2_concat
I0503 12:00:05.186249 21836 net.cpp:131] Top shape: 3 768 60 60 (8294400)
I0503 12:00:05.186250 21836 net.cpp:139] Memory required for data: 3981355200
I0503 12:00:05.186254 21836 layer_factory.hpp:77] Creating layer Mconv8_stage0_L2_0
I0503 12:00:05.186262 21836 net.cpp:86] Creating Layer Mconv8_stage0_L2_0
I0503 12:00:05.186265 21836 net.cpp:408] Mconv8_stage0_L2_0 <- Mconv7_stage0_L2_concat
I0503 12:00:05.186282 21836 net.cpp:382] Mconv8_stage0_L2_0 -> Mconv8_stage0_L2_0
I0503 12:00:05.199502 21836 net.cpp:124] Setting up Mconv8_stage0_L2_0
I0503 12:00:05.199517 21836 net.cpp:131] Top shape: 3 256 60 60 (2764800)
I0503 12:00:05.199519 21836 net.cpp:139] Memory required for data: 3992414400
I0503 12:00:05.199525 21836 layer_factory.hpp:77] Creating layer Mprelu8_stage0_L2_0
I0503 12:00:05.199532 21836 net.cpp:86] Creating Layer Mprelu8_stage0_L2_0
I0503 12:00:05.199537 21836 net.cpp:408] Mprelu8_stage0_L2_0 <- Mconv8_stage0_L2_0
I0503 12:00:05.199540 21836 net.cpp:369] Mprelu8_stage0_L2_0 -> Mconv8_stage0_L2_0 (in-place)
I0503 12:00:05.201220 21836 net.cpp:124] Setting up Mprelu8_stage0_L2_0
I0503 12:00:05.201232 21836 net.cpp:131] Top shape: 3 256 60 60 (2764800)
I0503 12:00:05.201236 21836 net.cpp:139] Memory required for data: 4003473600
I0503 12:00:05.201239 21836 layer_factory.hpp:77] Creating layer Mconv8_stage0_L2_0_Mprelu8_stage0_L2_0_0_split
I0503 12:00:05.201244 21836 net.cpp:86] Creating Layer Mconv8_stage0_L2_0_Mprelu8_stage0_L2_0_0_split
I0503 12:00:05.201249 21836 net.cpp:408] Mconv8_stage0_L2_0_Mprelu8_stage0_L2_0_0_split <- Mconv8_stage0_L2_0
I0503 12:00:05.201253 21836 net.cpp:382] Mconv8_stage0_L2_0_Mprelu8_stage0_L2_0_0_split -> Mconv8_stage0_L2_0_Mprelu8_stage0_L2_0_0_split_0
I0503 12:00:05.201259 21836 net.cpp:382] Mconv8_stage0_L2_0_Mprelu8_stage0_L2_0_0_split -> Mconv8_stage0_L2_0_Mprelu8_stage0_L2_0_0_split_1
I0503 12:00:05.201326 21836 net.cpp:124] Setting up Mconv8_stage0_L2_0_Mprelu8_stage0_L2_0_0_split
I0503 12:00:05.201333 21836 net.cpp:131] Top shape: 3 256 60 60 (2764800)
I0503 12:00:05.201335 21836 net.cpp:131] Top shape: 3 256 60 60 (2764800)
I0503 12:00:05.201337 21836 net.cpp:139] Memory required for data: 4025592000
I0503 12:00:05.201351 21836 layer_factory.hpp:77] Creating layer Mconv8_stage0_L2_1
I0503 12:00:05.201360 21836 net.cpp:86] Creating Layer Mconv8_stage0_L2_1
I0503 12:00:05.201364 21836 net.cpp:408] Mconv8_stage0_L2_1 <- Mconv8_stage0_L2_0_Mprelu8_stage0_L2_0_0_split_0
I0503 12:00:05.201370 21836 net.cpp:382] Mconv8_stage0_L2_1 -> Mconv8_stage0_L2_1
I0503 12:00:05.206207 21836 net.cpp:124] Setting up Mconv8_stage0_L2_1
I0503 12:00:05.206229 21836 net.cpp:131] Top shape: 3 256 60 60 (2764800)
I0503 12:00:05.206233 21836 net.cpp:139] Memory required for data: 4036651200
I0503 12:00:05.206239 21836 layer_factory.hpp:77] Creating layer Mprelu8_stage0_L2_1
I0503 12:00:05.206246 21836 net.cpp:86] Creating Layer Mprelu8_stage0_L2_1
I0503 12:00:05.206250 21836 net.cpp:408] Mprelu8_stage0_L2_1 <- Mconv8_stage0_L2_1
I0503 12:00:05.206266 21836 net.cpp:369] Mprelu8_stage0_L2_1 -> Mconv8_stage0_L2_1 (in-place)
I0503 12:00:05.207944 21836 net.cpp:124] Setting up Mprelu8_stage0_L2_1
I0503 12:00:05.207957 21836 net.cpp:131] Top shape: 3 256 60 60 (2764800)
I0503 12:00:05.207960 21836 net.cpp:139] Memory required for data: 4047710400
I0503 12:00:05.207965 21836 layer_factory.hpp:77] Creating layer Mconv8_stage0_L2_1_Mprelu8_stage0_L2_1_0_split
I0503 12:00:05.207969 21836 net.cpp:86] Creating Layer Mconv8_stage0_L2_1_Mprelu8_stage0_L2_1_0_split
I0503 12:00:05.207973 21836 net.cpp:408] Mconv8_stage0_L2_1_Mprelu8_stage0_L2_1_0_split <- Mconv8_stage0_L2_1
I0503 12:00:05.207978 21836 net.cpp:382] Mconv8_stage0_L2_1_Mprelu8_stage0_L2_1_0_split -> Mconv8_stage0_L2_1_Mprelu8_stage0_L2_1_0_split_0
I0503 12:00:05.207983 21836 net.cpp:382] Mconv8_stage0_L2_1_Mprelu8_stage0_L2_1_0_split -> Mconv8_stage0_L2_1_Mprelu8_stage0_L2_1_0_split_1
I0503 12:00:05.208075 21836 net.cpp:124] Setting up Mconv8_stage0_L2_1_Mprelu8_stage0_L2_1_0_split
I0503 12:00:05.208079 21836 net.cpp:131] Top shape: 3 256 60 60 (2764800)
I0503 12:00:05.208083 21836 net.cpp:131] Top shape: 3 256 60 60 (2764800)
I0503 12:00:05.208086 21836 net.cpp:139] Memory required for data: 4069828800
I0503 12:00:05.208088 21836 layer_factory.hpp:77] Creating layer Mconv8_stage0_L2_2
I0503 12:00:05.208097 21836 net.cpp:86] Creating Layer Mconv8_stage0_L2_2
I0503 12:00:05.208101 21836 net.cpp:408] Mconv8_stage0_L2_2 <- Mconv8_stage0_L2_1_Mprelu8_stage0_L2_1_0_split_0
I0503 12:00:05.208106 21836 net.cpp:382] Mconv8_stage0_L2_2 -> Mconv8_stage0_L2_2
I0503 12:00:05.213193 21836 net.cpp:124] Setting up Mconv8_stage0_L2_2
I0503 12:00:05.213207 21836 net.cpp:131] Top shape: 3 256 60 60 (2764800)
I0503 12:00:05.213209 21836 net.cpp:139] Memory required for data: 4080888000
I0503 12:00:05.213215 21836 layer_factory.hpp:77] Creating layer Mprelu8_stage0_L2_2
I0503 12:00:05.213222 21836 net.cpp:86] Creating Layer Mprelu8_stage0_L2_2
I0503 12:00:05.213225 21836 net.cpp:408] Mprelu8_stage0_L2_2 <- Mconv8_stage0_L2_2
I0503 12:00:05.213230 21836 net.cpp:369] Mprelu8_stage0_L2_2 -> Mconv8_stage0_L2_2 (in-place)
I0503 12:00:05.214938 21836 net.cpp:124] Setting up Mprelu8_stage0_L2_2
I0503 12:00:05.214951 21836 net.cpp:131] Top shape: 3 256 60 60 (2764800)
I0503 12:00:05.214953 21836 net.cpp:139] Memory required for data: 4091947200
I0503 12:00:05.214957 21836 layer_factory.hpp:77] Creating layer Mconv8_stage0_L2_concat
I0503 12:00:05.214964 21836 net.cpp:86] Creating Layer Mconv8_stage0_L2_concat
I0503 12:00:05.214967 21836 net.cpp:408] Mconv8_stage0_L2_concat <- Mconv8_stage0_L2_0_Mprelu8_stage0_L2_0_0_split_1
I0503 12:00:05.214972 21836 net.cpp:408] Mconv8_stage0_L2_concat <- Mconv8_stage0_L2_1_Mprelu8_stage0_L2_1_0_split_1
I0503 12:00:05.214975 21836 net.cpp:408] Mconv8_stage0_L2_concat <- Mconv8_stage0_L2_2
I0503 12:00:05.214979 21836 net.cpp:382] Mconv8_stage0_L2_concat -> Mconv8_stage0_L2_concat
I0503 12:00:05.215030 21836 net.cpp:124] Setting up Mconv8_stage0_L2_concat
I0503 12:00:05.215035 21836 net.cpp:131] Top shape: 3 768 60 60 (8294400)
I0503 12:00:05.215037 21836 net.cpp:139] Memory required for data: 4125124800
I0503 12:00:05.215040 21836 layer_factory.hpp:77] Creating layer Mconv9_stage0_L2_0
I0503 12:00:05.215050 21836 net.cpp:86] Creating Layer Mconv9_stage0_L2_0
I0503 12:00:05.215054 21836 net.cpp:408] Mconv9_stage0_L2_0 <- Mconv8_stage0_L2_concat
I0503 12:00:05.215070 21836 net.cpp:382] Mconv9_stage0_L2_0 -> Mconv9_stage0_L2_0
I0503 12:00:05.227035 21836 net.cpp:124] Setting up Mconv9_stage0_L2_0
I0503 12:00:05.227047 21836 net.cpp:131] Top shape: 3 256 60 60 (2764800)
I0503 12:00:05.227051 21836 net.cpp:139] Memory required for data: 4136184000
I0503 12:00:05.227056 21836 layer_factory.hpp:77] Creating layer Mprelu9_stage0_L2_0
I0503 12:00:05.227062 21836 net.cpp:86] Creating Layer Mprelu9_stage0_L2_0
I0503 12:00:05.227066 21836 net.cpp:408] Mprelu9_stage0_L2_0 <- Mconv9_stage0_L2_0
I0503 12:00:05.227072 21836 net.cpp:369] Mprelu9_stage0_L2_0 -> Mconv9_stage0_L2_0 (in-place)
I0503 12:00:05.228766 21836 net.cpp:124] Setting up Mprelu9_stage0_L2_0
I0503 12:00:05.228780 21836 net.cpp:131] Top shape: 3 256 60 60 (2764800)
I0503 12:00:05.228782 21836 net.cpp:139] Memory required for data: 4147243200
I0503 12:00:05.228786 21836 layer_factory.hpp:77] Creating layer Mconv9_stage0_L2_0_Mprelu9_stage0_L2_0_0_split
I0503 12:00:05.228791 21836 net.cpp:86] Creating Layer Mconv9_stage0_L2_0_Mprelu9_stage0_L2_0_0_split
I0503 12:00:05.228794 21836 net.cpp:408] Mconv9_stage0_L2_0_Mprelu9_stage0_L2_0_0_split <- Mconv9_stage0_L2_0
I0503 12:00:05.228798 21836 net.cpp:382] Mconv9_stage0_L2_0_Mprelu9_stage0_L2_0_0_split -> Mconv9_stage0_L2_0_Mprelu9_stage0_L2_0_0_split_0
I0503 12:00:05.228803 21836 net.cpp:382] Mconv9_stage0_L2_0_Mprelu9_stage0_L2_0_0_split -> Mconv9_stage0_L2_0_Mprelu9_stage0_L2_0_0_split_1
I0503 12:00:05.228874 21836 net.cpp:124] Setting up Mconv9_stage0_L2_0_Mprelu9_stage0_L2_0_0_split
I0503 12:00:05.228910 21836 net.cpp:131] Top shape: 3 256 60 60 (2764800)
I0503 12:00:05.228914 21836 net.cpp:131] Top shape: 3 256 60 60 (2764800)
I0503 12:00:05.228917 21836 net.cpp:139] Memory required for data: 4169361600
I0503 12:00:05.228919 21836 layer_factory.hpp:77] Creating layer Mconv9_stage0_L2_1
I0503 12:00:05.228929 21836 net.cpp:86] Creating Layer Mconv9_stage0_L2_1
I0503 12:00:05.228933 21836 net.cpp:408] Mconv9_stage0_L2_1 <- Mconv9_stage0_L2_0_Mprelu9_stage0_L2_0_0_split_0
I0503 12:00:05.228940 21836 net.cpp:382] Mconv9_stage0_L2_1 -> Mconv9_stage0_L2_1
I0503 12:00:05.234017 21836 net.cpp:124] Setting up Mconv9_stage0_L2_1
I0503 12:00:05.234030 21836 net.cpp:131] Top shape: 3 256 60 60 (2764800)
I0503 12:00:05.234033 21836 net.cpp:139] Memory required for data: 4180420800
I0503 12:00:05.234038 21836 layer_factory.hpp:77] Creating layer Mprelu9_stage0_L2_1
I0503 12:00:05.234046 21836 net.cpp:86] Creating Layer Mprelu9_stage0_L2_1
I0503 12:00:05.234050 21836 net.cpp:408] Mprelu9_stage0_L2_1 <- Mconv9_stage0_L2_1
I0503 12:00:05.234053 21836 net.cpp:369] Mprelu9_stage0_L2_1 -> Mconv9_stage0_L2_1 (in-place)
I0503 12:00:05.235735 21836 net.cpp:124] Setting up Mprelu9_stage0_L2_1
I0503 12:00:05.235747 21836 net.cpp:131] Top shape: 3 256 60 60 (2764800)
I0503 12:00:05.235750 21836 net.cpp:139] Memory required for data: 4191480000
I0503 12:00:05.235754 21836 layer_factory.hpp:77] Creating layer Mconv9_stage0_L2_1_Mprelu9_stage0_L2_1_0_split
I0503 12:00:05.235761 21836 net.cpp:86] Creating Layer Mconv9_stage0_L2_1_Mprelu9_stage0_L2_1_0_split
I0503 12:00:05.235764 21836 net.cpp:408] Mconv9_stage0_L2_1_Mprelu9_stage0_L2_1_0_split <- Mconv9_stage0_L2_1
I0503 12:00:05.235769 21836 net.cpp:382] Mconv9_stage0_L2_1_Mprelu9_stage0_L2_1_0_split -> Mconv9_stage0_L2_1_Mprelu9_stage0_L2_1_0_split_0
I0503 12:00:05.235775 21836 net.cpp:382] Mconv9_stage0_L2_1_Mprelu9_stage0_L2_1_0_split -> Mconv9_stage0_L2_1_Mprelu9_stage0_L2_1_0_split_1
I0503 12:00:05.235844 21836 net.cpp:124] Setting up Mconv9_stage0_L2_1_Mprelu9_stage0_L2_1_0_split
I0503 12:00:05.235849 21836 net.cpp:131] Top shape: 3 256 60 60 (2764800)
I0503 12:00:05.235852 21836 net.cpp:131] Top shape: 3 256 60 60 (2764800)
I0503 12:00:05.235867 21836 net.cpp:139] Memory required for data: 4213598400
I0503 12:00:05.235869 21836 layer_factory.hpp:77] Creating layer Mconv9_stage0_L2_2
I0503 12:00:05.235878 21836 net.cpp:86] Creating Layer Mconv9_stage0_L2_2
I0503 12:00:05.235882 21836 net.cpp:408] Mconv9_stage0_L2_2 <- Mconv9_stage0_L2_1_Mprelu9_stage0_L2_1_0_split_0
I0503 12:00:05.235890 21836 net.cpp:382] Mconv9_stage0_L2_2 -> Mconv9_stage0_L2_2
I0503 12:00:05.242343 21836 net.cpp:124] Setting up Mconv9_stage0_L2_2
I0503 12:00:05.242368 21836 net.cpp:131] Top shape: 3 256 60 60 (2764800)
I0503 12:00:05.242372 21836 net.cpp:139] Memory required for data: 4224657600
I0503 12:00:05.242378 21836 layer_factory.hpp:77] Creating layer Mprelu9_stage0_L2_2
I0503 12:00:05.242384 21836 net.cpp:86] Creating Layer Mprelu9_stage0_L2_2
I0503 12:00:05.242388 21836 net.cpp:408] Mprelu9_stage0_L2_2 <- Mconv9_stage0_L2_2
I0503 12:00:05.242394 21836 net.cpp:369] Mprelu9_stage0_L2_2 -> Mconv9_stage0_L2_2 (in-place)
I0503 12:00:05.244076 21836 net.cpp:124] Setting up Mprelu9_stage0_L2_2
I0503 12:00:05.244088 21836 net.cpp:131] Top shape: 3 256 60 60 (2764800)
I0503 12:00:05.244091 21836 net.cpp:139] Memory required for data: 4235716800
I0503 12:00:05.244096 21836 layer_factory.hpp:77] Creating layer Mconv9_stage0_L2_concat
I0503 12:00:05.244102 21836 net.cpp:86] Creating Layer Mconv9_stage0_L2_concat
I0503 12:00:05.244107 21836 net.cpp:408] Mconv9_stage0_L2_concat <- Mconv9_stage0_L2_0_Mprelu9_stage0_L2_0_0_split_1
I0503 12:00:05.244109 21836 net.cpp:408] Mconv9_stage0_L2_concat <- Mconv9_stage0_L2_1_Mprelu9_stage0_L2_1_0_split_1
I0503 12:00:05.244113 21836 net.cpp:408] Mconv9_stage0_L2_concat <- Mconv9_stage0_L2_2
I0503 12:00:05.244118 21836 net.cpp:382] Mconv9_stage0_L2_concat -> Mconv9_stage0_L2_concat
I0503 12:00:05.244170 21836 net.cpp:124] Setting up Mconv9_stage0_L2_concat
I0503 12:00:05.244185 21836 net.cpp:131] Top shape: 3 768 60 60 (8294400)
I0503 12:00:05.244189 21836 net.cpp:139] Memory required for data: 4268894400
I0503 12:00:05.244191 21836 layer_factory.hpp:77] Creating layer Mconv10_stage0_L2
I0503 12:00:05.244211 21836 net.cpp:86] Creating Layer Mconv10_stage0_L2
I0503 12:00:05.244215 21836 net.cpp:408] Mconv10_stage0_L2 <- Mconv9_stage0_L2_concat
I0503 12:00:05.244221 21836 net.cpp:382] Mconv10_stage0_L2 -> Mconv10_stage0_L2
I0503 12:00:05.248260 21836 net.cpp:124] Setting up Mconv10_stage0_L2
I0503 12:00:05.248273 21836 net.cpp:131] Top shape: 3 512 60 60 (5529600)
I0503 12:00:05.248276 21836 net.cpp:139] Memory required for data: 4291012800
I0503 12:00:05.248281 21836 layer_factory.hpp:77] Creating layer Mprelu10_stage0_L2
I0503 12:00:05.248288 21836 net.cpp:86] Creating Layer Mprelu10_stage0_L2
I0503 12:00:05.248292 21836 net.cpp:408] Mprelu10_stage0_L2 <- Mconv10_stage0_L2
I0503 12:00:05.248296 21836 net.cpp:369] Mprelu10_stage0_L2 -> Mconv10_stage0_L2 (in-place)
I0503 12:00:05.251183 21836 net.cpp:124] Setting up Mprelu10_stage0_L2
I0503 12:00:05.251196 21836 net.cpp:131] Top shape: 3 512 60 60 (5529600)
I0503 12:00:05.251199 21836 net.cpp:139] Memory required for data: 4313131200
I0503 12:00:05.251204 21836 layer_factory.hpp:77] Creating layer Mconv11_stage0_L2
I0503 12:00:05.251212 21836 net.cpp:86] Creating Layer Mconv11_stage0_L2
I0503 12:00:05.251215 21836 net.cpp:408] Mconv11_stage0_L2 <- Mconv10_stage0_L2
I0503 12:00:05.251221 21836 net.cpp:382] Mconv11_stage0_L2 -> Mconv11_stage0_L2
I0503 12:00:05.253831 21836 net.cpp:124] Setting up Mconv11_stage0_L2
I0503 12:00:05.253844 21836 net.cpp:131] Top shape: 3 304 60 60 (3283200)
I0503 12:00:05.253847 21836 net.cpp:139] Memory required for data: 4326264000
I0503 12:00:05.253852 21836 layer_factory.hpp:77] Creating layer Mconv11_stage0_L2_Mconv11_stage0_L2_0_split
I0503 12:00:05.253857 21836 net.cpp:86] Creating Layer Mconv11_stage0_L2_Mconv11_stage0_L2_0_split
I0503 12:00:05.253860 21836 net.cpp:408] Mconv11_stage0_L2_Mconv11_stage0_L2_0_split <- Mconv11_stage0_L2
I0503 12:00:05.253866 21836 net.cpp:382] Mconv11_stage0_L2_Mconv11_stage0_L2_0_split -> Mconv11_stage0_L2_Mconv11_stage0_L2_0_split_0
I0503 12:00:05.253872 21836 net.cpp:382] Mconv11_stage0_L2_Mconv11_stage0_L2_0_split -> Mconv11_stage0_L2_Mconv11_stage0_L2_0_split_1
I0503 12:00:05.253943 21836 net.cpp:124] Setting up Mconv11_stage0_L2_Mconv11_stage0_L2_0_split
I0503 12:00:05.253960 21836 net.cpp:131] Top shape: 3 304 60 60 (3283200)
I0503 12:00:05.253963 21836 net.cpp:131] Top shape: 3 304 60 60 (3283200)
I0503 12:00:05.253965 21836 net.cpp:139] Memory required for data: 4352529600
I0503 12:00:05.253968 21836 layer_factory.hpp:77] Creating layer weight_stage0_L2
I0503 12:00:05.253975 21836 net.cpp:86] Creating Layer weight_stage0_L2
I0503 12:00:05.253978 21836 net.cpp:408] weight_stage0_L2 <- Mconv11_stage0_L2_Mconv11_stage0_L2_0_split_0
I0503 12:00:05.253983 21836 net.cpp:408] weight_stage0_L2 <- vec_weight_vec_weight_0_split_1
I0503 12:00:05.253988 21836 net.cpp:382] weight_stage0_L2 -> weight_stage0_L2
I0503 12:00:05.254022 21836 net.cpp:124] Setting up weight_stage0_L2
I0503 12:00:05.254038 21836 net.cpp:131] Top shape: 3 304 60 60 (3283200)
I0503 12:00:05.254040 21836 net.cpp:139] Memory required for data: 4365662400
I0503 12:00:05.254043 21836 layer_factory.hpp:77] Creating layer loss_stage0_L2
I0503 12:00:05.254052 21836 net.cpp:86] Creating Layer loss_stage0_L2
I0503 12:00:05.254056 21836 net.cpp:408] loss_stage0_L2 <- weight_stage0_L2
I0503 12:00:05.254060 21836 net.cpp:408] loss_stage0_L2 <- label_vec
I0503 12:00:05.254065 21836 net.cpp:382] loss_stage0_L2 -> loss_stage0_L2
I0503 12:00:05.254127 21836 net.cpp:124] Setting up loss_stage0_L2
I0503 12:00:05.254133 21836 net.cpp:131] Top shape: (1)
I0503 12:00:05.254137 21836 net.cpp:134]     with loss weight 1
I0503 12:00:05.254153 21836 net.cpp:139] Memory required for data: 4365662404
I0503 12:00:05.254155 21836 layer_factory.hpp:77] Creating layer concat_stage0_L1
I0503 12:00:05.254163 21836 net.cpp:86] Creating Layer concat_stage0_L1
I0503 12:00:05.254176 21836 net.cpp:408] concat_stage0_L1 <- conv4_11_CPM_prelu4_11_CPM_0_split_1
I0503 12:00:05.254180 21836 net.cpp:408] concat_stage0_L1 <- Mconv11_stage0_L2_Mconv11_stage0_L2_0_split_1
I0503 12:00:05.254186 21836 net.cpp:382] concat_stage0_L1 -> concat_stage0_L1
I0503 12:00:05.254245 21836 net.cpp:124] Setting up concat_stage0_L1
I0503 12:00:05.254252 21836 net.cpp:131] Top shape: 3 816 60 60 (8812800)
I0503 12:00:05.254254 21836 net.cpp:139] Memory required for data: 4400913604
I0503 12:00:05.254257 21836 layer_factory.hpp:77] Creating layer Mconv1_stage0_L1_0
I0503 12:00:05.254269 21836 net.cpp:86] Creating Layer Mconv1_stage0_L1_0
I0503 12:00:05.254272 21836 net.cpp:408] Mconv1_stage0_L1_0 <- concat_stage0_L1
I0503 12:00:05.254278 21836 net.cpp:382] Mconv1_stage0_L1_0 -> Mconv1_stage0_L1_0
I0503 12:00:05.263954 21836 net.cpp:124] Setting up Mconv1_stage0_L1_0
I0503 12:00:05.263968 21836 net.cpp:131] Top shape: 3 192 60 60 (2073600)
I0503 12:00:05.263972 21836 net.cpp:139] Memory required for data: 4409208004
I0503 12:00:05.263976 21836 layer_factory.hpp:77] Creating layer Mprelu1_stage0_L1_0
I0503 12:00:05.263983 21836 net.cpp:86] Creating Layer Mprelu1_stage0_L1_0
I0503 12:00:05.263985 21836 net.cpp:408] Mprelu1_stage0_L1_0 <- Mconv1_stage0_L1_0
I0503 12:00:05.263991 21836 net.cpp:369] Mprelu1_stage0_L1_0 -> Mconv1_stage0_L1_0 (in-place)
I0503 12:00:05.265384 21836 net.cpp:124] Setting up Mprelu1_stage0_L1_0
I0503 12:00:05.265398 21836 net.cpp:131] Top shape: 3 192 60 60 (2073600)
I0503 12:00:05.265399 21836 net.cpp:139] Memory required for data: 4417502404
I0503 12:00:05.265404 21836 layer_factory.hpp:77] Creating layer Mconv1_stage0_L1_0_Mprelu1_stage0_L1_0_0_split
I0503 12:00:05.265410 21836 net.cpp:86] Creating Layer Mconv1_stage0_L1_0_Mprelu1_stage0_L1_0_0_split
I0503 12:00:05.265413 21836 net.cpp:408] Mconv1_stage0_L1_0_Mprelu1_stage0_L1_0_0_split <- Mconv1_stage0_L1_0
I0503 12:00:05.265417 21836 net.cpp:382] Mconv1_stage0_L1_0_Mprelu1_stage0_L1_0_0_split -> Mconv1_stage0_L1_0_Mprelu1_stage0_L1_0_0_split_0
I0503 12:00:05.265424 21836 net.cpp:382] Mconv1_stage0_L1_0_Mprelu1_stage0_L1_0_0_split -> Mconv1_stage0_L1_0_Mprelu1_stage0_L1_0_0_split_1
I0503 12:00:05.265501 21836 net.cpp:124] Setting up Mconv1_stage0_L1_0_Mprelu1_stage0_L1_0_0_split
I0503 12:00:05.265506 21836 net.cpp:131] Top shape: 3 192 60 60 (2073600)
I0503 12:00:05.265509 21836 net.cpp:131] Top shape: 3 192 60 60 (2073600)
I0503 12:00:05.265522 21836 net.cpp:139] Memory required for data: 4434091204
I0503 12:00:05.265525 21836 layer_factory.hpp:77] Creating layer Mconv1_stage0_L1_1
I0503 12:00:05.265534 21836 net.cpp:86] Creating Layer Mconv1_stage0_L1_1
I0503 12:00:05.265537 21836 net.cpp:408] Mconv1_stage0_L1_1 <- Mconv1_stage0_L1_0_Mprelu1_stage0_L1_0_0_split_0
I0503 12:00:05.265543 21836 net.cpp:382] Mconv1_stage0_L1_1 -> Mconv1_stage0_L1_1
I0503 12:00:05.268537 21836 net.cpp:124] Setting up Mconv1_stage0_L1_1
I0503 12:00:05.268549 21836 net.cpp:131] Top shape: 3 192 60 60 (2073600)
I0503 12:00:05.268553 21836 net.cpp:139] Memory required for data: 4442385604
I0503 12:00:05.268559 21836 layer_factory.hpp:77] Creating layer Mprelu1_stage0_L1_1
I0503 12:00:05.268564 21836 net.cpp:86] Creating Layer Mprelu1_stage0_L1_1
I0503 12:00:05.268568 21836 net.cpp:408] Mprelu1_stage0_L1_1 <- Mconv1_stage0_L1_1
I0503 12:00:05.268573 21836 net.cpp:369] Mprelu1_stage0_L1_1 -> Mconv1_stage0_L1_1 (in-place)
I0503 12:00:05.269970 21836 net.cpp:124] Setting up Mprelu1_stage0_L1_1
I0503 12:00:05.269982 21836 net.cpp:131] Top shape: 3 192 60 60 (2073600)
I0503 12:00:05.269985 21836 net.cpp:139] Memory required for data: 4450680004
I0503 12:00:05.269989 21836 layer_factory.hpp:77] Creating layer Mconv1_stage0_L1_1_Mprelu1_stage0_L1_1_0_split
I0503 12:00:05.269994 21836 net.cpp:86] Creating Layer Mconv1_stage0_L1_1_Mprelu1_stage0_L1_1_0_split
I0503 12:00:05.269997 21836 net.cpp:408] Mconv1_stage0_L1_1_Mprelu1_stage0_L1_1_0_split <- Mconv1_stage0_L1_1
I0503 12:00:05.270001 21836 net.cpp:382] Mconv1_stage0_L1_1_Mprelu1_stage0_L1_1_0_split -> Mconv1_stage0_L1_1_Mprelu1_stage0_L1_1_0_split_0
I0503 12:00:05.270018 21836 net.cpp:382] Mconv1_stage0_L1_1_Mprelu1_stage0_L1_1_0_split -> Mconv1_stage0_L1_1_Mprelu1_stage0_L1_1_0_split_1
I0503 12:00:05.270104 21836 net.cpp:124] Setting up Mconv1_stage0_L1_1_Mprelu1_stage0_L1_1_0_split
I0503 12:00:05.270121 21836 net.cpp:131] Top shape: 3 192 60 60 (2073600)
I0503 12:00:05.270125 21836 net.cpp:131] Top shape: 3 192 60 60 (2073600)
I0503 12:00:05.270128 21836 net.cpp:139] Memory required for data: 4467268804
I0503 12:00:05.270130 21836 layer_factory.hpp:77] Creating layer Mconv1_stage0_L1_2
I0503 12:00:05.270140 21836 net.cpp:86] Creating Layer Mconv1_stage0_L1_2
I0503 12:00:05.270143 21836 net.cpp:408] Mconv1_stage0_L1_2 <- Mconv1_stage0_L1_1_Mprelu1_stage0_L1_1_0_split_0
I0503 12:00:05.270149 21836 net.cpp:382] Mconv1_stage0_L1_2 -> Mconv1_stage0_L1_2
I0503 12:00:05.275156 21836 net.cpp:124] Setting up Mconv1_stage0_L1_2
I0503 12:00:05.275169 21836 net.cpp:131] Top shape: 3 192 60 60 (2073600)
I0503 12:00:05.275172 21836 net.cpp:139] Memory required for data: 4475563204
I0503 12:00:05.275178 21836 layer_factory.hpp:77] Creating layer Mprelu1_stage0_L1_2
I0503 12:00:05.275185 21836 net.cpp:86] Creating Layer Mprelu1_stage0_L1_2
I0503 12:00:05.275188 21836 net.cpp:408] Mprelu1_stage0_L1_2 <- Mconv1_stage0_L1_2
I0503 12:00:05.275192 21836 net.cpp:369] Mprelu1_stage0_L1_2 -> Mconv1_stage0_L1_2 (in-place)
I0503 12:00:05.276604 21836 net.cpp:124] Setting up Mprelu1_stage0_L1_2
I0503 12:00:05.276616 21836 net.cpp:131] Top shape: 3 192 60 60 (2073600)
I0503 12:00:05.276619 21836 net.cpp:139] Memory required for data: 4483857604
I0503 12:00:05.276623 21836 layer_factory.hpp:77] Creating layer Mconv1_stage0_L1_concat
I0503 12:00:05.276630 21836 net.cpp:86] Creating Layer Mconv1_stage0_L1_concat
…
I0503 12:00:05.285850 21836 net.cpp:139] Memory required for data: 4525329604
I0503 12:00:05.285853 21836 layer_factory.hpp:77] Creating layer Mconv2_stage0_L1_0_Mprelu2_stage0_L1_0_0_split
I0503 12:00:05.285858 21836 net.cpp:86] Creating Layer Mconv2_stage0_L1_0_Mprelu2_stage0_L1_0_0_split
I0503 12:00:05.285861 21836 net.cpp:408] Mconv2_stage0_L1_0_Mprelu2_stage0_L1_0_0_split <- Mconv2_stage0_L1_0
I0503 12:00:05.285866 21836 net.cpp:382] Mconv2_stage0_L1_0_Mprelu2_stage0_L1_0_0_split -> Mconv2_stage0_L1_0_Mprelu2_stage0_L1_0_0_split_0
I0503 12:00:05.285872 21836 net.cpp:382] Mconv2_stage0_L1_0_Mprelu2_stage0_L1_0_0_split -> Mconv2_stage0_L1_0_Mprelu2_stage0_L1_0_0_split_1
I0503 12:00:05.285969 21836 net.cpp:124] Setting up Mconv2_stage0_L1_0_Mprelu2_stage0_L1_0_0_split
I0503 12:00:05.285975 21836 net.cpp:131] Top shape: 3 192 60 60 (2073600)
I0503 12:00:05.285979 21836 net.cpp:131] Top shape: 3 192 60 60 (2073600)
I0503 12:00:05.285981 21836 net.cpp:139] Memory required for data: 4541918404
I0503 12:00:05.285984 21836 layer_factory.hpp:77] Creating layer Mconv2_stage0_L1_1
I0503 12:00:05.285995 21836 net.cpp:86] Creating Layer Mconv2_stage0_L1_1
I0503 12:00:05.285998 21836 net.cpp:408] Mconv2_stage0_L1_1 <- Mconv2_stage0_L1_0_Mprelu2_stage0_L1_0_0_split_0
I0503 12:00:05.286005 21836 net.cpp:382] Mconv2_stage0_L1_1 -> Mconv2_stage0_L1_1
I0503 12:00:05.289778 21836 net.cpp:124] Setting up Mconv2_stage0_L1_1
I0503 12:00:05.289791 21836 net.cpp:131] Top shape: 3 192 60 60 (2073600)
I0503 12:00:05.289794 21836 net.cpp:139] Memory required for data: 4550212804
I0503 12:00:05.289800 21836 layer_factory.hpp:77] Creating layer Mprelu2_stage0_L1_1
I0503 12:00:05.289808 21836 net.cpp:86] Creating Layer Mprelu2_stage0_L1_1
I0503 12:00:05.289810 21836 net.cpp:408] Mprelu2_stage0_L1_1 <- Mconv2_stage0_L1_1
I0503 12:00:05.289815 21836 net.cpp:369] Mprelu2_stage0_L1_1 -> Mconv2_stage0_L1_1 (in-place)
I0503 12:00:05.291251 21836 net.cpp:124] Setting up Mprelu2_stage0_L1_1
I0503 12:00:05.291265 21836 net.cpp:131] Top shape: 3 192 60 60 (2073600)
I0503 12:00:05.291267 21836 net.cpp:139] Memory required for data: 4558507204
I0503 12:00:05.291271 21836 layer_factory.hpp:77] Creating layer Mconv2_stage0_L1_1_Mprelu2_stage0_L1_1_0_split
I0503 12:00:05.291276 21836 net.cpp:86] Creating Layer Mconv2_stage0_L1_1_Mprelu2_stage0_L1_1_0_split
I0503 12:00:05.291280 21836 net.cpp:408] Mconv2_stage0_L1_1_Mprelu2_stage0_L1_1_0_split <- Mconv2_stage0_L1_1
I0503 12:00:05.291283 21836 net.cpp:382] Mconv2_stage0_L1_1_Mprelu2_stage0_L1_1_0_split -> Mconv2_stage0_L1_1_Mprelu2_stage0_L1_1_0_split_0
I0503 12:00:05.291290 21836 net.cpp:382] Mconv2_stage0_L1_1_Mprelu2_stage0_L1_1_0_split -> Mconv2_stage0_L1_1_Mprelu2_stage0_L1_1_0_split_1
I0503 12:00:05.291375 21836 net.cpp:124] Setting up Mconv2_stage0_L1_1_Mprelu2_stage0_L1_1_0_split
I0503 12:00:05.291386 21836 net.cpp:131] Top shape: 3 192 60 60 (2073600)
I0503 12:00:05.291389 21836 net.cpp:131] Top shape: 3 192 60 60 (2073600)
I0503 12:00:05.291391 21836 net.cpp:139] Memory required for data: 4575096004
I0503 12:00:05.291394 21836 layer_factory.hpp:77] Creating layer Mconv2_stage0_L1_2
I0503 12:00:05.291404 21836 net.cpp:86] Creating Layer Mconv2_stage0_L1_2
I0503 12:00:05.291406 21836 net.cpp:408] Mconv2_stage0_L1_2 <- Mconv2_stage0_L1_1_Mprelu2_stage0_L1_1_0_split_0
I0503 12:00:05.291412 21836 net.cpp:382] Mconv2_stage0_L1_2 -> Mconv2_stage0_L1_2
I0503 12:00:05.295198 21836 net.cpp:124] Setting up Mconv2_stage0_L1_2
I0503 12:00:05.295212 21836 net.cpp:131] Top shape: 3 192 60 60 (2073600)
I0503 12:00:05.295215 21836 net.cpp:139] Memory required for data: 4583390404
I0503 12:00:05.295222 21836 layer_factory.hpp:77] Creating layer Mprelu2_stage0_L1_2
I0503 12:00:05.295228 21836 net.cpp:86] Creating Layer Mprelu2_stage0_L1_2
I0503 12:00:05.295230 21836 net.cpp:408] Mprelu2_stage0_L1_2 <- Mconv2_stage0_L1_2
I0503 12:00:05.295234 21836 net.cpp:369] Mprelu2_stage0_L1_2 -> Mconv2_stage0_L1_2 (in-place)
I0503 12:00:05.296649 21836 net.cpp:124] Setting up Mprelu2_stage0_L1_2
I0503 12:00:05.296661 21836 net.cpp:131] Top shape: 3 192 60 60 (2073600)
I0503 12:00:05.296663 21836 net.cpp:139] Memory required for data: 4591684804
I0503 12:00:05.296669 21836 layer_factory.hpp:77] Creating layer Mconv2_stage0_L1_concat
I0503 12:00:05.296675 21836 net.cpp:86] Creating Layer Mconv2_stage0_L1_concat
I0503 12:00:05.296679 21836 net.cpp:408] Mconv2_stage0_L1_concat <- Mconv2_stage0_L1_0_Mprelu2_stage0_L1_0_0_split_1
I0503 12:00:05.296682 21836 net.cpp:408] Mconv2_stage0_L1_concat <- Mconv2_stage0_L1_1_Mprelu2_stage0_L1_1_0_split_1
I0503 12:00:05.296685 21836 net.cpp:408] Mconv2_stage0_L1_concat <- Mconv2_stage0_L1_2
I0503 12:00:05.296700 21836 net.cpp:382] Mconv2_stage0_L1_concat -> Mconv2_stage0_L1_concat
I0503 12:00:05.296756 21836 net.cpp:124] Setting up Mconv2_stage0_L1_concat
I0503 12:00:05.296761 21836 net.cpp:131] Top shape: 3 576 60 60 (6220800)
I0503 12:00:05.296763 21836 net.cpp:139] Memory required for data: 4616568004
I0503 12:00:05.296766 21836 layer_factory.hpp:77] Creating layer Mconv3_stage0_L1_0
I0503 12:00:05.296785 21836 net.cpp:86] Creating Layer Mconv3_stage0_L1_0
I0503 12:00:05.296788 21836 net.cpp:408] Mconv3_stage0_L1_0 <- Mconv2_stage0_L1_concat
I0503 12:00:05.296795 21836 net.cpp:382] Mconv3_stage0_L1_0 -> Mconv3_stage0_L1_0
I0503 12:00:05.304266 21836 net.cpp:124] Setting up Mconv3_stage0_L1_0
I0503 12:00:05.304280 21836 net.cpp:131] Top shape: 3 192 60 60 (2073600)
I0503 12:00:05.304282 21836 net.cpp:139] Memory required for data: 4624862404
I0503 12:00:05.304287 21836 layer_factory.hpp:77] Creating layer Mprelu3_stage0_L1_0
I0503 12:00:05.304293 21836 net.cpp:86] Creating Layer Mprelu3_stage0_L1_0
I0503 12:00:05.304296 21836 net.cpp:408] Mprelu3_stage0_L1_0 <- Mconv3_stage0_L1_0
I0503 12:00:05.304302 21836 net.cpp:369] Mprelu3_stage0_L1_0 -> Mconv3_stage0_L1_0 (in-place)
I0503 12:00:05.305703 21836 net.cpp:124] Setting up Mprelu3_stage0_L1_0
I0503 12:00:05.305716 21836 net.cpp:131] Top shape: 3 192 60 60 (2073600)
I0503 12:00:05.305718 21836 net.cpp:139] Memory required for data: 4633156804
I0503 12:00:05.305723 21836 layer_factory.hpp:77] Creating layer Mconv3_stage0_L1_0_Mprelu3_stage0_L1_0_0_split
I0503 12:00:05.305728 21836 net.cpp:86] Creating Layer Mconv3_stage0_L1_0_Mprelu3_stage0_L1_0_0_split
I0503 12:00:05.305730 21836 net.cpp:408] Mconv3_stage0_L1_0_Mprelu3_stage0_L1_0_0_split <- Mconv3_stage0_L1_0
I0503 12:00:05.305737 21836 net.cpp:382] Mconv3_stage0_L1_0_Mprelu3_stage0_L1_0_0_split -> Mconv3_stage0_L1_0_Mprelu3_stage0_L1_0_0_split_0
I0503 12:00:05.305742 21836 net.cpp:382] Mconv3_stage0_L1_0_Mprelu3_stage0_L1_0_0_split -> Mconv3_stage0_L1_0_Mprelu3_stage0_L1_0_0_split_1
I0503 12:00:05.305816 21836 net.cpp:124] Setting up Mconv3_stage0_L1_0_Mprelu3_stage0_L1_0_0_split
I0503 12:00:05.305824 21836 net.cpp:131] Top shape: 3 192 60 60 (2073600)
I0503 12:00:05.305829 21836 net.cpp:131] Top shape: 3 192 60 60 (2073600)
I0503 12:00:05.305842 21836 net.cpp:139] Memory required for data: 4649745604
I0503 12:00:05.305845 21836 layer_factory.hpp:77] Creating layer Mconv3_stage0_L1_1
I0503 12:00:05.305855 21836 net.cpp:86] Creating Layer Mconv3_stage0_L1_1
I0503 12:00:05.305857 21836 net.cpp:408] Mconv3_stage0_L1_1 <- Mconv3_stage0_L1_0_Mprelu3_stage0_L1_0_0_split_0
I0503 12:00:05.305862 21836 net.cpp:382] Mconv3_stage0_L1_1 -> Mconv3_stage0_L1_1
I0503 12:00:05.310919 21836 net.cpp:124] Setting up Mconv3_stage0_L1_1
I0503 12:00:05.310931 21836 net.cpp:131] Top shape: 3 192 60 60 (2073600)
I0503 12:00:05.310935 21836 net.cpp:139] Memory required for data: 4658040004
I0503 12:00:05.310940 21836 layer_factory.hpp:77] Creating layer Mprelu3_stage0_L1_1
I0503 12:00:05.310946 21836 net.cpp:86] Creating Layer Mprelu3_stage0_L1_1
I0503 12:00:05.310950 21836 net.cpp:408] Mprelu3_stage0_L1_1 <- Mconv3_stage0_L1_1
I0503 12:00:05.310955 21836 net.cpp:369] Mprelu3_stage0_L1_1 -> Mconv3_stage0_L1_1 (in-place)
I0503 12:00:05.312366 21836 net.cpp:124] Setting up Mprelu3_stage0_L1_1
I0503 12:00:05.312378 21836 net.cpp:131] Top shape: 3 192 60 60 (2073600)
I0503 12:00:05.312381 21836 net.cpp:139] Memory required for data: 4666334404
I0503 12:00:05.312386 21836 layer_factory.hpp:77] Creating layer Mconv3_stage0_L1_1_Mprelu3_stage0_L1_1_0_split
I0503 12:00:05.312391 21836 net.cpp:86] Creating Layer Mconv3_stage0_L1_1_Mprelu3_stage0_L1_1_0_split
I0503 12:00:05.312394 21836 net.cpp:408] Mconv3_stage0_L1_1_Mprelu3_stage0_L1_1_0_split <- Mconv3_stage0_L1_1
I0503 12:00:05.312399 21836 net.cpp:382] Mconv3_stage0_L1_1_Mprelu3_stage0_L1_1_0_split -> Mconv3_stage0_L1_1_Mprelu3_stage0_L1_1_0_split_0
I0503 12:00:05.312405 21836 net.cpp:382] Mconv3_stage0_L1_1_Mprelu3_stage0_L1_1_0_split -> Mconv3_stage0_L1_1_Mprelu3_stage0_L1_1_0_split_1
I0503 12:00:05.312503 21836 net.cpp:124] Setting up Mconv3_stage0_L1_1_Mprelu3_stage0_L1_1_0_split
I0503 12:00:05.312511 21836 net.cpp:131] Top shape: 3 192 60 60 (2073600)
I0503 12:00:05.312515 21836 net.cpp:131] Top shape: 3 192 60 60 (2073600)
I0503 12:00:05.312517 21836 net.cpp:139] Memory required for data: 4682923204
I0503 12:00:05.312520 21836 layer_factory.hpp:77] Creating layer Mconv3_stage0_L1_2
I0503 12:00:05.312530 21836 net.cpp:86] Creating Layer Mconv3_stage0_L1_2
I0503 12:00:05.312533 21836 net.cpp:408] Mconv3_stage0_L1_2 <- Mconv3_stage0_L1_1_Mprelu3_stage0_L1_1_0_split_0
I0503 12:00:05.312541 21836 net.cpp:382] Mconv3_stage0_L1_2 -> Mconv3_stage0_L1_2
I0503 12:00:05.316339 21836 net.cpp:124] Setting up Mconv3_stage0_L1_2
I0503 12:00:05.316352 21836 net.cpp:131] Top shape: 3 192 60 60 (2073600)
I0503 12:00:05.316355 21836 net.cpp:139] Memory required for data: 4691217604
I0503 12:00:05.316365 21836 layer_factory.hpp:77] Creating layer Mprelu3_stage0_L1_2
I0503 12:00:05.316371 21836 net.cpp:86] Creating Layer Mprelu3_stage0_L1_2
I0503 12:00:05.316375 21836 net.cpp:408] Mprelu3_stage0_L1_2 <- Mconv3_stage0_L1_2
I0503 12:00:05.316380 21836 net.cpp:369] Mprelu3_stage0_L1_2 -> Mconv3_stage0_L1_2 (in-place)
I0503 12:00:05.317785 21836 net.cpp:124] Setting up Mprelu3_stage0_L1_2
I0503 12:00:05.317797 21836 net.cpp:131] Top shape: 3 192 60 60 (2073600)
I0503 12:00:05.317800 21836 net.cpp:139] Memory required for data: 4699512004
I0503 12:00:05.317804 21836 layer_factory.hpp:77] Creating layer Mconv3_stage0_L1_concat
I0503 12:00:05.317811 21836 net.cpp:86] Creating Layer Mconv3_stage0_L1_concat
I0503 12:00:05.317813 21836 net.cpp:408] Mconv3_stage0_L1_concat <- Mconv3_stage0_L1_0_Mprelu3_stage0_L1_0_0_split_1
I0503 12:00:05.317817 21836 net.cpp:408] Mconv3_stage0_L1_concat <- Mconv3_stage0_L1_1_Mprelu3_stage0_L1_1_0_split_1
I0503 12:00:05.317821 21836 net.cpp:408] Mconv3_stage0_L1_concat <- Mconv3_stage0_L1_2
I0503 12:00:05.317826 21836 net.cpp:382] Mconv3_stage0_L1_concat -> Mconv3_stage0_L1_concat
I0503 12:00:05.317886 21836 net.cpp:124] Setting up Mconv3_stage0_L1_concat
I0503 12:00:05.317891 21836 net.cpp:131] Top shape: 3 576 60 60 (6220800)
I0503 12:00:05.317893 21836 net.cpp:139] Memory required for data: 4724395204
I0503 12:00:05.317896 21836 layer_factory.hpp:77] Creating layer Mconv4_stage0_L1_0
I0503 12:00:05.317904 21836 net.cpp:86] Creating Layer Mconv4_stage0_L1_0
I0503 12:00:05.317908 21836 net.cpp:408] Mconv4_stage0_L1_0 <- Mconv3_stage0_L1_concat
I0503 12:00:05.317925 21836 net.cpp:382] Mconv4_stage0_L1_0 -> Mconv4_stage0_L1_0
I0503 12:00:05.325525 21836 net.cpp:124] Setting up Mconv4_stage0_L1_0
I0503 12:00:05.325538 21836 net.cpp:131] Top shape: 3 192 60 60 (2073600)
I0503 12:00:05.325541 21836 net.cpp:139] Memory required for data: 4732689604
I0503 12:00:05.325547 21836 layer_factory.hpp:77] Creating layer Mprelu4_stage0_L1_0
I0503 12:00:05.325553 21836 net.cpp:86] Creating Layer Mprelu4_stage0_L1_0
I0503 12:00:05.325556 21836 net.cpp:408] Mprelu4_stage0_L1_0 <- Mconv4_stage0_L1_0
I0503 12:00:05.325562 21836 net.cpp:369] Mprelu4_stage0_L1_0 -> Mconv4_stage0_L1_0 (in-place)
I0503 12:00:05.327024 21836 net.cpp:124] Setting up Mprelu4_stage0_L1_0
I0503 12:00:05.327036 21836 net.cpp:131] Top shape: 3 192 60 60 (2073600)
I0503 12:00:05.327039 21836 net.cpp:139] Memory required for data: 4740984004
I0503 12:00:05.327044 21836 layer_factory.hpp:77] Creating layer Mconv4_stage0_L1_0_Mprelu4_stage0_L1_0_0_split
I0503 12:00:05.327050 21836 net.cpp:86] Creating Layer Mconv4_stage0_L1_0_Mprelu4_stage0_L1_0_0_split
I0503 12:00:05.327054 21836 net.cpp:408] Mconv4_stage0_L1_0_Mprelu4_stage0_L1_0_0_split <- Mconv4_stage0_L1_0
I0503 12:00:05.327057 21836 net.cpp:382] Mconv4_stage0_L1_0_Mprelu4_stage0_L1_0_0_split -> Mconv4_stage0_L1_0_Mprelu4_stage0_L1_0_0_split_0
I0503 12:00:05.327064 21836 net.cpp:382] Mconv4_stage0_L1_0_Mprelu4_stage0_L1_0_0_split -> Mconv4_stage0_L1_0_Mprelu4_stage0_L1_0_0_split_1
I0503 12:00:05.327145 21836 net.cpp:124] Setting up Mconv4_stage0_L1_0_Mprelu4_stage0_L1_0_0_split
I0503 12:00:05.327172 21836 net.cpp:131] Top shape: 3 192 60 60 (2073600)
I0503 12:00:05.327175 21836 net.cpp:131] Top shape: 3 192 60 60 (2073600)
I0503 12:00:05.327178 21836 net.cpp:139] Memory required for data: 4757572804
I0503 12:00:05.327180 21836 layer_factory.hpp:77] Creating layer Mconv4_stage0_L1_1
I0503 12:00:05.327189 21836 net.cpp:86] Creating Layer Mconv4_stage0_L1_1
I0503 12:00:05.327193 21836 net.cpp:408] Mconv4_stage0_L1_1 <- Mconv4_stage0_L1_0_Mprelu4_stage0_L1_0_0_split_0
I0503 12:00:05.327199 21836 net.cpp:382] Mconv4_stage0_L1_1 -> Mconv4_stage0_L1_1
I0503 12:00:05.331010 21836 net.cpp:124] Setting up Mconv4_stage0_L1_1
I0503 12:00:05.331023 21836 net.cpp:131] Top shape: 3 192 60 60 (2073600)
I0503 12:00:05.331027 21836 net.cpp:139] Memory required for data: 4765867204
I0503 12:00:05.331032 21836 layer_factory.hpp:77] Creating layer Mprelu4_stage0_L1_1
I0503 12:00:05.331037 21836 net.cpp:86] Creating Layer Mprelu4_stage0_L1_1
I0503 12:00:05.331040 21836 net.cpp:408] Mprelu4_stage0_L1_1 <- Mconv4_stage0_L1_1
I0503 12:00:05.331046 21836 net.cpp:369] Mprelu4_stage0_L1_1 -> Mconv4_stage0_L1_1 (in-place)
I0503 12:00:05.332473 21836 net.cpp:124] Setting up Mprelu4_stage0_L1_1
I0503 12:00:05.332484 21836 net.cpp:131] Top shape: 3 192 60 60 (2073600)
I0503 12:00:05.332487 21836 net.cpp:139] Memory required for data: 4774161604
I0503 12:00:05.332491 21836 layer_factory.hpp:77] Creating layer Mconv4_stage0_L1_1_Mprelu4_stage0_L1_1_0_split
I0503 12:00:05.332497 21836 net.cpp:86] Creating Layer Mconv4_stage0_L1_1_Mprelu4_stage0_L1_1_0_split
I0503 12:00:05.332500 21836 net.cpp:408] Mconv4_stage0_L1_1_Mprelu4_stage0_L1_1_0_split <- Mconv4_stage0_L1_1
I0503 12:00:05.332506 21836 net.cpp:382] Mconv4_stage0_L1_1_Mprelu4_stage0_L1_1_0_split -> Mconv4_stage0_L1_1_Mprelu4_stage0_L1_1_0_split_0
I0503 12:00:05.332512 21836 net.cpp:382] Mconv4_stage0_L1_1_Mprelu4_stage0_L1_1_0_split -> Mconv4_stage0_L1_1_Mprelu4_stage0_L1_1_0_split_1
I0503 12:00:05.332593 21836 net.cpp:124] Setting up Mconv4_stage0_L1_1_Mprelu4_stage0_L1_1_0_split
I0503 12:00:05.332599 21836 net.cpp:131] Top shape: 3 192 60 60 (2073600)
I0503 12:00:05.332614 21836 net.cpp:131] Top shape: 3 192 60 60 (2073600)
I0503 12:00:05.332617 21836 net.cpp:139] Memory required for data: 4790750404
I0503 12:00:05.332619 21836 layer_factory.hpp:77] Creating layer Mconv4_stage0_L1_2
I0503 12:00:05.332628 21836 net.cpp:86] Creating Layer Mconv4_stage0_L1_2
I0503 12:00:05.332631 21836 net.cpp:408] Mconv4_stage0_L1_2 <- Mconv4_stage0_L1_1_Mprelu4_stage0_L1_1_0_split_0
I0503 12:00:05.332638 21836 net.cpp:382] Mconv4_stage0_L1_2 -> Mconv4_stage0_L1_2
I0503 12:00:05.337769 21836 net.cpp:124] Setting up Mconv4_stage0_L1_2
I0503 12:00:05.337782 21836 net.cpp:131] Top shape: 3 192 60 60 (2073600)
I0503 12:00:05.337786 21836 net.cpp:139] Memory required for data: 4799044804
I0503 12:00:05.337792 21836 layer_factory.hpp:77] Creating layer Mprelu4_stage0_L1_2
I0503 12:00:05.337798 21836 net.cpp:86] Creating Layer Mprelu4_stage0_L1_2
I0503 12:00:05.337801 21836 net.cpp:408] Mprelu4_stage0_L1_2 <- Mconv4_stage0_L1_2
I0503 12:00:05.337805 21836 net.cpp:369] Mprelu4_stage0_L1_2 -> Mconv4_stage0_L1_2 (in-place)
I0503 12:00:05.339251 21836 net.cpp:124] Setting up Mprelu4_stage0_L1_2
I0503 12:00:05.339264 21836 net.cpp:131] Top shape: 3 192 60 60 (2073600)
I0503 12:00:05.339267 21836 net.cpp:139] Memory required for data: 4807339204
I0503 12:00:05.339272 21836 layer_factory.hpp:77] Creating layer Mconv4_stage0_L1_concat
I0503 12:00:05.339277 21836 net.cpp:86] Creating Layer Mconv4_stage0_L1_concat
I0503 12:00:05.339282 21836 net.cpp:408] Mconv4_stage0_L1_concat <- Mconv4_stage0_L1_0_Mprelu4_stage0_L1_0_0_split_1
I0503 12:00:05.339285 21836 net.cpp:408] Mconv4_stage0_L1_concat <- Mconv4_stage0_L1_1_Mprelu4_stage0_L1_1_0_split_1
I0503 12:00:05.339288 21836 net.cpp:408] Mconv4_stage0_L1_concat <- Mconv4_stage0_L1_2
I0503 12:00:05.339293 21836 net.cpp:382] Mconv4_stage0_L1_concat -> Mconv4_stage0_L1_concat
I0503 12:00:05.339349 21836 net.cpp:124] Setting up Mconv4_stage0_L1_concat
I0503 12:00:05.339365 21836 net.cpp:131] Top shape: 3 576 60 60 (6220800)
I0503 12:00:05.339367 21836 net.cpp:139] Memory required for data: 4832222404
I0503 12:00:05.339381 21836 layer_factory.hpp:77] Creating layer Mconv5_stage0_L1_0
I0503 12:00:05.339390 21836 net.cpp:86] Creating Layer Mconv5_stage0_L1_0
I0503 12:00:05.339392 21836 net.cpp:408] Mconv5_stage0_L1_0 <- Mconv4_stage0_L1_concat
I0503 12:00:05.339397 21836 net.cpp:382] Mconv5_stage0_L1_0 -> Mconv5_stage0_L1_0
I0503 12:00:05.346925 21836 net.cpp:124] Setting up Mconv5_stage0_L1_0
I0503 12:00:05.346936 21836 net.cpp:131] Top shape: 3 192 60 60 (2073600)
I0503 12:00:05.346940 21836 net.cpp:139] Memory required for data: 4840516804
I0503 12:00:05.346946 21836 layer_factory.hpp:77] Creating layer Mprelu5_stage0_L1_0
I0503 12:00:05.346952 21836 net.cpp:86] Creating Layer Mprelu5_stage0_L1_0
I0503 12:00:05.346956 21836 net.cpp:408] Mprelu5_stage0_L1_0 <- Mconv5_stage0_L1_0
I0503 12:00:05.346961 21836 net.cpp:369] Mprelu5_stage0_L1_0 -> Mconv5_stage0_L1_0 (in-place)
I0503 12:00:05.348373 21836 net.cpp:124] Setting up Mprelu5_stage0_L1_0
I0503 12:00:05.348387 21836 net.cpp:131] Top shape: 3 192 60 60 (2073600)
I0503 12:00:05.348390 21836 net.cpp:139] Memory required for data: 4848811204
I0503 12:00:05.348394 21836 layer_factory.hpp:77] Creating layer Mconv5_stage0_L1_0_Mprelu5_stage0_L1_0_0_split
I0503 12:00:05.348399 21836 net.cpp:86] Creating Layer Mconv5_stage0_L1_0_Mprelu5_stage0_L1_0_0_split
I0503 12:00:05.348402 21836 net.cpp:408] Mconv5_stage0_L1_0_Mprelu5_stage0_L1_0_0_split <- Mconv5_stage0_L1_0
I0503 12:00:05.348407 21836 net.cpp:382] Mconv5_stage0_L1_0_Mprelu5_stage0_L1_0_0_split -> Mconv5_stage0_L1_0_Mprelu5_stage0_L1_0_0_split_0
I0503 12:00:05.348412 21836 net.cpp:382] Mconv5_stage0_L1_0_Mprelu5_stage0_L1_0_0_split -> Mconv5_stage0_L1_0_Mprelu5_stage0_L1_0_0_split_1
I0503 12:00:05.348496 21836 net.cpp:124] Setting up Mconv5_stage0_L1_0_Mprelu5_stage0_L1_0_0_split
I0503 12:00:05.348520 21836 net.cpp:131] Top shape: 3 192 60 60 (2073600)
I0503 12:00:05.348525 21836 net.cpp:131] Top shape: 3 192 60 60 (2073600)
I0503 12:00:05.348526 21836 net.cpp:139] Memory required for data: 4865400004
I0503 12:00:05.348529 21836 layer_factory.hpp:77] Creating layer Mconv5_stage0_L1_1
I0503 12:00:05.348538 21836 net.cpp:86] Creating Layer Mconv5_stage0_L1_1
I0503 12:00:05.348541 21836 net.cpp:408] Mconv5_stage0_L1_1 <- Mconv5_stage0_L1_0_Mprelu5_stage0_L1_0_0_split_0
I0503 12:00:05.348547 21836 net.cpp:382] Mconv5_stage0_L1_1 -> Mconv5_stage0_L1_1
I0503 12:00:05.352385 21836 net.cpp:124] Setting up Mconv5_stage0_L1_1
I0503 12:00:05.352397 21836 net.cpp:131] Top shape: 3 192 60 60 (2073600)
I0503 12:00:05.352401 21836 net.cpp:139] Memory required for data: 4873694404
I0503 12:00:05.352406 21836 layer_factory.hpp:77] Creating layer Mprelu5_stage0_L1_1
I0503 12:00:05.352412 21836 net.cpp:86] Creating Layer Mprelu5_stage0_L1_1
I0503 12:00:05.352416 21836 net.cpp:408] Mprelu5_stage0_L1_1 <- Mconv5_stage0_L1_1
I0503 12:00:05.352421 21836 net.cpp:369] Mprelu5_stage0_L1_1 -> Mconv5_stage0_L1_1 (in-place)
I0503 12:00:05.353875 21836 net.cpp:124] Setting up Mprelu5_stage0_L1_1
I0503 12:00:05.353888 21836 net.cpp:131] Top shape: 3 192 60 60 (2073600)
I0503 12:00:05.353890 21836 net.cpp:139] Memory required for data: 4881988804
I0503 12:00:05.353894 21836 layer_factory.hpp:77] Creating layer Mconv5_stage0_L1_1_Mprelu5_stage0_L1_1_0_split
I0503 12:00:05.353899 21836 net.cpp:86] Creating Layer Mconv5_stage0_L1_1_Mprelu5_stage0_L1_1_0_split
I0503 12:00:05.353902 21836 net.cpp:408] Mconv5_stage0_L1_1_Mprelu5_stage0_L1_1_0_split <- Mconv5_stage0_L1_1
I0503 12:00:05.353909 21836 net.cpp:382] Mconv5_stage0_L1_1_Mprelu5_stage0_L1_1_0_split -> Mconv5_stage0_L1_1_Mprelu5_stage0_L1_1_0_split_0
I0503 12:00:05.353914 21836 net.cpp:382] Mconv5_stage0_L1_1_Mprelu5_stage0_L1_1_0_split -> Mconv5_stage0_L1_1_Mprelu5_stage0_L1_1_0_split_1
I0503 12:00:05.354004 21836 net.cpp:124] Setting up Mconv5_stage0_L1_1_Mprelu5_stage0_L1_1_0_split
I0503 12:00:05.354014 21836 net.cpp:131] Top shape: 3 192 60 60 (2073600)
I0503 12:00:05.354027 21836 net.cpp:131] Top shape: 3 192 60 60 (2073600)
I0503 12:00:05.354030 21836 net.cpp:139] Memory required for data: 4898577604
I0503 12:00:05.354033 21836 layer_factory.hpp:77] Creating layer Mconv5_stage0_L1_2
I0503 12:00:05.354043 21836 net.cpp:86] Creating Layer Mconv5_stage0_L1_2
I0503 12:00:05.354046 21836 net.cpp:408] Mconv5_stage0_L1_2 <- Mconv5_stage0_L1_1_Mprelu5_stage0_L1_1_0_split_0
I0503 12:00:05.354051 21836 net.cpp:382] Mconv5_stage0_L1_2 -> Mconv5_stage0_L1_2
I0503 12:00:05.357843 21836 net.cpp:124] Setting up Mconv5_stage0_L1_2
I0503 12:00:05.357856 21836 net.cpp:131] Top shape: 3 192 60 60 (2073600)
I0503 12:00:05.357859 21836 net.cpp:139] Memory required for data: 4906872004
I0503 12:00:05.357865 21836 layer_factory.hpp:77] Creating layer Mprelu5_stage0_L1_2
I0503 12:00:05.357872 21836 net.cpp:86] Creating Layer Mprelu5_stage0_L1_2
I0503 12:00:05.357877 21836 net.cpp:408] Mprelu5_stage0_L1_2 <- Mconv5_stage0_L1_2
I0503 12:00:05.357880 21836 net.cpp:369] Mprelu5_stage0_L1_2 -> Mconv5_stage0_L1_2 (in-place)
I0503 12:00:05.359340 21836 net.cpp:124] Setting up Mprelu5_stage0_L1_2
I0503 12:00:05.359354 21836 net.cpp:131] Top shape: 3 192 60 60 (2073600)
I0503 12:00:05.359355 21836 net.cpp:139] Memory required for data: 4915166404
I0503 12:00:05.359360 21836 layer_factory.hpp:77] Creating layer Mconv5_stage0_L1_concat
I0503 12:00:05.359367 21836 net.cpp:86] Creating Layer Mconv5_stage0_L1_concat
I0503 12:00:05.359370 21836 net.cpp:408] Mconv5_stage0_L1_concat <- Mconv5_stage0_L1_0_Mprelu5_stage0_L1_0_0_split_1
I0503 12:00:05.359381 21836 net.cpp:408] Mconv5_stage0_L1_concat <- Mconv5_stage0_L1_1_Mprelu5_stage0_L1_1_0_split_1
I0503 12:00:05.359385 21836 net.cpp:408] Mconv5_stage0_L1_concat <- Mconv5_stage0_L1_2
I0503 12:00:05.359388 21836 net.cpp:382] Mconv5_stage0_L1_concat -> Mconv5_stage0_L1_concat
I0503 12:00:05.359457 21836 net.cpp:124] Setting up Mconv5_stage0_L1_concat
I0503 12:00:05.359467 21836 net.cpp:131] Top shape: 3 576 60 60 (6220800)
I0503 12:00:05.359469 21836 net.cpp:139] Memory required for data: 4940049604
I0503 12:00:05.359472 21836 layer_factory.hpp:77] Creating layer Mconv6_stage0_L1_0
I0503 12:00:05.359480 21836 net.cpp:86] Creating Layer Mconv6_stage0_L1_0
I0503 12:00:05.359484 21836 net.cpp:408] Mconv6_stage0_L1_0 <- Mconv5_stage0_L1_concat
I0503 12:00:05.359490 21836 net.cpp:382] Mconv6_stage0_L1_0 -> Mconv6_stage0_L1_0
I0503 12:00:05.367135 21836 net.cpp:124] Setting up Mconv6_stage0_L1_0
I0503 12:00:05.367147 21836 net.cpp:131] Top shape: 3 192 60 60 (2073600)
I0503 12:00:05.367151 21836 net.cpp:139] Memory required for data: 4948344004
I0503 12:00:05.367156 21836 layer_factory.hpp:77] Creating layer Mprelu6_stage0_L1_0
I0503 12:00:05.367163 21836 net.cpp:86] Creating Layer Mprelu6_stage0_L1_0
I0503 12:00:05.367166 21836 net.cpp:408] Mprelu6_stage0_L1_0 <- Mconv6_stage0_L1_0
I0503 12:00:05.367170 21836 net.cpp:369] Mprelu6_stage0_L1_0 -> Mconv6_stage0_L1_0 (in-place)
I0503 12:00:05.368594 21836 net.cpp:124] Setting up Mprelu6_stage0_L1_0
I0503 12:00:05.368607 21836 net.cpp:131] Top shape: 3 192 60 60 (2073600)
I0503 12:00:05.368609 21836 net.cpp:139] Memory required for data: 4956638404
I0503 12:00:05.368613 21836 layer_factory.hpp:77] Creating layer Mconv6_stage0_L1_0_Mprelu6_stage0_L1_0_0_split
I0503 12:00:05.368619 21836 net.cpp:86] Creating Layer Mconv6_stage0_L1_0_Mprelu6_stage0_L1_0_0_split
I0503 12:00:05.368623 21836 net.cpp:408] Mconv6_stage0_L1_0_Mprelu6_stage0_L1_0_0_split <- Mconv6_stage0_L1_0
I0503 12:00:05.368628 21836 net.cpp:382] Mconv6_stage0_L1_0_Mprelu6_stage0_L1_0_0_split -> Mconv6_stage0_L1_0_Mprelu6_stage0_L1_0_0_split_0
I0503 12:00:05.368633 21836 net.cpp:382] Mconv6_stage0_L1_0_Mprelu6_stage0_L1_0_0_split -> Mconv6_stage0_L1_0_Mprelu6_stage0_L1_0_0_split_1
I0503 12:00:05.368716 21836 net.cpp:124] Setting up Mconv6_stage0_L1_0_Mprelu6_stage0_L1_0_0_split
I0503 12:00:05.368732 21836 net.cpp:131] Top shape: 3 192 60 60 (2073600)
I0503 12:00:05.368736 21836 net.cpp:131] Top shape: 3 192 60 60 (2073600)
I0503 12:00:05.368737 21836 net.cpp:139] Memory required for data: 4973227204
I0503 12:00:05.368750 21836 layer_factory.hpp:77] Creating layer Mconv6_stage0_L1_1
I0503 12:00:05.368760 21836 net.cpp:86] Creating Layer Mconv6_stage0_L1_1
I0503 12:00:05.368764 21836 net.cpp:408] Mconv6_stage0_L1_1 <- Mconv6_stage0_L1_0_Mprelu6_stage0_L1_0_0_split_0
I0503 12:00:05.368770 21836 net.cpp:382] Mconv6_stage0_L1_1 -> Mconv6_stage0_L1_1
I0503 12:00:05.374014 21836 net.cpp:124] Setting up Mconv6_stage0_L1_1
I0503 12:00:05.374028 21836 net.cpp:131] Top shape: 3 192 60 60 (2073600)
I0503 12:00:05.374032 21836 net.cpp:139] Memory required for data: 4981521604
I0503 12:00:05.374038 21836 layer_factory.hpp:77] Creating layer Mprelu6_stage0_L1_1
I0503 12:00:05.374044 21836 net.cpp:86] Creating Layer Mprelu6_stage0_L1_1
I0503 12:00:05.374047 21836 net.cpp:408] Mprelu6_stage0_L1_1 <- Mconv6_stage0_L1_1
I0503 12:00:05.374053 21836 net.cpp:369] Mprelu6_stage0_L1_1 -> Mconv6_stage0_L1_1 (in-place)
I0503 12:00:05.375511 21836 net.cpp:124] Setting up Mprelu6_stage0_L1_1
I0503 12:00:05.375524 21836 net.cpp:131] Top shape: 3 192 60 60 (2073600)
I0503 12:00:05.375527 21836 net.cpp:139] Memory required for data: 4989816004
I0503 12:00:05.375531 21836 layer_factory.hpp:77] Creating layer Mconv6_stage0_L1_1_Mprelu6_stage0_L1_1_0_split
I0503 12:00:05.375538 21836 net.cpp:86] Creating Layer Mconv6_stage0_L1_1_Mprelu6_stage0_L1_1_0_split
I0503 12:00:05.375541 21836 net.cpp:408] Mconv6_stage0_L1_1_Mprelu6_stage0_L1_1_0_split <- Mconv6_stage0_L1_1
I0503 12:00:05.375545 21836 net.cpp:382] Mconv6_stage0_L1_1_Mprelu6_stage0_L1_1_0_split -> Mconv6_stage0_L1_1_Mprelu6_stage0_L1_1_0_split_0
I0503 12:00:05.375552 21836 net.cpp:382] Mconv6_stage0_L1_1_Mprelu6_stage0_L1_1_0_split -> Mconv6_stage0_L1_1_Mprelu6_stage0_L1_1_0_split_1
I0503 12:00:05.375646 21836 net.cpp:124] Setting up Mconv6_stage0_L1_1_Mprelu6_stage0_L1_1_0_split
I0503 12:00:05.375654 21836 net.cpp:131] Top shape: 3 192 60 60 (2073600)
I0503 12:00:05.375658 21836 net.cpp:131] Top shape: 3 192 60 60 (2073600)
I0503 12:00:05.375660 21836 net.cpp:139] Memory required for data: 5006404804
I0503 12:00:05.375663 21836 layer_factory.hpp:77] Creating layer Mconv6_stage0_L1_2
I0503 12:00:05.375671 21836 net.cpp:86] Creating Layer Mconv6_stage0_L1_2
I0503 12:00:05.375675 21836 net.cpp:408] Mconv6_stage0_L1_2 <- Mconv6_stage0_L1_1_Mprelu6_stage0_L1_1_0_split_0
I0503 12:00:05.375680 21836 net.cpp:382] Mconv6_stage0_L1_2 -> Mconv6_stage0_L1_2
I0503 12:00:05.379567 21836 net.cpp:124] Setting up Mconv6_stage0_L1_2
I0503 12:00:05.379580 21836 net.cpp:131] Top shape: 3 192 60 60 (2073600)
I0503 12:00:05.379583 21836 net.cpp:139] Memory required for data: 5014699204
I0503 12:00:05.379590 21836 layer_factory.hpp:77] Creating layer Mprelu6_stage0_L1_2
I0503 12:00:05.379595 21836 net.cpp:86] Creating Layer Mprelu6_stage0_L1_2
I0503 12:00:05.379597 21836 net.cpp:408] Mprelu6_stage0_L1_2 <- Mconv6_stage0_L1_2
I0503 12:00:05.379603 21836 net.cpp:369] Mprelu6_stage0_L1_2 -> Mconv6_stage0_L1_2 (in-place)
I0503 12:00:05.381037 21836 net.cpp:124] Setting up Mprelu6_stage0_L1_2
I0503 12:00:05.381049 21836 net.cpp:131] Top shape: 3 192 60 60 (2073600)
I0503 12:00:05.381052 21836 net.cpp:139] Memory required for data: 5022993604
I0503 12:00:05.381057 21836 layer_factory.hpp:77] Creating layer Mconv6_stage0_L1_concat
I0503 12:00:05.381062 21836 net.cpp:86] Creating Layer Mconv6_stage0_L1_concat
I0503 12:00:05.381064 21836 net.cpp:408] Mconv6_stage0_L1_concat <- Mconv6_stage0_L1_0_Mprelu6_stage0_L1_0_0_split_1
I0503 12:00:05.381068 21836 net.cpp:408] Mconv6_stage0_L1_concat <- Mconv6_stage0_L1_1_Mprelu6_stage0_L1_1_0_split_1
I0503 12:00:05.381072 21836 net.cpp:408] Mconv6_stage0_L1_concat <- Mconv6_stage0_L1_2
I0503 12:00:05.381076 21836 net.cpp:382] Mconv6_stage0_L1_concat -> Mconv6_stage0_L1_concat
I0503 12:00:05.381134 21836 net.cpp:124] Setting up Mconv6_stage0_L1_concat
I0503 12:00:05.381139 21836 net.cpp:131] Top shape: 3 576 60 60 (6220800)
I0503 12:00:05.381141 21836 net.cpp:139] Memory required for data: 5047876804
I0503 12:00:05.381145 21836 layer_factory.hpp:77] Creating layer Mconv7_stage0_L1_0
I0503 12:00:05.381175 21836 net.cpp:86] Creating Layer Mconv7_stage0_L1_0
I0503 12:00:05.381178 21836 net.cpp:408] Mconv7_stage0_L1_0 <- Mconv6_stage0_L1_concat
I0503 12:00:05.381184 21836 net.cpp:382] Mconv7_stage0_L1_0 -> Mconv7_stage0_L1_0
I0503 12:00:05.388974 21836 net.cpp:124] Setting up Mconv7_stage0_L1_0
I0503 12:00:05.388988 21836 net.cpp:131] Top shape: 3 192 60 60 (2073600)
I0503 12:00:05.388990 21836 net.cpp:139] Memory required for data: 5056171204
I0503 12:00:05.388996 21836 layer_factory.hpp:77] Creating layer Mprelu7_stage0_L1_0
I0503 12:00:05.389001 21836 net.cpp:86] Creating Layer Mprelu7_stage0_L1_0
I0503 12:00:05.389006 21836 net.cpp:408] Mprelu7_stage0_L1_0 <- Mconv7_stage0_L1_0
I0503 12:00:05.389010 21836 net.cpp:369] Mprelu7_stage0_L1_0 -> Mconv7_stage0_L1_0 (in-place)
I0503 12:00:05.390429 21836 net.cpp:124] Setting up Mprelu7_stage0_L1_0
I0503 12:00:05.390441 21836 net.cpp:131] Top shape: 3 192 60 60 (2073600)
I0503 12:00:05.390456 21836 net.cpp:139] Memory required for data: 5064465604
I0503 12:00:05.390460 21836 layer_factory.hpp:77] Creating layer Mconv7_stage0_L1_0_Mprelu7_stage0_L1_0_0_split
I0503 12:00:05.390466 21836 net.cpp:86] Creating Layer Mconv7_stage0_L1_0_Mprelu7_stage0_L1_0_0_split
I0503 12:00:05.390470 21836 net.cpp:408] Mconv7_stage0_L1_0_Mprelu7_stage0_L1_0_0_split <- Mconv7_stage0_L1_0
I0503 12:00:05.390475 21836 net.cpp:382] Mconv7_stage0_L1_0_Mprelu7_stage0_L1_0_0_split -> Mconv7_stage0_L1_0_Mprelu7_stage0_L1_0_0_split_0
I0503 12:00:05.390481 21836 net.cpp:382] Mconv7_stage0_L1_0_Mprelu7_stage0_L1_0_0_split -> Mconv7_stage0_L1_0_Mprelu7_stage0_L1_0_0_split_1
I0503 12:00:05.390588 21836 net.cpp:124] Setting up Mconv7_stage0_L1_0_Mprelu7_stage0_L1_0_0_split
I0503 12:00:05.390595 21836 net.cpp:131] Top shape: 3 192 60 60 (2073600)
I0503 12:00:05.390599 21836 net.cpp:131] Top shape: 3 192 60 60 (2073600)
I0503 12:00:05.390601 21836 net.cpp:139] Memory required for data: 5081054404
I0503 12:00:05.390604 21836 layer_factory.hpp:77] Creating layer Mconv7_stage0_L1_1
I0503 12:00:05.390615 21836 net.cpp:86] Creating Layer Mconv7_stage0_L1_1
I0503 12:00:05.390619 21836 net.cpp:408] Mconv7_stage0_L1_1 <- Mconv7_stage0_L1_0_Mprelu7_stage0_L1_0_0_split_0
I0503 12:00:05.390625 21836 net.cpp:382] Mconv7_stage0_L1_1 -> Mconv7_stage0_L1_1
I0503 12:00:05.394265 21836 net.cpp:124] Setting up Mconv7_stage0_L1_1
I0503 12:00:05.394279 21836 net.cpp:131] Top shape: 3 192 60 60 (2073600)
I0503 12:00:05.394292 21836 net.cpp:139] Memory required for data: 5089348804
I0503 12:00:05.394302 21836 layer_factory.hpp:77] Creating layer Mprelu7_stage0_L1_1
I0503 12:00:05.394309 21836 net.cpp:86] Creating Layer Mprelu7_stage0_L1_1
I0503 12:00:05.394311 21836 net.cpp:408] Mprelu7_stage0_L1_1 <- Mconv7_stage0_L1_1
I0503 12:00:05.394317 21836 net.cpp:369] Mprelu7_stage0_L1_1 -> Mconv7_stage0_L1_1 (in-place)
I0503 12:00:05.395751 21836 net.cpp:124] Setting up Mprelu7_stage0_L1_1
I0503 12:00:05.395763 21836 net.cpp:131] Top shape: 3 192 60 60 (2073600)
I0503 12:00:05.395766 21836 net.cpp:139] Memory required for data: 5097643204
I0503 12:00:05.395771 21836 layer_factory.hpp:77] Creating layer Mconv7_stage0_L1_1_Mprelu7_stage0_L1_1_0_split
I0503 12:00:05.395776 21836 net.cpp:86] Creating Layer Mconv7_stage0_L1_1_Mprelu7_stage0_L1_1_0_split
I0503 12:00:05.395778 21836 net.cpp:408] Mconv7_stage0_L1_1_Mprelu7_stage0_L1_1_0_split <- Mconv7_stage0_L1_1
I0503 12:00:05.395783 21836 net.cpp:382] Mconv7_stage0_L1_1_Mprelu7_stage0_L1_1_0_split -> Mconv7_stage0_L1_1_Mprelu7_stage0_L1_1_0_split_0
I0503 12:00:05.395790 21836 net.cpp:382] Mconv7_stage0_L1_1_Mprelu7_stage0_L1_1_0_split -> Mconv7_stage0_L1_1_Mprelu7_stage0_L1_1_0_split_1
I0503 12:00:05.395886 21836 net.cpp:124] Setting up Mconv7_stage0_L1_1_Mprelu7_stage0_L1_1_0_split
I0503 12:00:05.395893 21836 net.cpp:131] Top shape: 3 192 60 60 (2073600)
I0503 12:00:05.395897 21836 net.cpp:131] Top shape: 3 192 60 60 (2073600)
I0503 12:00:05.395900 21836 net.cpp:139] Memory required for data: 5114232004
I0503 12:00:05.395902 21836 layer_factory.hpp:77] Creating layer Mconv7_stage0_L1_2
I0503 12:00:05.395922 21836 net.cpp:86] Creating Layer Mconv7_stage0_L1_2
I0503 12:00:05.395926 21836 net.cpp:408] Mconv7_stage0_L1_2 <- Mconv7_stage0_L1_1_Mprelu7_stage0_L1_1_0_split_0
I0503 12:00:05.395931 21836 net.cpp:382] Mconv7_stage0_L1_2 -> Mconv7_stage0_L1_2
I0503 12:00:05.400046 21836 net.cpp:124] Setting up Mconv7_stage0_L1_2
I0503 12:00:05.400058 21836 net.cpp:131] Top shape: 3 192 60 60 (2073600)
I0503 12:00:05.400061 21836 net.cpp:139] Memory required for data: 5122526404
I0503 12:00:05.400068 21836 layer_factory.hpp:77] Creating layer Mprelu7_stage0_L1_2
I0503 12:00:05.400074 21836 net.cpp:86] Creating Layer Mprelu7_stage0_L1_2
I0503 12:00:05.400076 21836 net.cpp:408] Mprelu7_stage0_L1_2 <- Mconv7_stage0_L1_2
I0503 12:00:05.400082 21836 net.cpp:369] Mprelu7_stage0_L1_2 -> Mconv7_stage0_L1_2 (in-place)
I0503 12:00:05.401515 21836 net.cpp:124] Setting up Mprelu7_stage0_L1_2
I0503 12:00:05.401526 21836 net.cpp:131] Top shape: 3 192 60 60 (2073600)
I0503 12:00:05.401530 21836 net.cpp:139] Memory required for data: 5130820804
I0503 12:00:05.401533 21836 layer_factory.hpp:77] Creating layer Mconv7_stage0_L1_concat
I0503 12:00:05.401540 21836 net.cpp:86] Creating Layer Mconv7_stage0_L1_concat
I0503 12:00:05.401545 21836 net.cpp:408] Mconv7_stage0_L1_concat <- Mconv7_stage0_L1_0_Mprelu7_stage0_L1_0_0_split_1
I0503 12:00:05.401548 21836 net.cpp:408] Mconv7_stage0_L1_concat <- Mconv7_stage0_L1_1_Mprelu7_stage0_L1_1_0_split_1
I0503 12:00:05.401551 21836 net.cpp:408] Mconv7_stage0_L1_concat <- Mconv7_stage0_L1_2
I0503 12:00:05.401556 21836 net.cpp:382] Mconv7_stage0_L1_concat -> Mconv7_stage0_L1_concat
I0503 12:00:05.401612 21836 net.cpp:124] Setting up Mconv7_stage0_L1_concat
I0503 12:00:05.401618 21836 net.cpp:131] Top shape: 3 576 60 60 (6220800)
I0503 12:00:05.401620 21836 net.cpp:139] Memory required for data: 5155704004
I0503 12:00:05.401623 21836 layer_factory.hpp:77] Creating layer Mconv8_stage0_L1_0
I0503 12:00:05.401633 21836 net.cpp:86] Creating Layer Mconv8_stage0_L1_0
I0503 12:00:05.401648 21836 net.cpp:408] Mconv8_stage0_L1_0 <- Mconv7_stage0_L1_concat
I0503 12:00:05.401654 21836 net.cpp:382] Mconv8_stage0_L1_0 -> Mconv8_stage0_L1_0
I0503 12:00:05.410810 21836 net.cpp:124] Setting up Mconv8_stage0_L1_0
I0503 12:00:05.410823 21836 net.cpp:131] Top shape: 3 192 60 60 (2073600)
I0503 12:00:05.410826 21836 net.cpp:139] Memory required for data: 5163998404
I0503 12:00:05.410833 21836 layer_factory.hpp:77] Creating layer Mprelu8_stage0_L1_0
I0503 12:00:05.410840 21836 net.cpp:86] Creating Layer Mprelu8_stage0_L1_0
I0503 12:00:05.410842 21836 net.cpp:408] Mprelu8_stage0_L1_0 <- Mconv8_stage0_L1_0
I0503 12:00:05.410846 21836 net.cpp:369] Mprelu8_stage0_L1_0 -> Mconv8_stage0_L1_0 (in-place)
I0503 12:00:05.412286 21836 net.cpp:124] Setting up Mprelu8_stage0_L1_0
I0503 12:00:05.412297 21836 net.cpp:131] Top shape: 3 192 60 60 (2073600)
I0503 12:00:05.412300 21836 net.cpp:139] Memory required for data: 5172292804
I0503 12:00:05.412304 21836 layer_factory.hpp:77] Creating layer Mconv8_stage0_L1_0_Mprelu8_stage0_L1_0_0_split
I0503 12:00:05.412310 21836 net.cpp:86] Creating Layer Mconv8_stage0_L1_0_Mprelu8_stage0_L1_0_0_split
I0503 12:00:05.412313 21836 net.cpp:408] Mconv8_stage0_L1_0_Mprelu8_stage0_L1_0_0_split <- Mconv8_stage0_L1_0
I0503 12:00:05.412318 21836 net.cpp:382] Mconv8_stage0_L1_0_Mprelu8_stage0_L1_0_0_split -> Mconv8_stage0_L1_0_Mprelu8_stage0_L1_0_0_split_0
I0503 12:00:05.412324 21836 net.cpp:382] Mconv8_stage0_L1_0_Mprelu8_stage0_L1_0_0_split -> Mconv8_stage0_L1_0_Mprelu8_stage0_L1_0_0_split_1
I0503 12:00:05.412425 21836 net.cpp:124] Setting up Mconv8_stage0_L1_0_Mprelu8_stage0_L1_0_0_split
I0503 12:00:05.412434 21836 net.cpp:131] Top shape: 3 192 60 60 (2073600)
I0503 12:00:05.412438 21836 net.cpp:131] Top shape: 3 192 60 60 (2073600)
I0503 12:00:05.412441 21836 net.cpp:139] Memory required for data: 5188881604
I0503 12:00:05.412443 21836 layer_factory.hpp:77] Creating layer Mconv8_stage0_L1_1
I0503 12:00:05.412452 21836 net.cpp:86] Creating Layer Mconv8_stage0_L1_1
I0503 12:00:05.412467 21836 net.cpp:408] Mconv8_stage0_L1_1 <- Mconv8_stage0_L1_0_Mprelu8_stage0_L1_0_0_split_0
I0503 12:00:05.412473 21836 net.cpp:382] Mconv8_stage0_L1_1 -> Mconv8_stage0_L1_1
I0503 12:00:05.416426 21836 net.cpp:124] Setting up Mconv8_stage0_L1_1
I0503 12:00:05.416440 21836 net.cpp:131] Top shape: 3 192 60 60 (2073600)
I0503 12:00:05.416443 21836 net.cpp:139] Memory required for data: 5197176004
I0503 12:00:05.416450 21836 layer_factory.hpp:77] Creating layer Mprelu8_stage0_L1_1
I0503 12:00:05.416455 21836 net.cpp:86] Creating Layer Mprelu8_stage0_L1_1
I0503 12:00:05.416458 21836 net.cpp:408] Mprelu8_stage0_L1_1 <- Mconv8_stage0_L1_1
I0503 12:00:05.416463 21836 net.cpp:369] Mprelu8_stage0_L1_1 -> Mconv8_stage0_L1_1 (in-place)
I0503 12:00:05.417892 21836 net.cpp:124] Setting up Mprelu8_stage0_L1_1
I0503 12:00:05.417904 21836 net.cpp:131] Top shape: 3 192 60 60 (2073600)
I0503 12:00:05.417907 21836 net.cpp:139] Memory required for data: 5205470404
I0503 12:00:05.417912 21836 layer_factory.hpp:77] Creating layer Mconv8_stage0_L1_1_Mprelu8_stage0_L1_1_0_split
I0503 12:00:05.417918 21836 net.cpp:86] Creating Layer Mconv8_stage0_L1_1_Mprelu8_stage0_L1_1_0_split
I0503 12:00:05.417922 21836 net.cpp:408] Mconv8_stage0_L1_1_Mprelu8_stage0_L1_1_0_split <- Mconv8_stage0_L1_1
I0503 12:00:05.417927 21836 net.cpp:382] Mconv8_stage0_L1_1_Mprelu8_stage0_L1_1_0_split -> Mconv8_stage0_L1_1_Mprelu8_stage0_L1_1_0_split_0
I0503 12:00:05.417932 21836 net.cpp:382] Mconv8_stage0_L1_1_Mprelu8_stage0_L1_1_0_split -> Mconv8_stage0_L1_1_Mprelu8_stage0_L1_1_0_split_1
I0503 12:00:05.418030 21836 net.cpp:124] Setting up Mconv8_stage0_L1_1_Mprelu8_stage0_L1_1_0_split
I0503 12:00:05.418038 21836 net.cpp:131] Top shape: 3 192 60 60 (2073600)
I0503 12:00:05.418042 21836 net.cpp:131] Top shape: 3 192 60 60 (2073600)
I0503 12:00:05.418045 21836 net.cpp:139] Memory required for data: 5222059204
I0503 12:00:05.418047 21836 layer_factory.hpp:77] Creating layer Mconv8_stage0_L1_2
I0503 12:00:05.418056 21836 net.cpp:86] Creating Layer Mconv8_stage0_L1_2
I0503 12:00:05.418059 21836 net.cpp:408] Mconv8_stage0_L1_2 <- Mconv8_stage0_L1_1_Mprelu8_stage0_L1_1_0_split_0
I0503 12:00:05.418066 21836 net.cpp:382] Mconv8_stage0_L1_2 -> Mconv8_stage0_L1_2
I0503 12:00:05.422029 21836 net.cpp:124] Setting up Mconv8_stage0_L1_2
I0503 12:00:05.422040 21836 net.cpp:131] Top shape: 3 192 60 60 (2073600)
I0503 12:00:05.422044 21836 net.cpp:139] Memory required for data: 5230353604
I0503 12:00:05.422049 21836 layer_factory.hpp:77] Creating layer Mprelu8_stage0_L1_2
I0503 12:00:05.422056 21836 net.cpp:86] Creating Layer Mprelu8_stage0_L1_2
I0503 12:00:05.422060 21836 net.cpp:408] Mprelu8_stage0_L1_2 <- Mconv8_stage0_L1_2
I0503 12:00:05.422067 21836 net.cpp:369] Mprelu8_stage0_L1_2 -> Mconv8_stage0_L1_2 (in-place)
I0503 12:00:05.423550 21836 net.cpp:124] Setting up Mprelu8_stage0_L1_2
I0503 12:00:05.423563 21836 net.cpp:131] Top shape: 3 192 60 60 (2073600)
I0503 12:00:05.423565 21836 net.cpp:139] Memory required for data: 5238648004
I0503 12:00:05.423569 21836 layer_factory.hpp:77] Creating layer Mconv8_stage0_L1_concat
I0503 12:00:05.423575 21836 net.cpp:86] Creating Layer Mconv8_stage0_L1_concat
I0503 12:00:05.423580 21836 net.cpp:408] Mconv8_stage0_L1_concat <- Mconv8_stage0_L1_0_Mprelu8_stage0_L1_0_0_split_1
I0503 12:00:05.423584 21836 net.cpp:408] Mconv8_stage0_L1_concat <- Mconv8_stage0_L1_1_Mprelu8_stage0_L1_1_0_split_1
I0503 12:00:05.423588 21836 net.cpp:408] Mconv8_stage0_L1_concat <- Mconv8_stage0_L1_2
I0503 12:00:05.423591 21836 net.cpp:382] Mconv8_stage0_L1_concat -> Mconv8_stage0_L1_concat
I0503 12:00:05.423650 21836 net.cpp:124] Setting up Mconv8_stage0_L1_concat
I0503 12:00:05.423655 21836 net.cpp:131] Top shape: 3 576 60 60 (6220800)
I0503 12:00:05.423656 21836 net.cpp:139] Memory required for data: 5263531204
I0503 12:00:05.423660 21836 layer_factory.hpp:77] Creating layer Mconv9_stage0_L1_0
I0503 12:00:05.423681 21836 net.cpp:86] Creating Layer Mconv9_stage0_L1_0
I0503 12:00:05.423684 21836 net.cpp:408] Mconv9_stage0_L1_0 <- Mconv8_stage0_L1_concat
I0503 12:00:05.423699 21836 net.cpp:382] Mconv9_stage0_L1_0 -> Mconv9_stage0_L1_0
I0503 12:00:05.431506 21836 net.cpp:124] Setting up Mconv9_stage0_L1_0
I0503 12:00:05.431520 21836 net.cpp:131] Top shape: 3 192 60 60 (2073600)
I0503 12:00:05.431524 21836 net.cpp:139] Memory required for data: 5271825604
I0503 12:00:05.431529 21836 layer_factory.hpp:77] Creating layer Mprelu9_stage0_L1_0
I0503 12:00:05.431535 21836 net.cpp:86] Creating Layer Mprelu9_stage0_L1_0
I0503 12:00:05.431538 21836 net.cpp:408] Mprelu9_stage0_L1_0 <- Mconv9_stage0_L1_0
I0503 12:00:05.431542 21836 net.cpp:369] Mprelu9_stage0_L1_0 -> Mconv9_stage0_L1_0 (in-place)
I0503 12:00:05.432977 21836 net.cpp:124] Setting up Mprelu9_stage0_L1_0
I0503 12:00:05.432989 21836 net.cpp:131] Top shape: 3 192 60 60 (2073600)
I0503 12:00:05.432991 21836 net.cpp:139] Memory required for data: 5280120004
I0503 12:00:05.432996 21836 layer_factory.hpp:77] Creating layer Mconv9_stage0_L1_0_Mprelu9_stage0_L1_0_0_split
I0503 12:00:05.433007 21836 net.cpp:86] Creating Layer Mconv9_stage0_L1_0_Mprelu9_stage0_L1_0_0_split
I0503 12:00:05.433012 21836 net.cpp:408] Mconv9_stage0_L1_0_Mprelu9_stage0_L1_0_0_split <- Mconv9_stage0_L1_0
I0503 12:00:05.433015 21836 net.cpp:382] Mconv9_stage0_L1_0_Mprelu9_stage0_L1_0_0_split -> Mconv9_stage0_L1_0_Mprelu9_stage0_L1_0_0_split_0
I0503 12:00:05.433022 21836 net.cpp:382] Mconv9_stage0_L1_0_Mprelu9_stage0_L1_0_0_split -> Mconv9_stage0_L1_0_Mprelu9_stage0_L1_0_0_split_1
I0503 12:00:05.433120 21836 net.cpp:124] Setting up Mconv9_stage0_L1_0_Mprelu9_stage0_L1_0_0_split
I0503 12:00:05.433132 21836 net.cpp:131] Top shape: 3 192 60 60 (2073600)
I0503 12:00:05.433136 21836 net.cpp:131] Top shape: 3 192 60 60 (2073600)
I0503 12:00:05.433138 21836 net.cpp:139] Memory required for data: 5296708804
I0503 12:00:05.433141 21836 layer_factory.hpp:77] Creating layer Mconv9_stage0_L1_1
I0503 12:00:05.433151 21836 net.cpp:86] Creating Layer Mconv9_stage0_L1_1
I0503 12:00:05.433154 21836 net.cpp:408] Mconv9_stage0_L1_1 <- Mconv9_stage0_L1_0_Mprelu9_stage0_L1_0_0_split_0
I0503 12:00:05.433159 21836 net.cpp:382] Mconv9_stage0_L1_1 -> Mconv9_stage0_L1_1
I0503 12:00:05.436828 21836 net.cpp:124] Setting up Mconv9_stage0_L1_1
I0503 12:00:05.436841 21836 net.cpp:131] Top shape: 3 192 60 60 (2073600)
I0503 12:00:05.436844 21836 net.cpp:139] Memory required for data: 5305003204
I0503 12:00:05.436851 21836 layer_factory.hpp:77] Creating layer Mprelu9_stage0_L1_1
I0503 12:00:05.436856 21836 net.cpp:86] Creating Layer Mprelu9_stage0_L1_1
I0503 12:00:05.436861 21836 net.cpp:408] Mprelu9_stage0_L1_1 <- Mconv9_stage0_L1_1
I0503 12:00:05.436864 21836 net.cpp:369] Mprelu9_stage0_L1_1 -> Mconv9_stage0_L1_1 (in-place)
I0503 12:00:05.438329 21836 net.cpp:124] Setting up Mprelu9_stage0_L1_1
I0503 12:00:05.438352 21836 net.cpp:131] Top shape: 3 192 60 60 (2073600)
I0503 12:00:05.438356 21836 net.cpp:139] Memory required for data: 5313297604
I0503 12:00:05.438361 21836 layer_factory.hpp:77] Creating layer Mconv9_stage0_L1_1_Mprelu9_stage0_L1_1_0_split
I0503 12:00:05.438369 21836 net.cpp:86] Creating Layer Mconv9_stage0_L1_1_Mprelu9_stage0_L1_1_0_split
I0503 12:00:05.438374 21836 net.cpp:408] Mconv9_stage0_L1_1_Mprelu9_stage0_L1_1_0_split <- Mconv9_stage0_L1_1
I0503 12:00:05.438378 21836 net.cpp:382] Mconv9_stage0_L1_1_Mprelu9_stage0_L1_1_0_split -> Mconv9_stage0_L1_1_Mprelu9_stage0_L1_1_0_split_0
I0503 12:00:05.438385 21836 net.cpp:382] Mconv9_stage0_L1_1_Mprelu9_stage0_L1_1_0_split -> Mconv9_stage0_L1_1_Mprelu9_stage0_L1_1_0_split_1
I0503 12:00:05.438467 21836 net.cpp:124] Setting up Mconv9_stage0_L1_1_Mprelu9_stage0_L1_1_0_split
I0503 12:00:05.438475 21836 net.cpp:131] Top shape: 3 192 60 60 (2073600)
I0503 12:00:05.438479 21836 net.cpp:131] Top shape: 3 192 60 60 (2073600)
I0503 12:00:05.438482 21836 net.cpp:139] Memory required for data: 5329886404
I0503 12:00:05.438484 21836 layer_factory.hpp:77] Creating layer Mconv9_stage0_L1_2
I0503 12:00:05.438493 21836 net.cpp:86] Creating Layer Mconv9_stage0_L1_2
I0503 12:00:05.438498 21836 net.cpp:408] Mconv9_stage0_L1_2 <- Mconv9_stage0_L1_1_Mprelu9_stage0_L1_1_0_split_0
I0503 12:00:05.438513 21836 net.cpp:382] Mconv9_stage0_L1_2 -> Mconv9_stage0_L1_2
I0503 12:00:05.443744 21836 net.cpp:124] Setting up Mconv9_stage0_L1_2
I0503 12:00:05.443758 21836 net.cpp:131] Top shape: 3 192 60 60 (2073600)
I0503 12:00:05.443760 21836 net.cpp:139] Memory required for data: 5338180804
I0503 12:00:05.443766 21836 layer_factory.hpp:77] Creating layer Mprelu9_stage0_L1_2
I0503 12:00:05.443773 21836 net.cpp:86] Creating Layer Mprelu9_stage0_L1_2
I0503 12:00:05.443775 21836 net.cpp:408] Mprelu9_stage0_L1_2 <- Mconv9_stage0_L1_2
I0503 12:00:05.443780 21836 net.cpp:369] Mprelu9_stage0_L1_2 -> Mconv9_stage0_L1_2 (in-place)
I0503 12:00:05.445248 21836 net.cpp:124] Setting up Mprelu9_stage0_L1_2
I0503 12:00:05.445261 21836 net.cpp:131] Top shape: 3 192 60 60 (2073600)
I0503 12:00:05.445276 21836 net.cpp:139] Memory required for data: 5346475204
I0503 12:00:05.445279 21836 layer_factory.hpp:77] Creating layer Mconv9_stage0_L1_concat
I0503 12:00:05.445286 21836 net.cpp:86] Creating Layer Mconv9_stage0_L1_concat
I0503 12:00:05.445291 21836 net.cpp:408] Mconv9_stage0_L1_concat <- Mconv9_stage0_L1_0_Mprelu9_stage0_L1_0_0_split_1
I0503 12:00:05.445294 21836 net.cpp:408] Mconv9_stage0_L1_concat <- Mconv9_stage0_L1_1_Mprelu9_stage0_L1_1_0_split_1
I0503 12:00:05.445298 21836 net.cpp:408] Mconv9_stage0_L1_concat <- Mconv9_stage0_L1_2
I0503 12:00:05.445303 21836 net.cpp:382] Mconv9_stage0_L1_concat -> Mconv9_stage0_L1_concat
I0503 12:00:05.445353 21836 net.cpp:124] Setting up Mconv9_stage0_L1_concat
I0503 12:00:05.445358 21836 net.cpp:131] Top shape: 3 576 60 60 (6220800)
I0503 12:00:05.445371 21836 net.cpp:139] Memory required for data: 5371358404
I0503 12:00:05.445374 21836 layer_factory.hpp:77] Creating layer Mconv10_stage0_L1
I0503 12:00:05.445384 21836 net.cpp:86] Creating Layer Mconv10_stage0_L1
I0503 12:00:05.445387 21836 net.cpp:408] Mconv10_stage0_L1 <- Mconv9_stage0_L1_concat
I0503 12:00:05.445392 21836 net.cpp:382] Mconv10_stage0_L1 -> Mconv10_stage0_L1
I0503 12:00:05.448974 21836 net.cpp:124] Setting up Mconv10_stage0_L1
I0503 12:00:05.448987 21836 net.cpp:131] Top shape: 3 512 60 60 (5529600)
I0503 12:00:05.448990 21836 net.cpp:139] Memory required for data: 5393476804
I0503 12:00:05.448997 21836 layer_factory.hpp:77] Creating layer Mprelu10_stage0_L1
I0503 12:00:05.449002 21836 net.cpp:86] Creating Layer Mprelu10_stage0_L1
I0503 12:00:05.449007 21836 net.cpp:408] Mprelu10_stage0_L1 <- Mconv10_stage0_L1
I0503 12:00:05.449010 21836 net.cpp:369] Mprelu10_stage0_L1 -> Mconv10_stage0_L1 (in-place)
I0503 12:00:05.451966 21836 net.cpp:124] Setting up Mprelu10_stage0_L1
I0503 12:00:05.451992 21836 net.cpp:131] Top shape: 3 512 60 60 (5529600)
I0503 12:00:05.451997 21836 net.cpp:139] Memory required for data: 5415595204
I0503 12:00:05.452003 21836 layer_factory.hpp:77] Creating layer Mconv11_stage0_L1
I0503 12:00:05.452019 21836 net.cpp:86] Creating Layer Mconv11_stage0_L1
I0503 12:00:05.452024 21836 net.cpp:408] Mconv11_stage0_L1 <- Mconv10_stage0_L1
I0503 12:00:05.452034 21836 net.cpp:382] Mconv11_stage0_L1 -> Mconv11_stage0_L1
I0503 12:00:05.453709 21836 net.cpp:124] Setting up Mconv11_stage0_L1
I0503 12:00:05.453722 21836 net.cpp:131] Top shape: 3 135 60 60 (1458000)
I0503 12:00:05.453725 21836 net.cpp:139] Memory required for data: 5421427204
I0503 12:00:05.453730 21836 layer_factory.hpp:77] Creating layer weight_stage0_L1
I0503 12:00:05.453737 21836 net.cpp:86] Creating Layer weight_stage0_L1
I0503 12:00:05.453739 21836 net.cpp:408] weight_stage0_L1 <- Mconv11_stage0_L1
I0503 12:00:05.453745 21836 net.cpp:408] weight_stage0_L1 <- heat_weight_vec_weight_1_split_1
I0503 12:00:05.453750 21836 net.cpp:382] weight_stage0_L1 -> weight_stage0_L1
I0503 12:00:05.453821 21836 net.cpp:124] Setting up weight_stage0_L1
I0503 12:00:05.453827 21836 net.cpp:131] Top shape: 3 135 60 60 (1458000)
I0503 12:00:05.453841 21836 net.cpp:139] Memory required for data: 5427259204
I0503 12:00:05.453845 21836 layer_factory.hpp:77] Creating layer loss_stage0_L1
I0503 12:00:05.453851 21836 net.cpp:86] Creating Layer loss_stage0_L1
I0503 12:00:05.453866 21836 net.cpp:408] loss_stage0_L1 <- weight_stage0_L1
I0503 12:00:05.453871 21836 net.cpp:408] loss_stage0_L1 <- label_heat
I0503 12:00:05.453874 21836 net.cpp:382] loss_stage0_L1 -> loss_stage0_L1
…
